{"format": "graph-model", "generatedBy": "CouncilMed v3", "convertedBy": "CouncilMed Frozen Graph Exporter", "modelTopology": {"node": [{"name": "x", "op": "Placeholder", "input": [], "attr": {"shape": {"shape": {"dim": [{"size": "-1"}, {"size": "224"}, {"size": "224"}, {"size": "3"}]}}, "dtype": {"type": "DT_FLOAT"}}}, {"name": "AttentionNet_1/mobilenetv2_1.00_224_1/Conv1_1/convolution/ReadVariableOp/resource", "op": "Const", "input": [], "attr": {"dtype": {"type": "DT_FLOAT"}}}, {"name": "AttentionNet_1/mobilenetv2_1.00_224_1/bn_Conv1_1/Cast_1/ReadVariableOp/resource", "op": "Const", "input": [], "attr": {"dtype": {"type": "DT_FLOAT"}}}, {"name": "AttentionNet_1/mobilenetv2_1.00_224_1/bn_Conv1_1/batchnorm/add/y", "op": "Const", "input": [], "attr": {"dtype": {"type": "DT_FLOAT"}}}, {"name": "AttentionNet_1/mobilenetv2_1.00_224_1/bn_Conv1_1/Cast_2/ReadVariableOp/resource", "op": "Const", "input": [], "attr": {"dtype": {"type": "DT_FLOAT"}}}, {"name": "AttentionNet_1/mobilenetv2_1.00_224_1/bn_Conv1_1/Cast_3/ReadVariableOp/resource", "op": "Const", "input": [], "attr": {"dtype": {"type": "DT_FLOAT"}}}, {"name": "AttentionNet_1/mobilenetv2_1.00_224_1/bn_Conv1_1/Cast/ReadVariableOp/resource", "op": "Const", "input": [], "attr": {"dtype": {"type": "DT_FLOAT"}}}, {"name": "AttentionNet_1/mobilenetv2_1.00_224_1/expanded_conv_depthwise_1/depthwise/ReadVariableOp/resource", "op": "Const", "input": [], "attr": {"dtype": {"type": "DT_FLOAT"}}}, {"name": "AttentionNet_1/mobilenetv2_1.00_224_1/expanded_conv_depthwise_BN_1/Cast_1/ReadVariableOp/resource", "op": "Const", "input": [], "attr": {"dtype": {"type": "DT_FLOAT"}}}, {"name": "AttentionNet_1/mobilenetv2_1.00_224_1/expanded_conv_depthwise_BN_1/batchnorm/add/y", "op": "Const", "input": [], "attr": {"dtype": {"type": "DT_FLOAT"}}}, {"name": "AttentionNet_1/mobilenetv2_1.00_224_1/expanded_conv_depthwise_BN_1/Cast_2/ReadVariableOp/resource", "op": "Const", "input": [], "attr": {"dtype": {"type": "DT_FLOAT"}}}, {"name": "AttentionNet_1/mobilenetv2_1.00_224_1/expanded_conv_depthwise_BN_1/Cast_3/ReadVariableOp/resource", "op": "Const", "input": [], "attr": {"dtype": {"type": "DT_FLOAT"}}}, {"name": "AttentionNet_1/mobilenetv2_1.00_224_1/expanded_conv_depthwise_BN_1/Cast/ReadVariableOp/resource", "op": "Const", "input": [], "attr": {"dtype": {"type": "DT_FLOAT"}}}, {"name": "AttentionNet_1/mobilenetv2_1.00_224_1/expanded_conv_project_1/convolution/ReadVariableOp/resource", "op": "Const", "input": [], "attr": {"dtype": {"type": "DT_FLOAT"}}}, {"name": "AttentionNet_1/mobilenetv2_1.00_224_1/expanded_conv_project_BN_1/Cast_1/ReadVariableOp/resource", "op": "Const", "input": [], "attr": {"dtype": {"type": "DT_FLOAT"}}}, {"name": "AttentionNet_1/mobilenetv2_1.00_224_1/expanded_conv_project_BN_1/batchnorm/add/y", "op": "Const", "input": [], "attr": {"dtype": {"type": "DT_FLOAT"}}}, {"name": "AttentionNet_1/mobilenetv2_1.00_224_1/expanded_conv_project_BN_1/Cast_2/ReadVariableOp/resource", "op": "Const", "input": [], "attr": {"dtype": {"type": "DT_FLOAT"}}}, {"name": "AttentionNet_1/mobilenetv2_1.00_224_1/expanded_conv_project_BN_1/Cast_3/ReadVariableOp/resource", "op": "Const", "input": [], "attr": {"dtype": {"type": "DT_FLOAT"}}}, {"name": "AttentionNet_1/mobilenetv2_1.00_224_1/expanded_conv_project_BN_1/Cast/ReadVariableOp/resource", "op": "Const", "input": [], "attr": {"dtype": {"type": "DT_FLOAT"}}}, {"name": "AttentionNet_1/mobilenetv2_1.00_224_1/block_1_expand_1/convolution/ReadVariableOp/resource", "op": "Const", "input": [], "attr": {"dtype": {"type": "DT_FLOAT"}}}, {"name": "AttentionNet_1/mobilenetv2_1.00_224_1/block_1_expand_BN_1/Cast_1/ReadVariableOp/resource", "op": "Const", "input": [], "attr": {"dtype": {"type": "DT_FLOAT"}}}, {"name": "AttentionNet_1/mobilenetv2_1.00_224_1/block_1_expand_BN_1/batchnorm/add/y", "op": "Const", "input": [], "attr": {"dtype": {"type": "DT_FLOAT"}}}, {"name": "AttentionNet_1/mobilenetv2_1.00_224_1/block_1_expand_BN_1/Cast_2/ReadVariableOp/resource", "op": "Const", "input": [], "attr": {"dtype": {"type": "DT_FLOAT"}}}, {"name": "AttentionNet_1/mobilenetv2_1.00_224_1/block_1_expand_BN_1/Cast_3/ReadVariableOp/resource", "op": "Const", "input": [], "attr": {"dtype": {"type": "DT_FLOAT"}}}, {"name": "AttentionNet_1/mobilenetv2_1.00_224_1/block_1_expand_BN_1/Cast/ReadVariableOp/resource", "op": "Const", "input": [], "attr": {"dtype": {"type": "DT_FLOAT"}}}, {"name": "AttentionNet_1/mobilenetv2_1.00_224_1/block_1_pad_1/Const", "op": "Const", "input": [], "attr": {"dtype": {"type": "DT_INT32"}}}, {"name": "AttentionNet_1/mobilenetv2_1.00_224_1/block_1_depthwise_1/depthwise/ReadVariableOp/resource", "op": "Const", "input": [], "attr": {"dtype": {"type": "DT_FLOAT"}}}, {"name": "AttentionNet_1/mobilenetv2_1.00_224_1/block_1_depthwise_BN_1/Cast_1/ReadVariableOp/resource", "op": "Const", "input": [], "attr": {"dtype": {"type": "DT_FLOAT"}}}, {"name": "AttentionNet_1/mobilenetv2_1.00_224_1/block_1_depthwise_BN_1/batchnorm/add/y", "op": "Const", "input": [], "attr": {"dtype": {"type": "DT_FLOAT"}}}, {"name": "AttentionNet_1/mobilenetv2_1.00_224_1/block_1_depthwise_BN_1/Cast_2/ReadVariableOp/resource", "op": "Const", "input": [], "attr": {"dtype": {"type": "DT_FLOAT"}}}, {"name": "AttentionNet_1/mobilenetv2_1.00_224_1/block_1_depthwise_BN_1/Cast_3/ReadVariableOp/resource", "op": "Const", "input": [], "attr": {"dtype": {"type": "DT_FLOAT"}}}, {"name": "AttentionNet_1/mobilenetv2_1.00_224_1/block_1_depthwise_BN_1/Cast/ReadVariableOp/resource", "op": "Const", "input": [], "attr": {"dtype": {"type": "DT_FLOAT"}}}, {"name": "AttentionNet_1/mobilenetv2_1.00_224_1/block_1_project_1/convolution/ReadVariableOp/resource", "op": "Const", "input": [], "attr": {"dtype": {"type": "DT_FLOAT"}}}, {"name": "AttentionNet_1/mobilenetv2_1.00_224_1/block_1_project_BN_1/Cast_1/ReadVariableOp/resource", "op": "Const", "input": [], "attr": {"dtype": {"type": "DT_FLOAT"}}}, {"name": "AttentionNet_1/mobilenetv2_1.00_224_1/block_1_project_BN_1/batchnorm/add/y", "op": "Const", "input": [], "attr": {"dtype": {"type": "DT_FLOAT"}}}, {"name": "AttentionNet_1/mobilenetv2_1.00_224_1/block_1_project_BN_1/Cast_2/ReadVariableOp/resource", "op": "Const", "input": [], "attr": {"dtype": {"type": "DT_FLOAT"}}}, {"name": "AttentionNet_1/mobilenetv2_1.00_224_1/block_1_project_BN_1/Cast_3/ReadVariableOp/resource", "op": "Const", "input": [], "attr": {"dtype": {"type": "DT_FLOAT"}}}, {"name": "AttentionNet_1/mobilenetv2_1.00_224_1/block_1_project_BN_1/Cast/ReadVariableOp/resource", "op": "Const", "input": [], "attr": {"dtype": {"type": "DT_FLOAT"}}}, {"name": "AttentionNet_1/mobilenetv2_1.00_224_1/block_2_expand_1/convolution/ReadVariableOp/resource", "op": "Const", "input": [], "attr": {"dtype": {"type": "DT_FLOAT"}}}, {"name": "AttentionNet_1/mobilenetv2_1.00_224_1/block_2_expand_BN_1/Cast_1/ReadVariableOp/resource", "op": "Const", "input": [], "attr": {"dtype": {"type": "DT_FLOAT"}}}, {"name": "AttentionNet_1/mobilenetv2_1.00_224_1/block_2_expand_BN_1/batchnorm/add/y", "op": "Const", "input": [], "attr": {"dtype": {"type": "DT_FLOAT"}}}, {"name": "AttentionNet_1/mobilenetv2_1.00_224_1/block_2_expand_BN_1/Cast_2/ReadVariableOp/resource", "op": "Const", "input": [], "attr": {"dtype": {"type": "DT_FLOAT"}}}, {"name": "AttentionNet_1/mobilenetv2_1.00_224_1/block_2_expand_BN_1/Cast_3/ReadVariableOp/resource", "op": "Const", "input": [], "attr": {"dtype": {"type": "DT_FLOAT"}}}, {"name": "AttentionNet_1/mobilenetv2_1.00_224_1/block_2_expand_BN_1/Cast/ReadVariableOp/resource", "op": "Const", "input": [], "attr": {"dtype": {"type": "DT_FLOAT"}}}, {"name": "AttentionNet_1/mobilenetv2_1.00_224_1/block_2_depthwise_1/depthwise/ReadVariableOp/resource", "op": "Const", "input": [], "attr": {"dtype": {"type": "DT_FLOAT"}}}, {"name": "AttentionNet_1/mobilenetv2_1.00_224_1/block_2_depthwise_BN_1/Cast_1/ReadVariableOp/resource", "op": "Const", "input": [], "attr": {"dtype": {"type": "DT_FLOAT"}}}, {"name": "AttentionNet_1/mobilenetv2_1.00_224_1/block_2_depthwise_BN_1/batchnorm/add/y", "op": "Const", "input": [], "attr": {"dtype": {"type": "DT_FLOAT"}}}, {"name": "AttentionNet_1/mobilenetv2_1.00_224_1/block_2_depthwise_BN_1/Cast_2/ReadVariableOp/resource", "op": "Const", "input": [], "attr": {"dtype": {"type": "DT_FLOAT"}}}, {"name": "AttentionNet_1/mobilenetv2_1.00_224_1/block_2_depthwise_BN_1/Cast_3/ReadVariableOp/resource", "op": "Const", "input": [], "attr": {"dtype": {"type": "DT_FLOAT"}}}, {"name": "AttentionNet_1/mobilenetv2_1.00_224_1/block_2_depthwise_BN_1/Cast/ReadVariableOp/resource", "op": "Const", "input": [], "attr": {"dtype": {"type": "DT_FLOAT"}}}, {"name": "AttentionNet_1/mobilenetv2_1.00_224_1/block_2_project_1/convolution/ReadVariableOp/resource", "op": "Const", "input": [], "attr": {"dtype": {"type": "DT_FLOAT"}}}, {"name": "AttentionNet_1/mobilenetv2_1.00_224_1/block_2_project_BN_1/Cast_1/ReadVariableOp/resource", "op": "Const", "input": [], "attr": {"dtype": {"type": "DT_FLOAT"}}}, {"name": "AttentionNet_1/mobilenetv2_1.00_224_1/block_2_project_BN_1/batchnorm/add/y", "op": "Const", "input": [], "attr": {"dtype": {"type": "DT_FLOAT"}}}, {"name": "AttentionNet_1/mobilenetv2_1.00_224_1/block_2_project_BN_1/Cast_2/ReadVariableOp/resource", "op": "Const", "input": [], "attr": {"dtype": {"type": "DT_FLOAT"}}}, {"name": "AttentionNet_1/mobilenetv2_1.00_224_1/block_2_project_BN_1/Cast_3/ReadVariableOp/resource", "op": "Const", "input": [], "attr": {"dtype": {"type": "DT_FLOAT"}}}, {"name": "AttentionNet_1/mobilenetv2_1.00_224_1/block_2_project_BN_1/Cast/ReadVariableOp/resource", "op": "Const", "input": [], "attr": {"dtype": {"type": "DT_FLOAT"}}}, {"name": "AttentionNet_1/mobilenetv2_1.00_224_1/block_3_expand_1/convolution/ReadVariableOp/resource", "op": "Const", "input": [], "attr": {"dtype": {"type": "DT_FLOAT"}}}, {"name": "AttentionNet_1/mobilenetv2_1.00_224_1/block_3_expand_BN_1/Cast_1/ReadVariableOp/resource", "op": "Const", "input": [], "attr": {"dtype": {"type": "DT_FLOAT"}}}, {"name": "AttentionNet_1/mobilenetv2_1.00_224_1/block_3_expand_BN_1/batchnorm/add/y", "op": "Const", "input": [], "attr": {"dtype": {"type": "DT_FLOAT"}}}, {"name": "AttentionNet_1/mobilenetv2_1.00_224_1/block_3_expand_BN_1/Cast_2/ReadVariableOp/resource", "op": "Const", "input": [], "attr": {"dtype": {"type": "DT_FLOAT"}}}, {"name": "AttentionNet_1/mobilenetv2_1.00_224_1/block_3_expand_BN_1/Cast_3/ReadVariableOp/resource", "op": "Const", "input": [], "attr": {"dtype": {"type": "DT_FLOAT"}}}, {"name": "AttentionNet_1/mobilenetv2_1.00_224_1/block_3_expand_BN_1/Cast/ReadVariableOp/resource", "op": "Const", "input": [], "attr": {"dtype": {"type": "DT_FLOAT"}}}, {"name": "AttentionNet_1/mobilenetv2_1.00_224_1/block_3_pad_1/Const", "op": "Const", "input": [], "attr": {"dtype": {"type": "DT_INT32"}}}, {"name": "AttentionNet_1/mobilenetv2_1.00_224_1/block_3_depthwise_1/depthwise/ReadVariableOp/resource", "op": "Const", "input": [], "attr": {"dtype": {"type": "DT_FLOAT"}}}, {"name": "AttentionNet_1/mobilenetv2_1.00_224_1/block_3_depthwise_BN_1/Cast_1/ReadVariableOp/resource", "op": "Const", "input": [], "attr": {"dtype": {"type": "DT_FLOAT"}}}, {"name": "AttentionNet_1/mobilenetv2_1.00_224_1/block_3_depthwise_BN_1/batchnorm/add/y", "op": "Const", "input": [], "attr": {"dtype": {"type": "DT_FLOAT"}}}, {"name": "AttentionNet_1/mobilenetv2_1.00_224_1/block_3_depthwise_BN_1/Cast_2/ReadVariableOp/resource", "op": "Const", "input": [], "attr": {"dtype": {"type": "DT_FLOAT"}}}, {"name": "AttentionNet_1/mobilenetv2_1.00_224_1/block_3_depthwise_BN_1/Cast_3/ReadVariableOp/resource", "op": "Const", "input": [], "attr": {"dtype": {"type": "DT_FLOAT"}}}, {"name": "AttentionNet_1/mobilenetv2_1.00_224_1/block_3_depthwise_BN_1/Cast/ReadVariableOp/resource", "op": "Const", "input": [], "attr": {"dtype": {"type": "DT_FLOAT"}}}, {"name": "AttentionNet_1/mobilenetv2_1.00_224_1/block_3_project_1/convolution/ReadVariableOp/resource", "op": "Const", "input": [], "attr": {"dtype": {"type": "DT_FLOAT"}}}, {"name": "AttentionNet_1/mobilenetv2_1.00_224_1/block_3_project_BN_1/Cast_1/ReadVariableOp/resource", "op": "Const", "input": [], "attr": {"dtype": {"type": "DT_FLOAT"}}}, {"name": "AttentionNet_1/mobilenetv2_1.00_224_1/block_3_project_BN_1/batchnorm/add/y", "op": "Const", "input": [], "attr": {"dtype": {"type": "DT_FLOAT"}}}, {"name": "AttentionNet_1/mobilenetv2_1.00_224_1/block_3_project_BN_1/Cast_2/ReadVariableOp/resource", "op": "Const", "input": [], "attr": {"dtype": {"type": "DT_FLOAT"}}}, {"name": "AttentionNet_1/mobilenetv2_1.00_224_1/block_3_project_BN_1/Cast_3/ReadVariableOp/resource", "op": "Const", "input": [], "attr": {"dtype": {"type": "DT_FLOAT"}}}, {"name": "AttentionNet_1/mobilenetv2_1.00_224_1/block_3_project_BN_1/Cast/ReadVariableOp/resource", "op": "Const", "input": [], "attr": {"dtype": {"type": "DT_FLOAT"}}}, {"name": "AttentionNet_1/mobilenetv2_1.00_224_1/block_4_expand_1/convolution/ReadVariableOp/resource", "op": "Const", "input": [], "attr": {"dtype": {"type": "DT_FLOAT"}}}, {"name": "AttentionNet_1/mobilenetv2_1.00_224_1/block_4_expand_BN_1/Cast_1/ReadVariableOp/resource", "op": "Const", "input": [], "attr": {"dtype": {"type": "DT_FLOAT"}}}, {"name": "AttentionNet_1/mobilenetv2_1.00_224_1/block_4_expand_BN_1/batchnorm/add/y", "op": "Const", "input": [], "attr": {"dtype": {"type": "DT_FLOAT"}}}, {"name": "AttentionNet_1/mobilenetv2_1.00_224_1/block_4_expand_BN_1/Cast_2/ReadVariableOp/resource", "op": "Const", "input": [], "attr": {"dtype": {"type": "DT_FLOAT"}}}, {"name": "AttentionNet_1/mobilenetv2_1.00_224_1/block_4_expand_BN_1/Cast_3/ReadVariableOp/resource", "op": "Const", "input": [], "attr": {"dtype": {"type": "DT_FLOAT"}}}, {"name": "AttentionNet_1/mobilenetv2_1.00_224_1/block_4_expand_BN_1/Cast/ReadVariableOp/resource", "op": "Const", "input": [], "attr": {"dtype": {"type": "DT_FLOAT"}}}, {"name": "AttentionNet_1/mobilenetv2_1.00_224_1/block_4_depthwise_1/depthwise/ReadVariableOp/resource", "op": "Const", "input": [], "attr": {"dtype": {"type": "DT_FLOAT"}}}, {"name": "AttentionNet_1/mobilenetv2_1.00_224_1/block_4_depthwise_BN_1/Cast_1/ReadVariableOp/resource", "op": "Const", "input": [], "attr": {"dtype": {"type": "DT_FLOAT"}}}, {"name": "AttentionNet_1/mobilenetv2_1.00_224_1/block_4_depthwise_BN_1/batchnorm/add/y", "op": "Const", "input": [], "attr": {"dtype": {"type": "DT_FLOAT"}}}, {"name": "AttentionNet_1/mobilenetv2_1.00_224_1/block_4_depthwise_BN_1/Cast_2/ReadVariableOp/resource", "op": "Const", "input": [], "attr": {"dtype": {"type": "DT_FLOAT"}}}, {"name": "AttentionNet_1/mobilenetv2_1.00_224_1/block_4_depthwise_BN_1/Cast_3/ReadVariableOp/resource", "op": "Const", "input": [], "attr": {"dtype": {"type": "DT_FLOAT"}}}, {"name": "AttentionNet_1/mobilenetv2_1.00_224_1/block_4_depthwise_BN_1/Cast/ReadVariableOp/resource", "op": "Const", "input": [], "attr": {"dtype": {"type": "DT_FLOAT"}}}, {"name": "AttentionNet_1/mobilenetv2_1.00_224_1/block_4_project_1/convolution/ReadVariableOp/resource", "op": "Const", "input": [], "attr": {"dtype": {"type": "DT_FLOAT"}}}, {"name": "AttentionNet_1/mobilenetv2_1.00_224_1/block_4_project_BN_1/Cast_1/ReadVariableOp/resource", "op": "Const", "input": [], "attr": {"dtype": {"type": "DT_FLOAT"}}}, {"name": "AttentionNet_1/mobilenetv2_1.00_224_1/block_4_project_BN_1/batchnorm/add/y", "op": "Const", "input": [], "attr": {"dtype": {"type": "DT_FLOAT"}}}, {"name": "AttentionNet_1/mobilenetv2_1.00_224_1/block_4_project_BN_1/Cast_2/ReadVariableOp/resource", "op": "Const", "input": [], "attr": {"dtype": {"type": "DT_FLOAT"}}}, {"name": "AttentionNet_1/mobilenetv2_1.00_224_1/block_4_project_BN_1/Cast_3/ReadVariableOp/resource", "op": "Const", "input": [], "attr": {"dtype": {"type": "DT_FLOAT"}}}, {"name": "AttentionNet_1/mobilenetv2_1.00_224_1/block_4_project_BN_1/Cast/ReadVariableOp/resource", "op": "Const", "input": [], "attr": {"dtype": {"type": "DT_FLOAT"}}}, {"name": "AttentionNet_1/mobilenetv2_1.00_224_1/block_5_expand_1/convolution/ReadVariableOp/resource", "op": "Const", "input": [], "attr": {"dtype": {"type": "DT_FLOAT"}}}, {"name": "AttentionNet_1/mobilenetv2_1.00_224_1/block_5_expand_BN_1/Cast_1/ReadVariableOp/resource", "op": "Const", "input": [], "attr": {"dtype": {"type": "DT_FLOAT"}}}, {"name": "AttentionNet_1/mobilenetv2_1.00_224_1/block_5_expand_BN_1/batchnorm/add/y", "op": "Const", "input": [], "attr": {"dtype": {"type": "DT_FLOAT"}}}, {"name": "AttentionNet_1/mobilenetv2_1.00_224_1/block_5_expand_BN_1/Cast_2/ReadVariableOp/resource", "op": "Const", "input": [], "attr": {"dtype": {"type": "DT_FLOAT"}}}, {"name": "AttentionNet_1/mobilenetv2_1.00_224_1/block_5_expand_BN_1/Cast_3/ReadVariableOp/resource", "op": "Const", "input": [], "attr": {"dtype": {"type": "DT_FLOAT"}}}, {"name": "AttentionNet_1/mobilenetv2_1.00_224_1/block_5_expand_BN_1/Cast/ReadVariableOp/resource", "op": "Const", "input": [], "attr": {"dtype": {"type": "DT_FLOAT"}}}, {"name": "AttentionNet_1/mobilenetv2_1.00_224_1/block_5_depthwise_1/depthwise/ReadVariableOp/resource", "op": "Const", "input": [], "attr": {"dtype": {"type": "DT_FLOAT"}}}, {"name": "AttentionNet_1/mobilenetv2_1.00_224_1/block_5_depthwise_BN_1/Cast_1/ReadVariableOp/resource", "op": "Const", "input": [], "attr": {"dtype": {"type": "DT_FLOAT"}}}, {"name": "AttentionNet_1/mobilenetv2_1.00_224_1/block_5_depthwise_BN_1/batchnorm/add/y", "op": "Const", "input": [], "attr": {"dtype": {"type": "DT_FLOAT"}}}, {"name": "AttentionNet_1/mobilenetv2_1.00_224_1/block_5_depthwise_BN_1/Cast_2/ReadVariableOp/resource", "op": "Const", "input": [], "attr": {"dtype": {"type": "DT_FLOAT"}}}, {"name": "AttentionNet_1/mobilenetv2_1.00_224_1/block_5_depthwise_BN_1/Cast_3/ReadVariableOp/resource", "op": "Const", "input": [], "attr": {"dtype": {"type": "DT_FLOAT"}}}, {"name": "AttentionNet_1/mobilenetv2_1.00_224_1/block_5_depthwise_BN_1/Cast/ReadVariableOp/resource", "op": "Const", "input": [], "attr": {"dtype": {"type": "DT_FLOAT"}}}, {"name": "AttentionNet_1/mobilenetv2_1.00_224_1/block_5_project_1/convolution/ReadVariableOp/resource", "op": "Const", "input": [], "attr": {"dtype": {"type": "DT_FLOAT"}}}, {"name": "AttentionNet_1/mobilenetv2_1.00_224_1/block_5_project_BN_1/Cast_1/ReadVariableOp/resource", "op": "Const", "input": [], "attr": {"dtype": {"type": "DT_FLOAT"}}}, {"name": "AttentionNet_1/mobilenetv2_1.00_224_1/block_5_project_BN_1/batchnorm/add/y", "op": "Const", "input": [], "attr": {"dtype": {"type": "DT_FLOAT"}}}, {"name": "AttentionNet_1/mobilenetv2_1.00_224_1/block_5_project_BN_1/Cast_2/ReadVariableOp/resource", "op": "Const", "input": [], "attr": {"dtype": {"type": "DT_FLOAT"}}}, {"name": "AttentionNet_1/mobilenetv2_1.00_224_1/block_5_project_BN_1/Cast_3/ReadVariableOp/resource", "op": "Const", "input": [], "attr": {"dtype": {"type": "DT_FLOAT"}}}, {"name": "AttentionNet_1/mobilenetv2_1.00_224_1/block_5_project_BN_1/Cast/ReadVariableOp/resource", "op": "Const", "input": [], "attr": {"dtype": {"type": "DT_FLOAT"}}}, {"name": "AttentionNet_1/mobilenetv2_1.00_224_1/block_6_expand_1/convolution/ReadVariableOp/resource", "op": "Const", "input": [], "attr": {"dtype": {"type": "DT_FLOAT"}}}, {"name": "AttentionNet_1/mobilenetv2_1.00_224_1/block_6_expand_BN_1/Cast_1/ReadVariableOp/resource", "op": "Const", "input": [], "attr": {"dtype": {"type": "DT_FLOAT"}}}, {"name": "AttentionNet_1/mobilenetv2_1.00_224_1/block_6_expand_BN_1/batchnorm/add/y", "op": "Const", "input": [], "attr": {"dtype": {"type": "DT_FLOAT"}}}, {"name": "AttentionNet_1/mobilenetv2_1.00_224_1/block_6_expand_BN_1/Cast_2/ReadVariableOp/resource", "op": "Const", "input": [], "attr": {"dtype": {"type": "DT_FLOAT"}}}, {"name": "AttentionNet_1/mobilenetv2_1.00_224_1/block_6_expand_BN_1/Cast_3/ReadVariableOp/resource", "op": "Const", "input": [], "attr": {"dtype": {"type": "DT_FLOAT"}}}, {"name": "AttentionNet_1/mobilenetv2_1.00_224_1/block_6_expand_BN_1/Cast/ReadVariableOp/resource", "op": "Const", "input": [], "attr": {"dtype": {"type": "DT_FLOAT"}}}, {"name": "AttentionNet_1/mobilenetv2_1.00_224_1/block_6_pad_1/Const", "op": "Const", "input": [], "attr": {"dtype": {"type": "DT_INT32"}}}, {"name": "AttentionNet_1/mobilenetv2_1.00_224_1/block_6_depthwise_1/depthwise/ReadVariableOp/resource", "op": "Const", "input": [], "attr": {"dtype": {"type": "DT_FLOAT"}}}, {"name": "AttentionNet_1/mobilenetv2_1.00_224_1/block_6_depthwise_BN_1/Cast_1/ReadVariableOp/resource", "op": "Const", "input": [], "attr": {"dtype": {"type": "DT_FLOAT"}}}, {"name": "AttentionNet_1/mobilenetv2_1.00_224_1/block_6_depthwise_BN_1/batchnorm/add/y", "op": "Const", "input": [], "attr": {"dtype": {"type": "DT_FLOAT"}}}, {"name": "AttentionNet_1/mobilenetv2_1.00_224_1/block_6_depthwise_BN_1/Cast_2/ReadVariableOp/resource", "op": "Const", "input": [], "attr": {"dtype": {"type": "DT_FLOAT"}}}, {"name": "AttentionNet_1/mobilenetv2_1.00_224_1/block_6_depthwise_BN_1/Cast_3/ReadVariableOp/resource", "op": "Const", "input": [], "attr": {"dtype": {"type": "DT_FLOAT"}}}, {"name": "AttentionNet_1/mobilenetv2_1.00_224_1/block_6_depthwise_BN_1/Cast/ReadVariableOp/resource", "op": "Const", "input": [], "attr": {"dtype": {"type": "DT_FLOAT"}}}, {"name": "AttentionNet_1/mobilenetv2_1.00_224_1/block_6_project_1/convolution/ReadVariableOp/resource", "op": "Const", "input": [], "attr": {"dtype": {"type": "DT_FLOAT"}}}, {"name": "AttentionNet_1/mobilenetv2_1.00_224_1/block_6_project_BN_1/Cast_1/ReadVariableOp/resource", "op": "Const", "input": [], "attr": {"dtype": {"type": "DT_FLOAT"}}}, {"name": "AttentionNet_1/mobilenetv2_1.00_224_1/block_6_project_BN_1/batchnorm/add/y", "op": "Const", "input": [], "attr": {"dtype": {"type": "DT_FLOAT"}}}, {"name": "AttentionNet_1/mobilenetv2_1.00_224_1/block_6_project_BN_1/Cast_2/ReadVariableOp/resource", "op": "Const", "input": [], "attr": {"dtype": {"type": "DT_FLOAT"}}}, {"name": "AttentionNet_1/mobilenetv2_1.00_224_1/block_6_project_BN_1/Cast_3/ReadVariableOp/resource", "op": "Const", "input": [], "attr": {"dtype": {"type": "DT_FLOAT"}}}, {"name": "AttentionNet_1/mobilenetv2_1.00_224_1/block_6_project_BN_1/Cast/ReadVariableOp/resource", "op": "Const", "input": [], "attr": {"dtype": {"type": "DT_FLOAT"}}}, {"name": "AttentionNet_1/mobilenetv2_1.00_224_1/block_7_expand_1/convolution/ReadVariableOp/resource", "op": "Const", "input": [], "attr": {"dtype": {"type": "DT_FLOAT"}}}, {"name": "AttentionNet_1/mobilenetv2_1.00_224_1/block_7_expand_BN_1/Cast_1/ReadVariableOp/resource", "op": "Const", "input": [], "attr": {"dtype": {"type": "DT_FLOAT"}}}, {"name": "AttentionNet_1/mobilenetv2_1.00_224_1/block_7_expand_BN_1/batchnorm/add/y", "op": "Const", "input": [], "attr": {"dtype": {"type": "DT_FLOAT"}}}, {"name": "AttentionNet_1/mobilenetv2_1.00_224_1/block_7_expand_BN_1/Cast_2/ReadVariableOp/resource", "op": "Const", "input": [], "attr": {"dtype": {"type": "DT_FLOAT"}}}, {"name": "AttentionNet_1/mobilenetv2_1.00_224_1/block_7_expand_BN_1/Cast_3/ReadVariableOp/resource", "op": "Const", "input": [], "attr": {"dtype": {"type": "DT_FLOAT"}}}, {"name": "AttentionNet_1/mobilenetv2_1.00_224_1/block_7_expand_BN_1/Cast/ReadVariableOp/resource", "op": "Const", "input": [], "attr": {"dtype": {"type": "DT_FLOAT"}}}, {"name": "AttentionNet_1/mobilenetv2_1.00_224_1/block_7_depthwise_1/depthwise/ReadVariableOp/resource", "op": "Const", "input": [], "attr": {"dtype": {"type": "DT_FLOAT"}}}, {"name": "AttentionNet_1/mobilenetv2_1.00_224_1/block_7_depthwise_BN_1/Cast_1/ReadVariableOp/resource", "op": "Const", "input": [], "attr": {"dtype": {"type": "DT_FLOAT"}}}, {"name": "AttentionNet_1/mobilenetv2_1.00_224_1/block_7_depthwise_BN_1/batchnorm/add/y", "op": "Const", "input": [], "attr": {"dtype": {"type": "DT_FLOAT"}}}, {"name": "AttentionNet_1/mobilenetv2_1.00_224_1/block_7_depthwise_BN_1/Cast_2/ReadVariableOp/resource", "op": "Const", "input": [], "attr": {"dtype": {"type": "DT_FLOAT"}}}, {"name": "AttentionNet_1/mobilenetv2_1.00_224_1/block_7_depthwise_BN_1/Cast_3/ReadVariableOp/resource", "op": "Const", "input": [], "attr": {"dtype": {"type": "DT_FLOAT"}}}, {"name": "AttentionNet_1/mobilenetv2_1.00_224_1/block_7_depthwise_BN_1/Cast/ReadVariableOp/resource", "op": "Const", "input": [], "attr": {"dtype": {"type": "DT_FLOAT"}}}, {"name": "AttentionNet_1/mobilenetv2_1.00_224_1/block_7_project_1/convolution/ReadVariableOp/resource", "op": "Const", "input": [], "attr": {"dtype": {"type": "DT_FLOAT"}}}, {"name": "AttentionNet_1/mobilenetv2_1.00_224_1/block_7_project_BN_1/Cast_1/ReadVariableOp/resource", "op": "Const", "input": [], "attr": {"dtype": {"type": "DT_FLOAT"}}}, {"name": "AttentionNet_1/mobilenetv2_1.00_224_1/block_7_project_BN_1/batchnorm/add/y", "op": "Const", "input": [], "attr": {"dtype": {"type": "DT_FLOAT"}}}, {"name": "AttentionNet_1/mobilenetv2_1.00_224_1/block_7_project_BN_1/Cast_2/ReadVariableOp/resource", "op": "Const", "input": [], "attr": {"dtype": {"type": "DT_FLOAT"}}}, {"name": "AttentionNet_1/mobilenetv2_1.00_224_1/block_7_project_BN_1/Cast_3/ReadVariableOp/resource", "op": "Const", "input": [], "attr": {"dtype": {"type": "DT_FLOAT"}}}, {"name": "AttentionNet_1/mobilenetv2_1.00_224_1/block_7_project_BN_1/Cast/ReadVariableOp/resource", "op": "Const", "input": [], "attr": {"dtype": {"type": "DT_FLOAT"}}}, {"name": "AttentionNet_1/mobilenetv2_1.00_224_1/block_8_expand_1/convolution/ReadVariableOp/resource", "op": "Const", "input": [], "attr": {"dtype": {"type": "DT_FLOAT"}}}, {"name": "AttentionNet_1/mobilenetv2_1.00_224_1/block_8_expand_BN_1/Cast_1/ReadVariableOp/resource", "op": "Const", "input": [], "attr": {"dtype": {"type": "DT_FLOAT"}}}, {"name": "AttentionNet_1/mobilenetv2_1.00_224_1/block_8_expand_BN_1/batchnorm/add/y", "op": "Const", "input": [], "attr": {"dtype": {"type": "DT_FLOAT"}}}, {"name": "AttentionNet_1/mobilenetv2_1.00_224_1/block_8_expand_BN_1/Cast_2/ReadVariableOp/resource", "op": "Const", "input": [], "attr": {"dtype": {"type": "DT_FLOAT"}}}, {"name": "AttentionNet_1/mobilenetv2_1.00_224_1/block_8_expand_BN_1/Cast_3/ReadVariableOp/resource", "op": "Const", "input": [], "attr": {"dtype": {"type": "DT_FLOAT"}}}, {"name": "AttentionNet_1/mobilenetv2_1.00_224_1/block_8_expand_BN_1/Cast/ReadVariableOp/resource", "op": "Const", "input": [], "attr": {"dtype": {"type": "DT_FLOAT"}}}, {"name": "AttentionNet_1/mobilenetv2_1.00_224_1/block_8_depthwise_1/depthwise/ReadVariableOp/resource", "op": "Const", "input": [], "attr": {"dtype": {"type": "DT_FLOAT"}}}, {"name": "AttentionNet_1/mobilenetv2_1.00_224_1/block_8_depthwise_BN_1/Cast_1/ReadVariableOp/resource", "op": "Const", "input": [], "attr": {"dtype": {"type": "DT_FLOAT"}}}, {"name": "AttentionNet_1/mobilenetv2_1.00_224_1/block_8_depthwise_BN_1/batchnorm/add/y", "op": "Const", "input": [], "attr": {"dtype": {"type": "DT_FLOAT"}}}, {"name": "AttentionNet_1/mobilenetv2_1.00_224_1/block_8_depthwise_BN_1/Cast_2/ReadVariableOp/resource", "op": "Const", "input": [], "attr": {"dtype": {"type": "DT_FLOAT"}}}, {"name": "AttentionNet_1/mobilenetv2_1.00_224_1/block_8_depthwise_BN_1/Cast_3/ReadVariableOp/resource", "op": "Const", "input": [], "attr": {"dtype": {"type": "DT_FLOAT"}}}, {"name": "AttentionNet_1/mobilenetv2_1.00_224_1/block_8_depthwise_BN_1/Cast/ReadVariableOp/resource", "op": "Const", "input": [], "attr": {"dtype": {"type": "DT_FLOAT"}}}, {"name": "AttentionNet_1/mobilenetv2_1.00_224_1/block_8_project_1/convolution/ReadVariableOp/resource", "op": "Const", "input": [], "attr": {"dtype": {"type": "DT_FLOAT"}}}, {"name": "AttentionNet_1/mobilenetv2_1.00_224_1/block_8_project_BN_1/Cast_1/ReadVariableOp/resource", "op": "Const", "input": [], "attr": {"dtype": {"type": "DT_FLOAT"}}}, {"name": "AttentionNet_1/mobilenetv2_1.00_224_1/block_8_project_BN_1/batchnorm/add/y", "op": "Const", "input": [], "attr": {"dtype": {"type": "DT_FLOAT"}}}, {"name": "AttentionNet_1/mobilenetv2_1.00_224_1/block_8_project_BN_1/Cast_2/ReadVariableOp/resource", "op": "Const", "input": [], "attr": {"dtype": {"type": "DT_FLOAT"}}}, {"name": "AttentionNet_1/mobilenetv2_1.00_224_1/block_8_project_BN_1/Cast_3/ReadVariableOp/resource", "op": "Const", "input": [], "attr": {"dtype": {"type": "DT_FLOAT"}}}, {"name": "AttentionNet_1/mobilenetv2_1.00_224_1/block_8_project_BN_1/Cast/ReadVariableOp/resource", "op": "Const", "input": [], "attr": {"dtype": {"type": "DT_FLOAT"}}}, {"name": "AttentionNet_1/mobilenetv2_1.00_224_1/block_9_expand_1/convolution/ReadVariableOp/resource", "op": "Const", "input": [], "attr": {"dtype": {"type": "DT_FLOAT"}}}, {"name": "AttentionNet_1/mobilenetv2_1.00_224_1/block_9_expand_BN_1/Cast_1/ReadVariableOp/resource", "op": "Const", "input": [], "attr": {"dtype": {"type": "DT_FLOAT"}}}, {"name": "AttentionNet_1/mobilenetv2_1.00_224_1/block_9_expand_BN_1/batchnorm/add/y", "op": "Const", "input": [], "attr": {"dtype": {"type": "DT_FLOAT"}}}, {"name": "AttentionNet_1/mobilenetv2_1.00_224_1/block_9_expand_BN_1/Cast_2/ReadVariableOp/resource", "op": "Const", "input": [], "attr": {"dtype": {"type": "DT_FLOAT"}}}, {"name": "AttentionNet_1/mobilenetv2_1.00_224_1/block_9_expand_BN_1/Cast_3/ReadVariableOp/resource", "op": "Const", "input": [], "attr": {"dtype": {"type": "DT_FLOAT"}}}, {"name": "AttentionNet_1/mobilenetv2_1.00_224_1/block_9_expand_BN_1/Cast/ReadVariableOp/resource", "op": "Const", "input": [], "attr": {"dtype": {"type": "DT_FLOAT"}}}, {"name": "AttentionNet_1/mobilenetv2_1.00_224_1/block_9_depthwise_1/depthwise/ReadVariableOp/resource", "op": "Const", "input": [], "attr": {"dtype": {"type": "DT_FLOAT"}}}, {"name": "AttentionNet_1/mobilenetv2_1.00_224_1/block_9_depthwise_BN_1/Cast_1/ReadVariableOp/resource", "op": "Const", "input": [], "attr": {"dtype": {"type": "DT_FLOAT"}}}, {"name": "AttentionNet_1/mobilenetv2_1.00_224_1/block_9_depthwise_BN_1/batchnorm/add/y", "op": "Const", "input": [], "attr": {"dtype": {"type": "DT_FLOAT"}}}, {"name": "AttentionNet_1/mobilenetv2_1.00_224_1/block_9_depthwise_BN_1/Cast_2/ReadVariableOp/resource", "op": "Const", "input": [], "attr": {"dtype": {"type": "DT_FLOAT"}}}, {"name": "AttentionNet_1/mobilenetv2_1.00_224_1/block_9_depthwise_BN_1/Cast_3/ReadVariableOp/resource", "op": "Const", "input": [], "attr": {"dtype": {"type": "DT_FLOAT"}}}, {"name": "AttentionNet_1/mobilenetv2_1.00_224_1/block_9_depthwise_BN_1/Cast/ReadVariableOp/resource", "op": "Const", "input": [], "attr": {"dtype": {"type": "DT_FLOAT"}}}, {"name": "AttentionNet_1/mobilenetv2_1.00_224_1/block_9_project_1/convolution/ReadVariableOp/resource", "op": "Const", "input": [], "attr": {"dtype": {"type": "DT_FLOAT"}}}, {"name": "AttentionNet_1/mobilenetv2_1.00_224_1/block_9_project_BN_1/Cast_1/ReadVariableOp/resource", "op": "Const", "input": [], "attr": {"dtype": {"type": "DT_FLOAT"}}}, {"name": "AttentionNet_1/mobilenetv2_1.00_224_1/block_9_project_BN_1/batchnorm/add/y", "op": "Const", "input": [], "attr": {"dtype": {"type": "DT_FLOAT"}}}, {"name": "AttentionNet_1/mobilenetv2_1.00_224_1/block_9_project_BN_1/Cast_2/ReadVariableOp/resource", "op": "Const", "input": [], "attr": {"dtype": {"type": "DT_FLOAT"}}}, {"name": "AttentionNet_1/mobilenetv2_1.00_224_1/block_9_project_BN_1/Cast_3/ReadVariableOp/resource", "op": "Const", "input": [], "attr": {"dtype": {"type": "DT_FLOAT"}}}, {"name": "AttentionNet_1/mobilenetv2_1.00_224_1/block_9_project_BN_1/Cast/ReadVariableOp/resource", "op": "Const", "input": [], "attr": {"dtype": {"type": "DT_FLOAT"}}}, {"name": "AttentionNet_1/mobilenetv2_1.00_224_1/block_10_expand_1/convolution/ReadVariableOp/resource", "op": "Const", "input": [], "attr": {"dtype": {"type": "DT_FLOAT"}}}, {"name": "AttentionNet_1/mobilenetv2_1.00_224_1/block_10_expand_BN_1/Cast_1/ReadVariableOp/resource", "op": "Const", "input": [], "attr": {"dtype": {"type": "DT_FLOAT"}}}, {"name": "AttentionNet_1/mobilenetv2_1.00_224_1/block_10_expand_BN_1/batchnorm/add/y", "op": "Const", "input": [], "attr": {"dtype": {"type": "DT_FLOAT"}}}, {"name": "AttentionNet_1/mobilenetv2_1.00_224_1/block_10_expand_BN_1/Cast_2/ReadVariableOp/resource", "op": "Const", "input": [], "attr": {"dtype": {"type": "DT_FLOAT"}}}, {"name": "AttentionNet_1/mobilenetv2_1.00_224_1/block_10_expand_BN_1/Cast_3/ReadVariableOp/resource", "op": "Const", "input": [], "attr": {"dtype": {"type": "DT_FLOAT"}}}, {"name": "AttentionNet_1/mobilenetv2_1.00_224_1/block_10_expand_BN_1/Cast/ReadVariableOp/resource", "op": "Const", "input": [], "attr": {"dtype": {"type": "DT_FLOAT"}}}, {"name": "AttentionNet_1/mobilenetv2_1.00_224_1/block_10_depthwise_1/depthwise/ReadVariableOp/resource", "op": "Const", "input": [], "attr": {"dtype": {"type": "DT_FLOAT"}}}, {"name": "AttentionNet_1/mobilenetv2_1.00_224_1/block_10_depthwise_BN_1/Cast_1/ReadVariableOp/resource", "op": "Const", "input": [], "attr": {"dtype": {"type": "DT_FLOAT"}}}, {"name": "AttentionNet_1/mobilenetv2_1.00_224_1/block_10_depthwise_BN_1/batchnorm/add/y", "op": "Const", "input": [], "attr": {"dtype": {"type": "DT_FLOAT"}}}, {"name": "AttentionNet_1/mobilenetv2_1.00_224_1/block_10_depthwise_BN_1/Cast_2/ReadVariableOp/resource", "op": "Const", "input": [], "attr": {"dtype": {"type": "DT_FLOAT"}}}, {"name": "AttentionNet_1/mobilenetv2_1.00_224_1/block_10_depthwise_BN_1/Cast_3/ReadVariableOp/resource", "op": "Const", "input": [], "attr": {"dtype": {"type": "DT_FLOAT"}}}, {"name": "AttentionNet_1/mobilenetv2_1.00_224_1/block_10_depthwise_BN_1/Cast/ReadVariableOp/resource", "op": "Const", "input": [], "attr": {"dtype": {"type": "DT_FLOAT"}}}, {"name": "AttentionNet_1/mobilenetv2_1.00_224_1/block_10_project_1/convolution/ReadVariableOp/resource", "op": "Const", "input": [], "attr": {"dtype": {"type": "DT_FLOAT"}}}, {"name": "AttentionNet_1/mobilenetv2_1.00_224_1/block_10_project_BN_1/Cast_1/ReadVariableOp/resource", "op": "Const", "input": [], "attr": {"dtype": {"type": "DT_FLOAT"}}}, {"name": "AttentionNet_1/mobilenetv2_1.00_224_1/block_10_project_BN_1/batchnorm/add/y", "op": "Const", "input": [], "attr": {"dtype": {"type": "DT_FLOAT"}}}, {"name": "AttentionNet_1/mobilenetv2_1.00_224_1/block_10_project_BN_1/Cast_2/ReadVariableOp/resource", "op": "Const", "input": [], "attr": {"dtype": {"type": "DT_FLOAT"}}}, {"name": "AttentionNet_1/mobilenetv2_1.00_224_1/block_10_project_BN_1/Cast_3/ReadVariableOp/resource", "op": "Const", "input": [], "attr": {"dtype": {"type": "DT_FLOAT"}}}, {"name": "AttentionNet_1/mobilenetv2_1.00_224_1/block_10_project_BN_1/Cast/ReadVariableOp/resource", "op": "Const", "input": [], "attr": {"dtype": {"type": "DT_FLOAT"}}}, {"name": "AttentionNet_1/mobilenetv2_1.00_224_1/block_11_expand_1/convolution/ReadVariableOp/resource", "op": "Const", "input": [], "attr": {"dtype": {"type": "DT_FLOAT"}}}, {"name": "AttentionNet_1/mobilenetv2_1.00_224_1/block_11_expand_BN_1/Cast_1/ReadVariableOp/resource", "op": "Const", "input": [], "attr": {"dtype": {"type": "DT_FLOAT"}}}, {"name": "AttentionNet_1/mobilenetv2_1.00_224_1/block_11_expand_BN_1/batchnorm/add/y", "op": "Const", "input": [], "attr": {"dtype": {"type": "DT_FLOAT"}}}, {"name": "AttentionNet_1/mobilenetv2_1.00_224_1/block_11_expand_BN_1/Cast_2/ReadVariableOp/resource", "op": "Const", "input": [], "attr": {"dtype": {"type": "DT_FLOAT"}}}, {"name": "AttentionNet_1/mobilenetv2_1.00_224_1/block_11_expand_BN_1/Cast_3/ReadVariableOp/resource", "op": "Const", "input": [], "attr": {"dtype": {"type": "DT_FLOAT"}}}, {"name": "AttentionNet_1/mobilenetv2_1.00_224_1/block_11_expand_BN_1/Cast/ReadVariableOp/resource", "op": "Const", "input": [], "attr": {"dtype": {"type": "DT_FLOAT"}}}, {"name": "AttentionNet_1/mobilenetv2_1.00_224_1/block_11_depthwise_1/depthwise/ReadVariableOp/resource", "op": "Const", "input": [], "attr": {"dtype": {"type": "DT_FLOAT"}}}, {"name": "AttentionNet_1/mobilenetv2_1.00_224_1/block_11_depthwise_BN_1/Cast_1/ReadVariableOp/resource", "op": "Const", "input": [], "attr": {"dtype": {"type": "DT_FLOAT"}}}, {"name": "AttentionNet_1/mobilenetv2_1.00_224_1/block_11_depthwise_BN_1/batchnorm/add/y", "op": "Const", "input": [], "attr": {"dtype": {"type": "DT_FLOAT"}}}, {"name": "AttentionNet_1/mobilenetv2_1.00_224_1/block_11_depthwise_BN_1/Cast_2/ReadVariableOp/resource", "op": "Const", "input": [], "attr": {"dtype": {"type": "DT_FLOAT"}}}, {"name": "AttentionNet_1/mobilenetv2_1.00_224_1/block_11_depthwise_BN_1/Cast_3/ReadVariableOp/resource", "op": "Const", "input": [], "attr": {"dtype": {"type": "DT_FLOAT"}}}, {"name": "AttentionNet_1/mobilenetv2_1.00_224_1/block_11_depthwise_BN_1/Cast/ReadVariableOp/resource", "op": "Const", "input": [], "attr": {"dtype": {"type": "DT_FLOAT"}}}, {"name": "AttentionNet_1/mobilenetv2_1.00_224_1/block_11_project_1/convolution/ReadVariableOp/resource", "op": "Const", "input": [], "attr": {"dtype": {"type": "DT_FLOAT"}}}, {"name": "AttentionNet_1/mobilenetv2_1.00_224_1/block_11_project_BN_1/Cast_1/ReadVariableOp/resource", "op": "Const", "input": [], "attr": {"dtype": {"type": "DT_FLOAT"}}}, {"name": "AttentionNet_1/mobilenetv2_1.00_224_1/block_11_project_BN_1/batchnorm/add/y", "op": "Const", "input": [], "attr": {"dtype": {"type": "DT_FLOAT"}}}, {"name": "AttentionNet_1/mobilenetv2_1.00_224_1/block_11_project_BN_1/Cast_2/ReadVariableOp/resource", "op": "Const", "input": [], "attr": {"dtype": {"type": "DT_FLOAT"}}}, {"name": "AttentionNet_1/mobilenetv2_1.00_224_1/block_11_project_BN_1/Cast_3/ReadVariableOp/resource", "op": "Const", "input": [], "attr": {"dtype": {"type": "DT_FLOAT"}}}, {"name": "AttentionNet_1/mobilenetv2_1.00_224_1/block_11_project_BN_1/Cast/ReadVariableOp/resource", "op": "Const", "input": [], "attr": {"dtype": {"type": "DT_FLOAT"}}}, {"name": "AttentionNet_1/mobilenetv2_1.00_224_1/block_12_expand_1/convolution/ReadVariableOp/resource", "op": "Const", "input": [], "attr": {"dtype": {"type": "DT_FLOAT"}}}, {"name": "AttentionNet_1/mobilenetv2_1.00_224_1/block_12_expand_BN_1/Cast_1/ReadVariableOp/resource", "op": "Const", "input": [], "attr": {"dtype": {"type": "DT_FLOAT"}}}, {"name": "AttentionNet_1/mobilenetv2_1.00_224_1/block_12_expand_BN_1/batchnorm/add/y", "op": "Const", "input": [], "attr": {"dtype": {"type": "DT_FLOAT"}}}, {"name": "AttentionNet_1/mobilenetv2_1.00_224_1/block_12_expand_BN_1/Cast_2/ReadVariableOp/resource", "op": "Const", "input": [], "attr": {"dtype": {"type": "DT_FLOAT"}}}, {"name": "AttentionNet_1/mobilenetv2_1.00_224_1/block_12_expand_BN_1/Cast_3/ReadVariableOp/resource", "op": "Const", "input": [], "attr": {"dtype": {"type": "DT_FLOAT"}}}, {"name": "AttentionNet_1/mobilenetv2_1.00_224_1/block_12_expand_BN_1/Cast/ReadVariableOp/resource", "op": "Const", "input": [], "attr": {"dtype": {"type": "DT_FLOAT"}}}, {"name": "AttentionNet_1/mobilenetv2_1.00_224_1/block_12_depthwise_1/depthwise/ReadVariableOp/resource", "op": "Const", "input": [], "attr": {"dtype": {"type": "DT_FLOAT"}}}, {"name": "AttentionNet_1/mobilenetv2_1.00_224_1/block_12_depthwise_BN_1/Cast_1/ReadVariableOp/resource", "op": "Const", "input": [], "attr": {"dtype": {"type": "DT_FLOAT"}}}, {"name": "AttentionNet_1/mobilenetv2_1.00_224_1/block_12_depthwise_BN_1/batchnorm/add/y", "op": "Const", "input": [], "attr": {"dtype": {"type": "DT_FLOAT"}}}, {"name": "AttentionNet_1/mobilenetv2_1.00_224_1/block_12_depthwise_BN_1/Cast_2/ReadVariableOp/resource", "op": "Const", "input": [], "attr": {"dtype": {"type": "DT_FLOAT"}}}, {"name": "AttentionNet_1/mobilenetv2_1.00_224_1/block_12_depthwise_BN_1/Cast_3/ReadVariableOp/resource", "op": "Const", "input": [], "attr": {"dtype": {"type": "DT_FLOAT"}}}, {"name": "AttentionNet_1/mobilenetv2_1.00_224_1/block_12_depthwise_BN_1/Cast/ReadVariableOp/resource", "op": "Const", "input": [], "attr": {"dtype": {"type": "DT_FLOAT"}}}, {"name": "AttentionNet_1/mobilenetv2_1.00_224_1/block_12_project_1/convolution/ReadVariableOp/resource", "op": "Const", "input": [], "attr": {"dtype": {"type": "DT_FLOAT"}}}, {"name": "AttentionNet_1/mobilenetv2_1.00_224_1/block_12_project_BN_1/Cast_1/ReadVariableOp/resource", "op": "Const", "input": [], "attr": {"dtype": {"type": "DT_FLOAT"}}}, {"name": "AttentionNet_1/mobilenetv2_1.00_224_1/block_12_project_BN_1/batchnorm/add/y", "op": "Const", "input": [], "attr": {"dtype": {"type": "DT_FLOAT"}}}, {"name": "AttentionNet_1/mobilenetv2_1.00_224_1/block_12_project_BN_1/Cast_2/ReadVariableOp/resource", "op": "Const", "input": [], "attr": {"dtype": {"type": "DT_FLOAT"}}}, {"name": "AttentionNet_1/mobilenetv2_1.00_224_1/block_12_project_BN_1/Cast_3/ReadVariableOp/resource", "op": "Const", "input": [], "attr": {"dtype": {"type": "DT_FLOAT"}}}, {"name": "AttentionNet_1/mobilenetv2_1.00_224_1/block_12_project_BN_1/Cast/ReadVariableOp/resource", "op": "Const", "input": [], "attr": {"dtype": {"type": "DT_FLOAT"}}}, {"name": "AttentionNet_1/mobilenetv2_1.00_224_1/block_13_expand_1/convolution/ReadVariableOp/resource", "op": "Const", "input": [], "attr": {"dtype": {"type": "DT_FLOAT"}}}, {"name": "AttentionNet_1/mobilenetv2_1.00_224_1/block_13_expand_BN_1/Cast_1/ReadVariableOp/resource", "op": "Const", "input": [], "attr": {"dtype": {"type": "DT_FLOAT"}}}, {"name": "AttentionNet_1/mobilenetv2_1.00_224_1/block_13_expand_BN_1/batchnorm/add/y", "op": "Const", "input": [], "attr": {"dtype": {"type": "DT_FLOAT"}}}, {"name": "AttentionNet_1/mobilenetv2_1.00_224_1/block_13_expand_BN_1/Cast_2/ReadVariableOp/resource", "op": "Const", "input": [], "attr": {"dtype": {"type": "DT_FLOAT"}}}, {"name": "AttentionNet_1/mobilenetv2_1.00_224_1/block_13_expand_BN_1/Cast_3/ReadVariableOp/resource", "op": "Const", "input": [], "attr": {"dtype": {"type": "DT_FLOAT"}}}, {"name": "AttentionNet_1/mobilenetv2_1.00_224_1/block_13_expand_BN_1/Cast/ReadVariableOp/resource", "op": "Const", "input": [], "attr": {"dtype": {"type": "DT_FLOAT"}}}, {"name": "AttentionNet_1/mobilenetv2_1.00_224_1/block_13_pad_1/Const", "op": "Const", "input": [], "attr": {"dtype": {"type": "DT_INT32"}}}, {"name": "AttentionNet_1/mobilenetv2_1.00_224_1/block_13_depthwise_1/depthwise/ReadVariableOp/resource", "op": "Const", "input": [], "attr": {"dtype": {"type": "DT_FLOAT"}}}, {"name": "AttentionNet_1/mobilenetv2_1.00_224_1/block_13_depthwise_BN_1/Cast_1/ReadVariableOp/resource", "op": "Const", "input": [], "attr": {"dtype": {"type": "DT_FLOAT"}}}, {"name": "AttentionNet_1/mobilenetv2_1.00_224_1/block_13_depthwise_BN_1/batchnorm/add/y", "op": "Const", "input": [], "attr": {"dtype": {"type": "DT_FLOAT"}}}, {"name": "AttentionNet_1/mobilenetv2_1.00_224_1/block_13_depthwise_BN_1/Cast_2/ReadVariableOp/resource", "op": "Const", "input": [], "attr": {"dtype": {"type": "DT_FLOAT"}}}, {"name": "AttentionNet_1/mobilenetv2_1.00_224_1/block_13_depthwise_BN_1/Cast_3/ReadVariableOp/resource", "op": "Const", "input": [], "attr": {"dtype": {"type": "DT_FLOAT"}}}, {"name": "AttentionNet_1/mobilenetv2_1.00_224_1/block_13_depthwise_BN_1/Cast/ReadVariableOp/resource", "op": "Const", "input": [], "attr": {"dtype": {"type": "DT_FLOAT"}}}, {"name": "AttentionNet_1/mobilenetv2_1.00_224_1/block_13_project_1/convolution/ReadVariableOp/resource", "op": "Const", "input": [], "attr": {"dtype": {"type": "DT_FLOAT"}}}, {"name": "AttentionNet_1/mobilenetv2_1.00_224_1/block_13_project_BN_1/Cast_1/ReadVariableOp/resource", "op": "Const", "input": [], "attr": {"dtype": {"type": "DT_FLOAT"}}}, {"name": "AttentionNet_1/mobilenetv2_1.00_224_1/block_13_project_BN_1/batchnorm/add/y", "op": "Const", "input": [], "attr": {"dtype": {"type": "DT_FLOAT"}}}, {"name": "AttentionNet_1/mobilenetv2_1.00_224_1/block_13_project_BN_1/Cast_2/ReadVariableOp/resource", "op": "Const", "input": [], "attr": {"dtype": {"type": "DT_FLOAT"}}}, {"name": "AttentionNet_1/mobilenetv2_1.00_224_1/block_13_project_BN_1/Cast_3/ReadVariableOp/resource", "op": "Const", "input": [], "attr": {"dtype": {"type": "DT_FLOAT"}}}, {"name": "AttentionNet_1/mobilenetv2_1.00_224_1/block_13_project_BN_1/Cast/ReadVariableOp/resource", "op": "Const", "input": [], "attr": {"dtype": {"type": "DT_FLOAT"}}}, {"name": "AttentionNet_1/mobilenetv2_1.00_224_1/block_14_expand_1/convolution/ReadVariableOp/resource", "op": "Const", "input": [], "attr": {"dtype": {"type": "DT_FLOAT"}}}, {"name": "AttentionNet_1/mobilenetv2_1.00_224_1/block_14_expand_BN_1/Cast_1/ReadVariableOp/resource", "op": "Const", "input": [], "attr": {"dtype": {"type": "DT_FLOAT"}}}, {"name": "AttentionNet_1/mobilenetv2_1.00_224_1/block_14_expand_BN_1/batchnorm/add/y", "op": "Const", "input": [], "attr": {"dtype": {"type": "DT_FLOAT"}}}, {"name": "AttentionNet_1/mobilenetv2_1.00_224_1/block_14_expand_BN_1/Cast_2/ReadVariableOp/resource", "op": "Const", "input": [], "attr": {"dtype": {"type": "DT_FLOAT"}}}, {"name": "AttentionNet_1/mobilenetv2_1.00_224_1/block_14_expand_BN_1/Cast_3/ReadVariableOp/resource", "op": "Const", "input": [], "attr": {"dtype": {"type": "DT_FLOAT"}}}, {"name": "AttentionNet_1/mobilenetv2_1.00_224_1/block_14_expand_BN_1/Cast/ReadVariableOp/resource", "op": "Const", "input": [], "attr": {"dtype": {"type": "DT_FLOAT"}}}, {"name": "AttentionNet_1/mobilenetv2_1.00_224_1/block_14_depthwise_1/depthwise/ReadVariableOp/resource", "op": "Const", "input": [], "attr": {"dtype": {"type": "DT_FLOAT"}}}, {"name": "AttentionNet_1/mobilenetv2_1.00_224_1/block_14_depthwise_BN_1/Cast_1/ReadVariableOp/resource", "op": "Const", "input": [], "attr": {"dtype": {"type": "DT_FLOAT"}}}, {"name": "AttentionNet_1/mobilenetv2_1.00_224_1/block_14_depthwise_BN_1/batchnorm/add/y", "op": "Const", "input": [], "attr": {"dtype": {"type": "DT_FLOAT"}}}, {"name": "AttentionNet_1/mobilenetv2_1.00_224_1/block_14_depthwise_BN_1/Cast_2/ReadVariableOp/resource", "op": "Const", "input": [], "attr": {"dtype": {"type": "DT_FLOAT"}}}, {"name": "AttentionNet_1/mobilenetv2_1.00_224_1/block_14_depthwise_BN_1/Cast_3/ReadVariableOp/resource", "op": "Const", "input": [], "attr": {"dtype": {"type": "DT_FLOAT"}}}, {"name": "AttentionNet_1/mobilenetv2_1.00_224_1/block_14_depthwise_BN_1/Cast/ReadVariableOp/resource", "op": "Const", "input": [], "attr": {"dtype": {"type": "DT_FLOAT"}}}, {"name": "AttentionNet_1/mobilenetv2_1.00_224_1/block_14_project_1/convolution/ReadVariableOp/resource", "op": "Const", "input": [], "attr": {"dtype": {"type": "DT_FLOAT"}}}, {"name": "AttentionNet_1/mobilenetv2_1.00_224_1/block_14_project_BN_1/Cast_1/ReadVariableOp/resource", "op": "Const", "input": [], "attr": {"dtype": {"type": "DT_FLOAT"}}}, {"name": "AttentionNet_1/mobilenetv2_1.00_224_1/block_14_project_BN_1/batchnorm/add/y", "op": "Const", "input": [], "attr": {"dtype": {"type": "DT_FLOAT"}}}, {"name": "AttentionNet_1/mobilenetv2_1.00_224_1/block_14_project_BN_1/Cast_2/ReadVariableOp/resource", "op": "Const", "input": [], "attr": {"dtype": {"type": "DT_FLOAT"}}}, {"name": "AttentionNet_1/mobilenetv2_1.00_224_1/block_14_project_BN_1/Cast_3/ReadVariableOp/resource", "op": "Const", "input": [], "attr": {"dtype": {"type": "DT_FLOAT"}}}, {"name": "AttentionNet_1/mobilenetv2_1.00_224_1/block_14_project_BN_1/Cast/ReadVariableOp/resource", "op": "Const", "input": [], "attr": {"dtype": {"type": "DT_FLOAT"}}}, {"name": "AttentionNet_1/mobilenetv2_1.00_224_1/block_15_expand_1/convolution/ReadVariableOp/resource", "op": "Const", "input": [], "attr": {"dtype": {"type": "DT_FLOAT"}}}, {"name": "AttentionNet_1/mobilenetv2_1.00_224_1/block_15_expand_BN_1/Cast_1/ReadVariableOp/resource", "op": "Const", "input": [], "attr": {"dtype": {"type": "DT_FLOAT"}}}, {"name": "AttentionNet_1/mobilenetv2_1.00_224_1/block_15_expand_BN_1/batchnorm/add/y", "op": "Const", "input": [], "attr": {"dtype": {"type": "DT_FLOAT"}}}, {"name": "AttentionNet_1/mobilenetv2_1.00_224_1/block_15_expand_BN_1/Cast_2/ReadVariableOp/resource", "op": "Const", "input": [], "attr": {"dtype": {"type": "DT_FLOAT"}}}, {"name": "AttentionNet_1/mobilenetv2_1.00_224_1/block_15_expand_BN_1/Cast_3/ReadVariableOp/resource", "op": "Const", "input": [], "attr": {"dtype": {"type": "DT_FLOAT"}}}, {"name": "AttentionNet_1/mobilenetv2_1.00_224_1/block_15_expand_BN_1/Cast/ReadVariableOp/resource", "op": "Const", "input": [], "attr": {"dtype": {"type": "DT_FLOAT"}}}, {"name": "AttentionNet_1/mobilenetv2_1.00_224_1/block_15_depthwise_1/depthwise/ReadVariableOp/resource", "op": "Const", "input": [], "attr": {"dtype": {"type": "DT_FLOAT"}}}, {"name": "AttentionNet_1/mobilenetv2_1.00_224_1/block_15_depthwise_BN_1/Cast_1/ReadVariableOp/resource", "op": "Const", "input": [], "attr": {"dtype": {"type": "DT_FLOAT"}}}, {"name": "AttentionNet_1/mobilenetv2_1.00_224_1/block_15_depthwise_BN_1/batchnorm/add/y", "op": "Const", "input": [], "attr": {"dtype": {"type": "DT_FLOAT"}}}, {"name": "AttentionNet_1/mobilenetv2_1.00_224_1/block_15_depthwise_BN_1/Cast_2/ReadVariableOp/resource", "op": "Const", "input": [], "attr": {"dtype": {"type": "DT_FLOAT"}}}, {"name": "AttentionNet_1/mobilenetv2_1.00_224_1/block_15_depthwise_BN_1/Cast_3/ReadVariableOp/resource", "op": "Const", "input": [], "attr": {"dtype": {"type": "DT_FLOAT"}}}, {"name": "AttentionNet_1/mobilenetv2_1.00_224_1/block_15_depthwise_BN_1/Cast/ReadVariableOp/resource", "op": "Const", "input": [], "attr": {"dtype": {"type": "DT_FLOAT"}}}, {"name": "AttentionNet_1/mobilenetv2_1.00_224_1/block_15_project_1/convolution/ReadVariableOp/resource", "op": "Const", "input": [], "attr": {"dtype": {"type": "DT_FLOAT"}}}, {"name": "AttentionNet_1/mobilenetv2_1.00_224_1/block_15_project_BN_1/Cast_1/ReadVariableOp/resource", "op": "Const", "input": [], "attr": {"dtype": {"type": "DT_FLOAT"}}}, {"name": "AttentionNet_1/mobilenetv2_1.00_224_1/block_15_project_BN_1/batchnorm/add/y", "op": "Const", "input": [], "attr": {"dtype": {"type": "DT_FLOAT"}}}, {"name": "AttentionNet_1/mobilenetv2_1.00_224_1/block_15_project_BN_1/Cast_2/ReadVariableOp/resource", "op": "Const", "input": [], "attr": {"dtype": {"type": "DT_FLOAT"}}}, {"name": "AttentionNet_1/mobilenetv2_1.00_224_1/block_15_project_BN_1/Cast_3/ReadVariableOp/resource", "op": "Const", "input": [], "attr": {"dtype": {"type": "DT_FLOAT"}}}, {"name": "AttentionNet_1/mobilenetv2_1.00_224_1/block_15_project_BN_1/Cast/ReadVariableOp/resource", "op": "Const", "input": [], "attr": {"dtype": {"type": "DT_FLOAT"}}}, {"name": "AttentionNet_1/mobilenetv2_1.00_224_1/block_16_expand_1/convolution/ReadVariableOp/resource", "op": "Const", "input": [], "attr": {"dtype": {"type": "DT_FLOAT"}}}, {"name": "AttentionNet_1/mobilenetv2_1.00_224_1/block_16_expand_BN_1/Cast_1/ReadVariableOp/resource", "op": "Const", "input": [], "attr": {"dtype": {"type": "DT_FLOAT"}}}, {"name": "AttentionNet_1/mobilenetv2_1.00_224_1/block_16_expand_BN_1/batchnorm/add/y", "op": "Const", "input": [], "attr": {"dtype": {"type": "DT_FLOAT"}}}, {"name": "AttentionNet_1/mobilenetv2_1.00_224_1/block_16_expand_BN_1/Cast_2/ReadVariableOp/resource", "op": "Const", "input": [], "attr": {"dtype": {"type": "DT_FLOAT"}}}, {"name": "AttentionNet_1/mobilenetv2_1.00_224_1/block_16_expand_BN_1/Cast_3/ReadVariableOp/resource", "op": "Const", "input": [], "attr": {"dtype": {"type": "DT_FLOAT"}}}, {"name": "AttentionNet_1/mobilenetv2_1.00_224_1/block_16_expand_BN_1/Cast/ReadVariableOp/resource", "op": "Const", "input": [], "attr": {"dtype": {"type": "DT_FLOAT"}}}, {"name": "AttentionNet_1/mobilenetv2_1.00_224_1/block_16_depthwise_1/depthwise/ReadVariableOp/resource", "op": "Const", "input": [], "attr": {"dtype": {"type": "DT_FLOAT"}}}, {"name": "AttentionNet_1/mobilenetv2_1.00_224_1/block_16_depthwise_BN_1/Cast_1/ReadVariableOp/resource", "op": "Const", "input": [], "attr": {"dtype": {"type": "DT_FLOAT"}}}, {"name": "AttentionNet_1/mobilenetv2_1.00_224_1/block_16_depthwise_BN_1/batchnorm/add/y", "op": "Const", "input": [], "attr": {"dtype": {"type": "DT_FLOAT"}}}, {"name": "AttentionNet_1/mobilenetv2_1.00_224_1/block_16_depthwise_BN_1/Cast_2/ReadVariableOp/resource", "op": "Const", "input": [], "attr": {"dtype": {"type": "DT_FLOAT"}}}, {"name": "AttentionNet_1/mobilenetv2_1.00_224_1/block_16_depthwise_BN_1/Cast_3/ReadVariableOp/resource", "op": "Const", "input": [], "attr": {"dtype": {"type": "DT_FLOAT"}}}, {"name": "AttentionNet_1/mobilenetv2_1.00_224_1/block_16_depthwise_BN_1/Cast/ReadVariableOp/resource", "op": "Const", "input": [], "attr": {"dtype": {"type": "DT_FLOAT"}}}, {"name": "AttentionNet_1/mobilenetv2_1.00_224_1/block_16_project_1/convolution/ReadVariableOp/resource", "op": "Const", "input": [], "attr": {"dtype": {"type": "DT_FLOAT"}}}, {"name": "AttentionNet_1/mobilenetv2_1.00_224_1/block_16_project_BN_1/Cast_1/ReadVariableOp/resource", "op": "Const", "input": [], "attr": {"dtype": {"type": "DT_FLOAT"}}}, {"name": "AttentionNet_1/mobilenetv2_1.00_224_1/block_16_project_BN_1/batchnorm/add/y", "op": "Const", "input": [], "attr": {"dtype": {"type": "DT_FLOAT"}}}, {"name": "AttentionNet_1/mobilenetv2_1.00_224_1/block_16_project_BN_1/Cast_2/ReadVariableOp/resource", "op": "Const", "input": [], "attr": {"dtype": {"type": "DT_FLOAT"}}}, {"name": "AttentionNet_1/mobilenetv2_1.00_224_1/block_16_project_BN_1/Cast_3/ReadVariableOp/resource", "op": "Const", "input": [], "attr": {"dtype": {"type": "DT_FLOAT"}}}, {"name": "AttentionNet_1/mobilenetv2_1.00_224_1/block_16_project_BN_1/Cast/ReadVariableOp/resource", "op": "Const", "input": [], "attr": {"dtype": {"type": "DT_FLOAT"}}}, {"name": "AttentionNet_1/mobilenetv2_1.00_224_1/Conv_1_1/convolution/ReadVariableOp/resource", "op": "Const", "input": [], "attr": {"dtype": {"type": "DT_FLOAT"}}}, {"name": "AttentionNet_1/mobilenetv2_1.00_224_1/Conv_1_bn_1/Cast_1/ReadVariableOp/resource", "op": "Const", "input": [], "attr": {"dtype": {"type": "DT_FLOAT"}}}, {"name": "AttentionNet_1/mobilenetv2_1.00_224_1/Conv_1_bn_1/batchnorm/add/y", "op": "Const", "input": [], "attr": {"dtype": {"type": "DT_FLOAT"}}}, {"name": "AttentionNet_1/mobilenetv2_1.00_224_1/Conv_1_bn_1/Cast_2/ReadVariableOp/resource", "op": "Const", "input": [], "attr": {"dtype": {"type": "DT_FLOAT"}}}, {"name": "AttentionNet_1/mobilenetv2_1.00_224_1/Conv_1_bn_1/Cast_3/ReadVariableOp/resource", "op": "Const", "input": [], "attr": {"dtype": {"type": "DT_FLOAT"}}}, {"name": "AttentionNet_1/mobilenetv2_1.00_224_1/Conv_1_bn_1/Cast/ReadVariableOp/resource", "op": "Const", "input": [], "attr": {"dtype": {"type": "DT_FLOAT"}}}, {"name": "AttentionNet_1/attention_gap_1/Mean/reduction_indices", "op": "Const", "input": [], "attr": {"dtype": {"type": "DT_INT32"}}}, {"name": "AttentionNet_1/attention_fc1_1/Cast/ReadVariableOp/resource", "op": "Const", "input": [], "attr": {"dtype": {"type": "DT_FLOAT"}}}, {"name": "AttentionNet_1/attention_fc1_1/BiasAdd/ReadVariableOp/resource", "op": "Const", "input": [], "attr": {"dtype": {"type": "DT_FLOAT"}}}, {"name": "AttentionNet_1/region_output_1/Cast/ReadVariableOp/resource", "op": "Const", "input": [], "attr": {"dtype": {"type": "DT_FLOAT"}}}, {"name": "AttentionNet_1/region_output_1/BiasAdd/ReadVariableOp/resource", "op": "Const", "input": [], "attr": {"dtype": {"type": "DT_FLOAT"}}}, {"name": "AttentionNet_1/attention_conv_1/Reshape/ReadVariableOp/resource", "op": "Const", "input": [], "attr": {"dtype": {"type": "DT_FLOAT"}}}, {"name": "AttentionNet_1/attention_conv_1/convolution/ReadVariableOp/resource", "op": "Const", "input": [], "attr": {"dtype": {"type": "DT_FLOAT"}}}, {"name": "AttentionNet_1/attention_conv_1/Reshape/shape", "op": "Const", "input": [], "attr": {"dtype": {"type": "DT_INT32"}}}, {"name": "AttentionNet_1/attention_flat_1/strided_slice/stack", "op": "Const", "input": [], "attr": {"dtype": {"type": "DT_INT32"}}}, {"name": "AttentionNet_1/attention_flat_1/strided_slice/stack_1", "op": "Const", "input": [], "attr": {"dtype": {"type": "DT_INT32"}}}, {"name": "AttentionNet_1/attention_flat_1/strided_slice/stack_2", "op": "Const", "input": [], "attr": {"dtype": {"type": "DT_INT32"}}}, {"name": "AttentionNet_1/attention_flat_1/Reshape/shape/1", "op": "Const", "input": [], "attr": {"dtype": {"type": "DT_INT32"}}}, {"name": "AttentionNet_1/mobilenetv2_1.00_224_1/Conv1_1/convolution/ReadVariableOp", "op": "Identity", "input": ["AttentionNet_1/mobilenetv2_1.00_224_1/Conv1_1/convolution/ReadVariableOp/resource"], "attr": {"T": {"type": "DT_FLOAT"}}}, {"name": "AttentionNet_1/mobilenetv2_1.00_224_1/Conv1_1/convolution", "op": "Conv2D", "input": ["x", "AttentionNet_1/mobilenetv2_1.00_224_1/Conv1_1/convolution/ReadVariableOp"], "attr": {"data_format": {"s": "NHWC"}, "padding": {"s": "SAME"}, "dilations": {"list": {"i": ["1", "1", "1", "1"]}}, "T": {"type": "DT_FLOAT"}, "strides": {"list": {"i": ["1", "2", "2", "1"]}}}}, {"name": "AttentionNet_1/mobilenetv2_1.00_224_1/bn_Conv1_1/Cast_1/ReadVariableOp", "op": "Identity", "input": ["AttentionNet_1/mobilenetv2_1.00_224_1/bn_Conv1_1/Cast_1/ReadVariableOp/resource"], "attr": {"T": {"type": "DT_FLOAT"}}}, {"name": "AttentionNet_1/mobilenetv2_1.00_224_1/bn_Conv1_1/batchnorm/add", "op": "AddV2", "input": ["AttentionNet_1/mobilenetv2_1.00_224_1/bn_Conv1_1/Cast_1/ReadVariableOp", "AttentionNet_1/mobilenetv2_1.00_224_1/bn_Conv1_1/batchnorm/add/y"], "attr": {"T": {"type": "DT_FLOAT"}}}, {"name": "AttentionNet_1/mobilenetv2_1.00_224_1/bn_Conv1_1/batchnorm/Rsqrt", "op": "Rsqrt", "input": ["AttentionNet_1/mobilenetv2_1.00_224_1/bn_Conv1_1/batchnorm/add"], "attr": {"T": {"type": "DT_FLOAT"}}}, {"name": "AttentionNet_1/mobilenetv2_1.00_224_1/bn_Conv1_1/Cast_2/ReadVariableOp", "op": "Identity", "input": ["AttentionNet_1/mobilenetv2_1.00_224_1/bn_Conv1_1/Cast_2/ReadVariableOp/resource"], "attr": {"T": {"type": "DT_FLOAT"}}}, {"name": "AttentionNet_1/mobilenetv2_1.00_224_1/bn_Conv1_1/batchnorm/mul", "op": "Mul", "input": ["AttentionNet_1/mobilenetv2_1.00_224_1/bn_Conv1_1/batchnorm/Rsqrt", "AttentionNet_1/mobilenetv2_1.00_224_1/bn_Conv1_1/Cast_2/ReadVariableOp"], "attr": {"T": {"type": "DT_FLOAT"}}}, {"name": "AttentionNet_1/mobilenetv2_1.00_224_1/bn_Conv1_1/batchnorm/mul_1", "op": "Mul", "input": ["AttentionNet_1/mobilenetv2_1.00_224_1/Conv1_1/convolution", "AttentionNet_1/mobilenetv2_1.00_224_1/bn_Conv1_1/batchnorm/mul"], "attr": {"T": {"type": "DT_FLOAT"}}}, {"name": "AttentionNet_1/mobilenetv2_1.00_224_1/bn_Conv1_1/Cast_3/ReadVariableOp", "op": "Identity", "input": ["AttentionNet_1/mobilenetv2_1.00_224_1/bn_Conv1_1/Cast_3/ReadVariableOp/resource"], "attr": {"T": {"type": "DT_FLOAT"}}}, {"name": "AttentionNet_1/mobilenetv2_1.00_224_1/bn_Conv1_1/Cast/ReadVariableOp", "op": "Identity", "input": ["AttentionNet_1/mobilenetv2_1.00_224_1/bn_Conv1_1/Cast/ReadVariableOp/resource"], "attr": {"T": {"type": "DT_FLOAT"}}}, {"name": "AttentionNet_1/mobilenetv2_1.00_224_1/bn_Conv1_1/batchnorm/mul_2", "op": "Mul", "input": ["AttentionNet_1/mobilenetv2_1.00_224_1/bn_Conv1_1/Cast/ReadVariableOp", "AttentionNet_1/mobilenetv2_1.00_224_1/bn_Conv1_1/batchnorm/mul"], "attr": {"T": {"type": "DT_FLOAT"}}}, {"name": "AttentionNet_1/mobilenetv2_1.00_224_1/bn_Conv1_1/batchnorm/sub", "op": "Sub", "input": ["AttentionNet_1/mobilenetv2_1.00_224_1/bn_Conv1_1/Cast_3/ReadVariableOp", "AttentionNet_1/mobilenetv2_1.00_224_1/bn_Conv1_1/batchnorm/mul_2"], "attr": {"T": {"type": "DT_FLOAT"}}}, {"name": "AttentionNet_1/mobilenetv2_1.00_224_1/bn_Conv1_1/batchnorm/add_1", "op": "AddV2", "input": ["AttentionNet_1/mobilenetv2_1.00_224_1/bn_Conv1_1/batchnorm/mul_1", "AttentionNet_1/mobilenetv2_1.00_224_1/bn_Conv1_1/batchnorm/sub"], "attr": {"T": {"type": "DT_FLOAT"}}}, {"name": "AttentionNet_1/mobilenetv2_1.00_224_1/Conv1_relu_1/Relu6", "op": "Relu6", "input": ["AttentionNet_1/mobilenetv2_1.00_224_1/bn_Conv1_1/batchnorm/add_1"], "attr": {"T": {"type": "DT_FLOAT"}}}, {"name": "AttentionNet_1/mobilenetv2_1.00_224_1/expanded_conv_depthwise_1/depthwise/ReadVariableOp", "op": "Identity", "input": ["AttentionNet_1/mobilenetv2_1.00_224_1/expanded_conv_depthwise_1/depthwise/ReadVariableOp/resource"], "attr": {"T": {"type": "DT_FLOAT"}}}, {"name": "AttentionNet_1/mobilenetv2_1.00_224_1/expanded_conv_depthwise_1/depthwise", "op": "DepthwiseConv2dNative", "input": ["AttentionNet_1/mobilenetv2_1.00_224_1/Conv1_relu_1/Relu6", "AttentionNet_1/mobilenetv2_1.00_224_1/expanded_conv_depthwise_1/depthwise/ReadVariableOp"], "attr": {"dilations": {"list": {"i": ["1", "1", "1", "1"]}}, "padding": {"s": "SAME"}, "T": {"type": "DT_FLOAT"}, "data_format": {"s": "NHWC"}, "strides": {"list": {"i": ["1", "1", "1", "1"]}}}}, {"name": "AttentionNet_1/mobilenetv2_1.00_224_1/expanded_conv_depthwise_BN_1/Cast_1/ReadVariableOp", "op": "Identity", "input": ["AttentionNet_1/mobilenetv2_1.00_224_1/expanded_conv_depthwise_BN_1/Cast_1/ReadVariableOp/resource"], "attr": {"T": {"type": "DT_FLOAT"}}}, {"name": "AttentionNet_1/mobilenetv2_1.00_224_1/expanded_conv_depthwise_BN_1/batchnorm/add", "op": "AddV2", "input": ["AttentionNet_1/mobilenetv2_1.00_224_1/expanded_conv_depthwise_BN_1/Cast_1/ReadVariableOp", "AttentionNet_1/mobilenetv2_1.00_224_1/expanded_conv_depthwise_BN_1/batchnorm/add/y"], "attr": {"T": {"type": "DT_FLOAT"}}}, {"name": "AttentionNet_1/mobilenetv2_1.00_224_1/expanded_conv_depthwise_BN_1/batchnorm/Rsqrt", "op": "Rsqrt", "input": ["AttentionNet_1/mobilenetv2_1.00_224_1/expanded_conv_depthwise_BN_1/batchnorm/add"], "attr": {"T": {"type": "DT_FLOAT"}}}, {"name": "AttentionNet_1/mobilenetv2_1.00_224_1/expanded_conv_depthwise_BN_1/Cast_2/ReadVariableOp", "op": "Identity", "input": ["AttentionNet_1/mobilenetv2_1.00_224_1/expanded_conv_depthwise_BN_1/Cast_2/ReadVariableOp/resource"], "attr": {"T": {"type": "DT_FLOAT"}}}, {"name": "AttentionNet_1/mobilenetv2_1.00_224_1/expanded_conv_depthwise_BN_1/batchnorm/mul", "op": "Mul", "input": ["AttentionNet_1/mobilenetv2_1.00_224_1/expanded_conv_depthwise_BN_1/batchnorm/Rsqrt", "AttentionNet_1/mobilenetv2_1.00_224_1/expanded_conv_depthwise_BN_1/Cast_2/ReadVariableOp"], "attr": {"T": {"type": "DT_FLOAT"}}}, {"name": "AttentionNet_1/mobilenetv2_1.00_224_1/expanded_conv_depthwise_BN_1/batchnorm/mul_1", "op": "Mul", "input": ["AttentionNet_1/mobilenetv2_1.00_224_1/expanded_conv_depthwise_1/depthwise", "AttentionNet_1/mobilenetv2_1.00_224_1/expanded_conv_depthwise_BN_1/batchnorm/mul"], "attr": {"T": {"type": "DT_FLOAT"}}}, {"name": "AttentionNet_1/mobilenetv2_1.00_224_1/expanded_conv_depthwise_BN_1/Cast_3/ReadVariableOp", "op": "Identity", "input": ["AttentionNet_1/mobilenetv2_1.00_224_1/expanded_conv_depthwise_BN_1/Cast_3/ReadVariableOp/resource"], "attr": {"T": {"type": "DT_FLOAT"}}}, {"name": "AttentionNet_1/mobilenetv2_1.00_224_1/expanded_conv_depthwise_BN_1/Cast/ReadVariableOp", "op": "Identity", "input": ["AttentionNet_1/mobilenetv2_1.00_224_1/expanded_conv_depthwise_BN_1/Cast/ReadVariableOp/resource"], "attr": {"T": {"type": "DT_FLOAT"}}}, {"name": "AttentionNet_1/mobilenetv2_1.00_224_1/expanded_conv_depthwise_BN_1/batchnorm/mul_2", "op": "Mul", "input": ["AttentionNet_1/mobilenetv2_1.00_224_1/expanded_conv_depthwise_BN_1/Cast/ReadVariableOp", "AttentionNet_1/mobilenetv2_1.00_224_1/expanded_conv_depthwise_BN_1/batchnorm/mul"], "attr": {"T": {"type": "DT_FLOAT"}}}, {"name": "AttentionNet_1/mobilenetv2_1.00_224_1/expanded_conv_depthwise_BN_1/batchnorm/sub", "op": "Sub", "input": ["AttentionNet_1/mobilenetv2_1.00_224_1/expanded_conv_depthwise_BN_1/Cast_3/ReadVariableOp", "AttentionNet_1/mobilenetv2_1.00_224_1/expanded_conv_depthwise_BN_1/batchnorm/mul_2"], "attr": {"T": {"type": "DT_FLOAT"}}}, {"name": "AttentionNet_1/mobilenetv2_1.00_224_1/expanded_conv_depthwise_BN_1/batchnorm/add_1", "op": "AddV2", "input": ["AttentionNet_1/mobilenetv2_1.00_224_1/expanded_conv_depthwise_BN_1/batchnorm/mul_1", "AttentionNet_1/mobilenetv2_1.00_224_1/expanded_conv_depthwise_BN_1/batchnorm/sub"], "attr": {"T": {"type": "DT_FLOAT"}}}, {"name": "AttentionNet_1/mobilenetv2_1.00_224_1/expanded_conv_depthwise_relu_1/Relu6", "op": "Relu6", "input": ["AttentionNet_1/mobilenetv2_1.00_224_1/expanded_conv_depthwise_BN_1/batchnorm/add_1"], "attr": {"T": {"type": "DT_FLOAT"}}}, {"name": "AttentionNet_1/mobilenetv2_1.00_224_1/expanded_conv_project_1/convolution/ReadVariableOp", "op": "Identity", "input": ["AttentionNet_1/mobilenetv2_1.00_224_1/expanded_conv_project_1/convolution/ReadVariableOp/resource"], "attr": {"T": {"type": "DT_FLOAT"}}}, {"name": "AttentionNet_1/mobilenetv2_1.00_224_1/expanded_conv_project_1/convolution", "op": "Conv2D", "input": ["AttentionNet_1/mobilenetv2_1.00_224_1/expanded_conv_depthwise_relu_1/Relu6", "AttentionNet_1/mobilenetv2_1.00_224_1/expanded_conv_project_1/convolution/ReadVariableOp"], "attr": {"dilations": {"list": {"i": ["1", "1", "1", "1"]}}, "padding": {"s": "SAME"}, "data_format": {"s": "NHWC"}, "T": {"type": "DT_FLOAT"}, "strides": {"list": {"i": ["1", "1", "1", "1"]}}}}, {"name": "AttentionNet_1/mobilenetv2_1.00_224_1/expanded_conv_project_BN_1/Cast_1/ReadVariableOp", "op": "Identity", "input": ["AttentionNet_1/mobilenetv2_1.00_224_1/expanded_conv_project_BN_1/Cast_1/ReadVariableOp/resource"], "attr": {"T": {"type": "DT_FLOAT"}}}, {"name": "AttentionNet_1/mobilenetv2_1.00_224_1/expanded_conv_project_BN_1/batchnorm/add", "op": "AddV2", "input": ["AttentionNet_1/mobilenetv2_1.00_224_1/expanded_conv_project_BN_1/Cast_1/ReadVariableOp", "AttentionNet_1/mobilenetv2_1.00_224_1/expanded_conv_project_BN_1/batchnorm/add/y"], "attr": {"T": {"type": "DT_FLOAT"}}}, {"name": "AttentionNet_1/mobilenetv2_1.00_224_1/expanded_conv_project_BN_1/batchnorm/Rsqrt", "op": "Rsqrt", "input": ["AttentionNet_1/mobilenetv2_1.00_224_1/expanded_conv_project_BN_1/batchnorm/add"], "attr": {"T": {"type": "DT_FLOAT"}}}, {"name": "AttentionNet_1/mobilenetv2_1.00_224_1/expanded_conv_project_BN_1/Cast_2/ReadVariableOp", "op": "Identity", "input": ["AttentionNet_1/mobilenetv2_1.00_224_1/expanded_conv_project_BN_1/Cast_2/ReadVariableOp/resource"], "attr": {"T": {"type": "DT_FLOAT"}}}, {"name": "AttentionNet_1/mobilenetv2_1.00_224_1/expanded_conv_project_BN_1/batchnorm/mul", "op": "Mul", "input": ["AttentionNet_1/mobilenetv2_1.00_224_1/expanded_conv_project_BN_1/batchnorm/Rsqrt", "AttentionNet_1/mobilenetv2_1.00_224_1/expanded_conv_project_BN_1/Cast_2/ReadVariableOp"], "attr": {"T": {"type": "DT_FLOAT"}}}, {"name": "AttentionNet_1/mobilenetv2_1.00_224_1/expanded_conv_project_BN_1/batchnorm/mul_1", "op": "Mul", "input": ["AttentionNet_1/mobilenetv2_1.00_224_1/expanded_conv_project_1/convolution", "AttentionNet_1/mobilenetv2_1.00_224_1/expanded_conv_project_BN_1/batchnorm/mul"], "attr": {"T": {"type": "DT_FLOAT"}}}, {"name": "AttentionNet_1/mobilenetv2_1.00_224_1/expanded_conv_project_BN_1/Cast_3/ReadVariableOp", "op": "Identity", "input": ["AttentionNet_1/mobilenetv2_1.00_224_1/expanded_conv_project_BN_1/Cast_3/ReadVariableOp/resource"], "attr": {"T": {"type": "DT_FLOAT"}}}, {"name": "AttentionNet_1/mobilenetv2_1.00_224_1/expanded_conv_project_BN_1/Cast/ReadVariableOp", "op": "Identity", "input": ["AttentionNet_1/mobilenetv2_1.00_224_1/expanded_conv_project_BN_1/Cast/ReadVariableOp/resource"], "attr": {"T": {"type": "DT_FLOAT"}}}, {"name": "AttentionNet_1/mobilenetv2_1.00_224_1/expanded_conv_project_BN_1/batchnorm/mul_2", "op": "Mul", "input": ["AttentionNet_1/mobilenetv2_1.00_224_1/expanded_conv_project_BN_1/Cast/ReadVariableOp", "AttentionNet_1/mobilenetv2_1.00_224_1/expanded_conv_project_BN_1/batchnorm/mul"], "attr": {"T": {"type": "DT_FLOAT"}}}, {"name": "AttentionNet_1/mobilenetv2_1.00_224_1/expanded_conv_project_BN_1/batchnorm/sub", "op": "Sub", "input": ["AttentionNet_1/mobilenetv2_1.00_224_1/expanded_conv_project_BN_1/Cast_3/ReadVariableOp", "AttentionNet_1/mobilenetv2_1.00_224_1/expanded_conv_project_BN_1/batchnorm/mul_2"], "attr": {"T": {"type": "DT_FLOAT"}}}, {"name": "AttentionNet_1/mobilenetv2_1.00_224_1/expanded_conv_project_BN_1/batchnorm/add_1", "op": "AddV2", "input": ["AttentionNet_1/mobilenetv2_1.00_224_1/expanded_conv_project_BN_1/batchnorm/mul_1", "AttentionNet_1/mobilenetv2_1.00_224_1/expanded_conv_project_BN_1/batchnorm/sub"], "attr": {"T": {"type": "DT_FLOAT"}}}, {"name": "AttentionNet_1/mobilenetv2_1.00_224_1/block_1_expand_1/convolution/ReadVariableOp", "op": "Identity", "input": ["AttentionNet_1/mobilenetv2_1.00_224_1/block_1_expand_1/convolution/ReadVariableOp/resource"], "attr": {"T": {"type": "DT_FLOAT"}}}, {"name": "AttentionNet_1/mobilenetv2_1.00_224_1/block_1_expand_1/convolution", "op": "Conv2D", "input": ["AttentionNet_1/mobilenetv2_1.00_224_1/expanded_conv_project_BN_1/batchnorm/add_1", "AttentionNet_1/mobilenetv2_1.00_224_1/block_1_expand_1/convolution/ReadVariableOp"], "attr": {"dilations": {"list": {"i": ["1", "1", "1", "1"]}}, "padding": {"s": "SAME"}, "data_format": {"s": "NHWC"}, "T": {"type": "DT_FLOAT"}, "strides": {"list": {"i": ["1", "1", "1", "1"]}}}}, {"name": "AttentionNet_1/mobilenetv2_1.00_224_1/block_1_expand_BN_1/Cast_1/ReadVariableOp", "op": "Identity", "input": ["AttentionNet_1/mobilenetv2_1.00_224_1/block_1_expand_BN_1/Cast_1/ReadVariableOp/resource"], "attr": {"T": {"type": "DT_FLOAT"}}}, {"name": "AttentionNet_1/mobilenetv2_1.00_224_1/block_1_expand_BN_1/batchnorm/add", "op": "AddV2", "input": ["AttentionNet_1/mobilenetv2_1.00_224_1/block_1_expand_BN_1/Cast_1/ReadVariableOp", "AttentionNet_1/mobilenetv2_1.00_224_1/block_1_expand_BN_1/batchnorm/add/y"], "attr": {"T": {"type": "DT_FLOAT"}}}, {"name": "AttentionNet_1/mobilenetv2_1.00_224_1/block_1_expand_BN_1/batchnorm/Rsqrt", "op": "Rsqrt", "input": ["AttentionNet_1/mobilenetv2_1.00_224_1/block_1_expand_BN_1/batchnorm/add"], "attr": {"T": {"type": "DT_FLOAT"}}}, {"name": "AttentionNet_1/mobilenetv2_1.00_224_1/block_1_expand_BN_1/Cast_2/ReadVariableOp", "op": "Identity", "input": ["AttentionNet_1/mobilenetv2_1.00_224_1/block_1_expand_BN_1/Cast_2/ReadVariableOp/resource"], "attr": {"T": {"type": "DT_FLOAT"}}}, {"name": "AttentionNet_1/mobilenetv2_1.00_224_1/block_1_expand_BN_1/batchnorm/mul", "op": "Mul", "input": ["AttentionNet_1/mobilenetv2_1.00_224_1/block_1_expand_BN_1/batchnorm/Rsqrt", "AttentionNet_1/mobilenetv2_1.00_224_1/block_1_expand_BN_1/Cast_2/ReadVariableOp"], "attr": {"T": {"type": "DT_FLOAT"}}}, {"name": "AttentionNet_1/mobilenetv2_1.00_224_1/block_1_expand_BN_1/batchnorm/mul_1", "op": "Mul", "input": ["AttentionNet_1/mobilenetv2_1.00_224_1/block_1_expand_1/convolution", "AttentionNet_1/mobilenetv2_1.00_224_1/block_1_expand_BN_1/batchnorm/mul"], "attr": {"T": {"type": "DT_FLOAT"}}}, {"name": "AttentionNet_1/mobilenetv2_1.00_224_1/block_1_expand_BN_1/Cast_3/ReadVariableOp", "op": "Identity", "input": ["AttentionNet_1/mobilenetv2_1.00_224_1/block_1_expand_BN_1/Cast_3/ReadVariableOp/resource"], "attr": {"T": {"type": "DT_FLOAT"}}}, {"name": "AttentionNet_1/mobilenetv2_1.00_224_1/block_1_expand_BN_1/Cast/ReadVariableOp", "op": "Identity", "input": ["AttentionNet_1/mobilenetv2_1.00_224_1/block_1_expand_BN_1/Cast/ReadVariableOp/resource"], "attr": {"T": {"type": "DT_FLOAT"}}}, {"name": "AttentionNet_1/mobilenetv2_1.00_224_1/block_1_expand_BN_1/batchnorm/mul_2", "op": "Mul", "input": ["AttentionNet_1/mobilenetv2_1.00_224_1/block_1_expand_BN_1/Cast/ReadVariableOp", "AttentionNet_1/mobilenetv2_1.00_224_1/block_1_expand_BN_1/batchnorm/mul"], "attr": {"T": {"type": "DT_FLOAT"}}}, {"name": "AttentionNet_1/mobilenetv2_1.00_224_1/block_1_expand_BN_1/batchnorm/sub", "op": "Sub", "input": ["AttentionNet_1/mobilenetv2_1.00_224_1/block_1_expand_BN_1/Cast_3/ReadVariableOp", "AttentionNet_1/mobilenetv2_1.00_224_1/block_1_expand_BN_1/batchnorm/mul_2"], "attr": {"T": {"type": "DT_FLOAT"}}}, {"name": "AttentionNet_1/mobilenetv2_1.00_224_1/block_1_expand_BN_1/batchnorm/add_1", "op": "AddV2", "input": ["AttentionNet_1/mobilenetv2_1.00_224_1/block_1_expand_BN_1/batchnorm/mul_1", "AttentionNet_1/mobilenetv2_1.00_224_1/block_1_expand_BN_1/batchnorm/sub"], "attr": {"T": {"type": "DT_FLOAT"}}}, {"name": "AttentionNet_1/mobilenetv2_1.00_224_1/block_1_expand_relu_1/Relu6", "op": "Relu6", "input": ["AttentionNet_1/mobilenetv2_1.00_224_1/block_1_expand_BN_1/batchnorm/add_1"], "attr": {"T": {"type": "DT_FLOAT"}}}, {"name": "AttentionNet_1/mobilenetv2_1.00_224_1/block_1_pad_1/Pad", "op": "Pad", "input": ["AttentionNet_1/mobilenetv2_1.00_224_1/block_1_expand_relu_1/Relu6", "AttentionNet_1/mobilenetv2_1.00_224_1/block_1_pad_1/Const"], "attr": {"T": {"type": "DT_FLOAT"}}}, {"name": "AttentionNet_1/mobilenetv2_1.00_224_1/block_1_depthwise_1/depthwise/ReadVariableOp", "op": "Identity", "input": ["AttentionNet_1/mobilenetv2_1.00_224_1/block_1_depthwise_1/depthwise/ReadVariableOp/resource"], "attr": {"T": {"type": "DT_FLOAT"}}}, {"name": "AttentionNet_1/mobilenetv2_1.00_224_1/block_1_depthwise_1/depthwise", "op": "DepthwiseConv2dNative", "input": ["AttentionNet_1/mobilenetv2_1.00_224_1/block_1_pad_1/Pad", "AttentionNet_1/mobilenetv2_1.00_224_1/block_1_depthwise_1/depthwise/ReadVariableOp"], "attr": {"dilations": {"list": {"i": ["1", "1", "1", "1"]}}, "padding": {"s": "VALID"}, "T": {"type": "DT_FLOAT"}, "data_format": {"s": "NHWC"}, "strides": {"list": {"i": ["1", "2", "2", "1"]}}}}, {"name": "AttentionNet_1/mobilenetv2_1.00_224_1/block_1_depthwise_BN_1/Cast_1/ReadVariableOp", "op": "Identity", "input": ["AttentionNet_1/mobilenetv2_1.00_224_1/block_1_depthwise_BN_1/Cast_1/ReadVariableOp/resource"], "attr": {"T": {"type": "DT_FLOAT"}}}, {"name": "AttentionNet_1/mobilenetv2_1.00_224_1/block_1_depthwise_BN_1/batchnorm/add", "op": "AddV2", "input": ["AttentionNet_1/mobilenetv2_1.00_224_1/block_1_depthwise_BN_1/Cast_1/ReadVariableOp", "AttentionNet_1/mobilenetv2_1.00_224_1/block_1_depthwise_BN_1/batchnorm/add/y"], "attr": {"T": {"type": "DT_FLOAT"}}}, {"name": "AttentionNet_1/mobilenetv2_1.00_224_1/block_1_depthwise_BN_1/batchnorm/Rsqrt", "op": "Rsqrt", "input": ["AttentionNet_1/mobilenetv2_1.00_224_1/block_1_depthwise_BN_1/batchnorm/add"], "attr": {"T": {"type": "DT_FLOAT"}}}, {"name": "AttentionNet_1/mobilenetv2_1.00_224_1/block_1_depthwise_BN_1/Cast_2/ReadVariableOp", "op": "Identity", "input": ["AttentionNet_1/mobilenetv2_1.00_224_1/block_1_depthwise_BN_1/Cast_2/ReadVariableOp/resource"], "attr": {"T": {"type": "DT_FLOAT"}}}, {"name": "AttentionNet_1/mobilenetv2_1.00_224_1/block_1_depthwise_BN_1/batchnorm/mul", "op": "Mul", "input": ["AttentionNet_1/mobilenetv2_1.00_224_1/block_1_depthwise_BN_1/batchnorm/Rsqrt", "AttentionNet_1/mobilenetv2_1.00_224_1/block_1_depthwise_BN_1/Cast_2/ReadVariableOp"], "attr": {"T": {"type": "DT_FLOAT"}}}, {"name": "AttentionNet_1/mobilenetv2_1.00_224_1/block_1_depthwise_BN_1/batchnorm/mul_1", "op": "Mul", "input": ["AttentionNet_1/mobilenetv2_1.00_224_1/block_1_depthwise_1/depthwise", "AttentionNet_1/mobilenetv2_1.00_224_1/block_1_depthwise_BN_1/batchnorm/mul"], "attr": {"T": {"type": "DT_FLOAT"}}}, {"name": "AttentionNet_1/mobilenetv2_1.00_224_1/block_1_depthwise_BN_1/Cast_3/ReadVariableOp", "op": "Identity", "input": ["AttentionNet_1/mobilenetv2_1.00_224_1/block_1_depthwise_BN_1/Cast_3/ReadVariableOp/resource"], "attr": {"T": {"type": "DT_FLOAT"}}}, {"name": "AttentionNet_1/mobilenetv2_1.00_224_1/block_1_depthwise_BN_1/Cast/ReadVariableOp", "op": "Identity", "input": ["AttentionNet_1/mobilenetv2_1.00_224_1/block_1_depthwise_BN_1/Cast/ReadVariableOp/resource"], "attr": {"T": {"type": "DT_FLOAT"}}}, {"name": "AttentionNet_1/mobilenetv2_1.00_224_1/block_1_depthwise_BN_1/batchnorm/mul_2", "op": "Mul", "input": ["AttentionNet_1/mobilenetv2_1.00_224_1/block_1_depthwise_BN_1/Cast/ReadVariableOp", "AttentionNet_1/mobilenetv2_1.00_224_1/block_1_depthwise_BN_1/batchnorm/mul"], "attr": {"T": {"type": "DT_FLOAT"}}}, {"name": "AttentionNet_1/mobilenetv2_1.00_224_1/block_1_depthwise_BN_1/batchnorm/sub", "op": "Sub", "input": ["AttentionNet_1/mobilenetv2_1.00_224_1/block_1_depthwise_BN_1/Cast_3/ReadVariableOp", "AttentionNet_1/mobilenetv2_1.00_224_1/block_1_depthwise_BN_1/batchnorm/mul_2"], "attr": {"T": {"type": "DT_FLOAT"}}}, {"name": "AttentionNet_1/mobilenetv2_1.00_224_1/block_1_depthwise_BN_1/batchnorm/add_1", "op": "AddV2", "input": ["AttentionNet_1/mobilenetv2_1.00_224_1/block_1_depthwise_BN_1/batchnorm/mul_1", "AttentionNet_1/mobilenetv2_1.00_224_1/block_1_depthwise_BN_1/batchnorm/sub"], "attr": {"T": {"type": "DT_FLOAT"}}}, {"name": "AttentionNet_1/mobilenetv2_1.00_224_1/block_1_depthwise_relu_1/Relu6", "op": "Relu6", "input": ["AttentionNet_1/mobilenetv2_1.00_224_1/block_1_depthwise_BN_1/batchnorm/add_1"], "attr": {"T": {"type": "DT_FLOAT"}}}, {"name": "AttentionNet_1/mobilenetv2_1.00_224_1/block_1_project_1/convolution/ReadVariableOp", "op": "Identity", "input": ["AttentionNet_1/mobilenetv2_1.00_224_1/block_1_project_1/convolution/ReadVariableOp/resource"], "attr": {"T": {"type": "DT_FLOAT"}}}, {"name": "AttentionNet_1/mobilenetv2_1.00_224_1/block_1_project_1/convolution", "op": "Conv2D", "input": ["AttentionNet_1/mobilenetv2_1.00_224_1/block_1_depthwise_relu_1/Relu6", "AttentionNet_1/mobilenetv2_1.00_224_1/block_1_project_1/convolution/ReadVariableOp"], "attr": {"data_format": {"s": "NHWC"}, "padding": {"s": "SAME"}, "T": {"type": "DT_FLOAT"}, "dilations": {"list": {"i": ["1", "1", "1", "1"]}}, "strides": {"list": {"i": ["1", "1", "1", "1"]}}}}, {"name": "AttentionNet_1/mobilenetv2_1.00_224_1/block_1_project_BN_1/Cast_1/ReadVariableOp", "op": "Identity", "input": ["AttentionNet_1/mobilenetv2_1.00_224_1/block_1_project_BN_1/Cast_1/ReadVariableOp/resource"], "attr": {"T": {"type": "DT_FLOAT"}}}, {"name": "AttentionNet_1/mobilenetv2_1.00_224_1/block_1_project_BN_1/batchnorm/add", "op": "AddV2", "input": ["AttentionNet_1/mobilenetv2_1.00_224_1/block_1_project_BN_1/Cast_1/ReadVariableOp", "AttentionNet_1/mobilenetv2_1.00_224_1/block_1_project_BN_1/batchnorm/add/y"], "attr": {"T": {"type": "DT_FLOAT"}}}, {"name": "AttentionNet_1/mobilenetv2_1.00_224_1/block_1_project_BN_1/batchnorm/Rsqrt", "op": "Rsqrt", "input": ["AttentionNet_1/mobilenetv2_1.00_224_1/block_1_project_BN_1/batchnorm/add"], "attr": {"T": {"type": "DT_FLOAT"}}}, {"name": "AttentionNet_1/mobilenetv2_1.00_224_1/block_1_project_BN_1/Cast_2/ReadVariableOp", "op": "Identity", "input": ["AttentionNet_1/mobilenetv2_1.00_224_1/block_1_project_BN_1/Cast_2/ReadVariableOp/resource"], "attr": {"T": {"type": "DT_FLOAT"}}}, {"name": "AttentionNet_1/mobilenetv2_1.00_224_1/block_1_project_BN_1/batchnorm/mul", "op": "Mul", "input": ["AttentionNet_1/mobilenetv2_1.00_224_1/block_1_project_BN_1/batchnorm/Rsqrt", "AttentionNet_1/mobilenetv2_1.00_224_1/block_1_project_BN_1/Cast_2/ReadVariableOp"], "attr": {"T": {"type": "DT_FLOAT"}}}, {"name": "AttentionNet_1/mobilenetv2_1.00_224_1/block_1_project_BN_1/batchnorm/mul_1", "op": "Mul", "input": ["AttentionNet_1/mobilenetv2_1.00_224_1/block_1_project_1/convolution", "AttentionNet_1/mobilenetv2_1.00_224_1/block_1_project_BN_1/batchnorm/mul"], "attr": {"T": {"type": "DT_FLOAT"}}}, {"name": "AttentionNet_1/mobilenetv2_1.00_224_1/block_1_project_BN_1/Cast_3/ReadVariableOp", "op": "Identity", "input": ["AttentionNet_1/mobilenetv2_1.00_224_1/block_1_project_BN_1/Cast_3/ReadVariableOp/resource"], "attr": {"T": {"type": "DT_FLOAT"}}}, {"name": "AttentionNet_1/mobilenetv2_1.00_224_1/block_1_project_BN_1/Cast/ReadVariableOp", "op": "Identity", "input": ["AttentionNet_1/mobilenetv2_1.00_224_1/block_1_project_BN_1/Cast/ReadVariableOp/resource"], "attr": {"T": {"type": "DT_FLOAT"}}}, {"name": "AttentionNet_1/mobilenetv2_1.00_224_1/block_1_project_BN_1/batchnorm/mul_2", "op": "Mul", "input": ["AttentionNet_1/mobilenetv2_1.00_224_1/block_1_project_BN_1/Cast/ReadVariableOp", "AttentionNet_1/mobilenetv2_1.00_224_1/block_1_project_BN_1/batchnorm/mul"], "attr": {"T": {"type": "DT_FLOAT"}}}, {"name": "AttentionNet_1/mobilenetv2_1.00_224_1/block_1_project_BN_1/batchnorm/sub", "op": "Sub", "input": ["AttentionNet_1/mobilenetv2_1.00_224_1/block_1_project_BN_1/Cast_3/ReadVariableOp", "AttentionNet_1/mobilenetv2_1.00_224_1/block_1_project_BN_1/batchnorm/mul_2"], "attr": {"T": {"type": "DT_FLOAT"}}}, {"name": "AttentionNet_1/mobilenetv2_1.00_224_1/block_1_project_BN_1/batchnorm/add_1", "op": "AddV2", "input": ["AttentionNet_1/mobilenetv2_1.00_224_1/block_1_project_BN_1/batchnorm/mul_1", "AttentionNet_1/mobilenetv2_1.00_224_1/block_1_project_BN_1/batchnorm/sub"], "attr": {"T": {"type": "DT_FLOAT"}}}, {"name": "AttentionNet_1/mobilenetv2_1.00_224_1/block_2_expand_1/convolution/ReadVariableOp", "op": "Identity", "input": ["AttentionNet_1/mobilenetv2_1.00_224_1/block_2_expand_1/convolution/ReadVariableOp/resource"], "attr": {"T": {"type": "DT_FLOAT"}}}, {"name": "AttentionNet_1/mobilenetv2_1.00_224_1/block_2_expand_1/convolution", "op": "Conv2D", "input": ["AttentionNet_1/mobilenetv2_1.00_224_1/block_1_project_BN_1/batchnorm/add_1", "AttentionNet_1/mobilenetv2_1.00_224_1/block_2_expand_1/convolution/ReadVariableOp"], "attr": {"dilations": {"list": {"i": ["1", "1", "1", "1"]}}, "padding": {"s": "SAME"}, "data_format": {"s": "NHWC"}, "T": {"type": "DT_FLOAT"}, "strides": {"list": {"i": ["1", "1", "1", "1"]}}}}, {"name": "AttentionNet_1/mobilenetv2_1.00_224_1/block_2_expand_BN_1/Cast_1/ReadVariableOp", "op": "Identity", "input": ["AttentionNet_1/mobilenetv2_1.00_224_1/block_2_expand_BN_1/Cast_1/ReadVariableOp/resource"], "attr": {"T": {"type": "DT_FLOAT"}}}, {"name": "AttentionNet_1/mobilenetv2_1.00_224_1/block_2_expand_BN_1/batchnorm/add", "op": "AddV2", "input": ["AttentionNet_1/mobilenetv2_1.00_224_1/block_2_expand_BN_1/Cast_1/ReadVariableOp", "AttentionNet_1/mobilenetv2_1.00_224_1/block_2_expand_BN_1/batchnorm/add/y"], "attr": {"T": {"type": "DT_FLOAT"}}}, {"name": "AttentionNet_1/mobilenetv2_1.00_224_1/block_2_expand_BN_1/batchnorm/Rsqrt", "op": "Rsqrt", "input": ["AttentionNet_1/mobilenetv2_1.00_224_1/block_2_expand_BN_1/batchnorm/add"], "attr": {"T": {"type": "DT_FLOAT"}}}, {"name": "AttentionNet_1/mobilenetv2_1.00_224_1/block_2_expand_BN_1/Cast_2/ReadVariableOp", "op": "Identity", "input": ["AttentionNet_1/mobilenetv2_1.00_224_1/block_2_expand_BN_1/Cast_2/ReadVariableOp/resource"], "attr": {"T": {"type": "DT_FLOAT"}}}, {"name": "AttentionNet_1/mobilenetv2_1.00_224_1/block_2_expand_BN_1/batchnorm/mul", "op": "Mul", "input": ["AttentionNet_1/mobilenetv2_1.00_224_1/block_2_expand_BN_1/batchnorm/Rsqrt", "AttentionNet_1/mobilenetv2_1.00_224_1/block_2_expand_BN_1/Cast_2/ReadVariableOp"], "attr": {"T": {"type": "DT_FLOAT"}}}, {"name": "AttentionNet_1/mobilenetv2_1.00_224_1/block_2_expand_BN_1/batchnorm/mul_1", "op": "Mul", "input": ["AttentionNet_1/mobilenetv2_1.00_224_1/block_2_expand_1/convolution", "AttentionNet_1/mobilenetv2_1.00_224_1/block_2_expand_BN_1/batchnorm/mul"], "attr": {"T": {"type": "DT_FLOAT"}}}, {"name": "AttentionNet_1/mobilenetv2_1.00_224_1/block_2_expand_BN_1/Cast_3/ReadVariableOp", "op": "Identity", "input": ["AttentionNet_1/mobilenetv2_1.00_224_1/block_2_expand_BN_1/Cast_3/ReadVariableOp/resource"], "attr": {"T": {"type": "DT_FLOAT"}}}, {"name": "AttentionNet_1/mobilenetv2_1.00_224_1/block_2_expand_BN_1/Cast/ReadVariableOp", "op": "Identity", "input": ["AttentionNet_1/mobilenetv2_1.00_224_1/block_2_expand_BN_1/Cast/ReadVariableOp/resource"], "attr": {"T": {"type": "DT_FLOAT"}}}, {"name": "AttentionNet_1/mobilenetv2_1.00_224_1/block_2_expand_BN_1/batchnorm/mul_2", "op": "Mul", "input": ["AttentionNet_1/mobilenetv2_1.00_224_1/block_2_expand_BN_1/Cast/ReadVariableOp", "AttentionNet_1/mobilenetv2_1.00_224_1/block_2_expand_BN_1/batchnorm/mul"], "attr": {"T": {"type": "DT_FLOAT"}}}, {"name": "AttentionNet_1/mobilenetv2_1.00_224_1/block_2_expand_BN_1/batchnorm/sub", "op": "Sub", "input": ["AttentionNet_1/mobilenetv2_1.00_224_1/block_2_expand_BN_1/Cast_3/ReadVariableOp", "AttentionNet_1/mobilenetv2_1.00_224_1/block_2_expand_BN_1/batchnorm/mul_2"], "attr": {"T": {"type": "DT_FLOAT"}}}, {"name": "AttentionNet_1/mobilenetv2_1.00_224_1/block_2_expand_BN_1/batchnorm/add_1", "op": "AddV2", "input": ["AttentionNet_1/mobilenetv2_1.00_224_1/block_2_expand_BN_1/batchnorm/mul_1", "AttentionNet_1/mobilenetv2_1.00_224_1/block_2_expand_BN_1/batchnorm/sub"], "attr": {"T": {"type": "DT_FLOAT"}}}, {"name": "AttentionNet_1/mobilenetv2_1.00_224_1/block_2_expand_relu_1/Relu6", "op": "Relu6", "input": ["AttentionNet_1/mobilenetv2_1.00_224_1/block_2_expand_BN_1/batchnorm/add_1"], "attr": {"T": {"type": "DT_FLOAT"}}}, {"name": "AttentionNet_1/mobilenetv2_1.00_224_1/block_2_depthwise_1/depthwise/ReadVariableOp", "op": "Identity", "input": ["AttentionNet_1/mobilenetv2_1.00_224_1/block_2_depthwise_1/depthwise/ReadVariableOp/resource"], "attr": {"T": {"type": "DT_FLOAT"}}}, {"name": "AttentionNet_1/mobilenetv2_1.00_224_1/block_2_depthwise_1/depthwise", "op": "DepthwiseConv2dNative", "input": ["AttentionNet_1/mobilenetv2_1.00_224_1/block_2_expand_relu_1/Relu6", "AttentionNet_1/mobilenetv2_1.00_224_1/block_2_depthwise_1/depthwise/ReadVariableOp"], "attr": {"data_format": {"s": "NHWC"}, "padding": {"s": "SAME"}, "dilations": {"list": {"i": ["1", "1", "1", "1"]}}, "T": {"type": "DT_FLOAT"}, "strides": {"list": {"i": ["1", "1", "1", "1"]}}}}, {"name": "AttentionNet_1/mobilenetv2_1.00_224_1/block_2_depthwise_BN_1/Cast_1/ReadVariableOp", "op": "Identity", "input": ["AttentionNet_1/mobilenetv2_1.00_224_1/block_2_depthwise_BN_1/Cast_1/ReadVariableOp/resource"], "attr": {"T": {"type": "DT_FLOAT"}}}, {"name": "AttentionNet_1/mobilenetv2_1.00_224_1/block_2_depthwise_BN_1/batchnorm/add", "op": "AddV2", "input": ["AttentionNet_1/mobilenetv2_1.00_224_1/block_2_depthwise_BN_1/Cast_1/ReadVariableOp", "AttentionNet_1/mobilenetv2_1.00_224_1/block_2_depthwise_BN_1/batchnorm/add/y"], "attr": {"T": {"type": "DT_FLOAT"}}}, {"name": "AttentionNet_1/mobilenetv2_1.00_224_1/block_2_depthwise_BN_1/batchnorm/Rsqrt", "op": "Rsqrt", "input": ["AttentionNet_1/mobilenetv2_1.00_224_1/block_2_depthwise_BN_1/batchnorm/add"], "attr": {"T": {"type": "DT_FLOAT"}}}, {"name": "AttentionNet_1/mobilenetv2_1.00_224_1/block_2_depthwise_BN_1/Cast_2/ReadVariableOp", "op": "Identity", "input": ["AttentionNet_1/mobilenetv2_1.00_224_1/block_2_depthwise_BN_1/Cast_2/ReadVariableOp/resource"], "attr": {"T": {"type": "DT_FLOAT"}}}, {"name": "AttentionNet_1/mobilenetv2_1.00_224_1/block_2_depthwise_BN_1/batchnorm/mul", "op": "Mul", "input": ["AttentionNet_1/mobilenetv2_1.00_224_1/block_2_depthwise_BN_1/batchnorm/Rsqrt", "AttentionNet_1/mobilenetv2_1.00_224_1/block_2_depthwise_BN_1/Cast_2/ReadVariableOp"], "attr": {"T": {"type": "DT_FLOAT"}}}, {"name": "AttentionNet_1/mobilenetv2_1.00_224_1/block_2_depthwise_BN_1/batchnorm/mul_1", "op": "Mul", "input": ["AttentionNet_1/mobilenetv2_1.00_224_1/block_2_depthwise_1/depthwise", "AttentionNet_1/mobilenetv2_1.00_224_1/block_2_depthwise_BN_1/batchnorm/mul"], "attr": {"T": {"type": "DT_FLOAT"}}}, {"name": "AttentionNet_1/mobilenetv2_1.00_224_1/block_2_depthwise_BN_1/Cast_3/ReadVariableOp", "op": "Identity", "input": ["AttentionNet_1/mobilenetv2_1.00_224_1/block_2_depthwise_BN_1/Cast_3/ReadVariableOp/resource"], "attr": {"T": {"type": "DT_FLOAT"}}}, {"name": "AttentionNet_1/mobilenetv2_1.00_224_1/block_2_depthwise_BN_1/Cast/ReadVariableOp", "op": "Identity", "input": ["AttentionNet_1/mobilenetv2_1.00_224_1/block_2_depthwise_BN_1/Cast/ReadVariableOp/resource"], "attr": {"T": {"type": "DT_FLOAT"}}}, {"name": "AttentionNet_1/mobilenetv2_1.00_224_1/block_2_depthwise_BN_1/batchnorm/mul_2", "op": "Mul", "input": ["AttentionNet_1/mobilenetv2_1.00_224_1/block_2_depthwise_BN_1/Cast/ReadVariableOp", "AttentionNet_1/mobilenetv2_1.00_224_1/block_2_depthwise_BN_1/batchnorm/mul"], "attr": {"T": {"type": "DT_FLOAT"}}}, {"name": "AttentionNet_1/mobilenetv2_1.00_224_1/block_2_depthwise_BN_1/batchnorm/sub", "op": "Sub", "input": ["AttentionNet_1/mobilenetv2_1.00_224_1/block_2_depthwise_BN_1/Cast_3/ReadVariableOp", "AttentionNet_1/mobilenetv2_1.00_224_1/block_2_depthwise_BN_1/batchnorm/mul_2"], "attr": {"T": {"type": "DT_FLOAT"}}}, {"name": "AttentionNet_1/mobilenetv2_1.00_224_1/block_2_depthwise_BN_1/batchnorm/add_1", "op": "AddV2", "input": ["AttentionNet_1/mobilenetv2_1.00_224_1/block_2_depthwise_BN_1/batchnorm/mul_1", "AttentionNet_1/mobilenetv2_1.00_224_1/block_2_depthwise_BN_1/batchnorm/sub"], "attr": {"T": {"type": "DT_FLOAT"}}}, {"name": "AttentionNet_1/mobilenetv2_1.00_224_1/block_2_depthwise_relu_1/Relu6", "op": "Relu6", "input": ["AttentionNet_1/mobilenetv2_1.00_224_1/block_2_depthwise_BN_1/batchnorm/add_1"], "attr": {"T": {"type": "DT_FLOAT"}}}, {"name": "AttentionNet_1/mobilenetv2_1.00_224_1/block_2_project_1/convolution/ReadVariableOp", "op": "Identity", "input": ["AttentionNet_1/mobilenetv2_1.00_224_1/block_2_project_1/convolution/ReadVariableOp/resource"], "attr": {"T": {"type": "DT_FLOAT"}}}, {"name": "AttentionNet_1/mobilenetv2_1.00_224_1/block_2_project_1/convolution", "op": "Conv2D", "input": ["AttentionNet_1/mobilenetv2_1.00_224_1/block_2_depthwise_relu_1/Relu6", "AttentionNet_1/mobilenetv2_1.00_224_1/block_2_project_1/convolution/ReadVariableOp"], "attr": {"data_format": {"s": "NHWC"}, "padding": {"s": "SAME"}, "T": {"type": "DT_FLOAT"}, "dilations": {"list": {"i": ["1", "1", "1", "1"]}}, "strides": {"list": {"i": ["1", "1", "1", "1"]}}}}, {"name": "AttentionNet_1/mobilenetv2_1.00_224_1/block_2_project_BN_1/Cast_1/ReadVariableOp", "op": "Identity", "input": ["AttentionNet_1/mobilenetv2_1.00_224_1/block_2_project_BN_1/Cast_1/ReadVariableOp/resource"], "attr": {"T": {"type": "DT_FLOAT"}}}, {"name": "AttentionNet_1/mobilenetv2_1.00_224_1/block_2_project_BN_1/batchnorm/add", "op": "AddV2", "input": ["AttentionNet_1/mobilenetv2_1.00_224_1/block_2_project_BN_1/Cast_1/ReadVariableOp", "AttentionNet_1/mobilenetv2_1.00_224_1/block_2_project_BN_1/batchnorm/add/y"], "attr": {"T": {"type": "DT_FLOAT"}}}, {"name": "AttentionNet_1/mobilenetv2_1.00_224_1/block_2_project_BN_1/batchnorm/Rsqrt", "op": "Rsqrt", "input": ["AttentionNet_1/mobilenetv2_1.00_224_1/block_2_project_BN_1/batchnorm/add"], "attr": {"T": {"type": "DT_FLOAT"}}}, {"name": "AttentionNet_1/mobilenetv2_1.00_224_1/block_2_project_BN_1/Cast_2/ReadVariableOp", "op": "Identity", "input": ["AttentionNet_1/mobilenetv2_1.00_224_1/block_2_project_BN_1/Cast_2/ReadVariableOp/resource"], "attr": {"T": {"type": "DT_FLOAT"}}}, {"name": "AttentionNet_1/mobilenetv2_1.00_224_1/block_2_project_BN_1/batchnorm/mul", "op": "Mul", "input": ["AttentionNet_1/mobilenetv2_1.00_224_1/block_2_project_BN_1/batchnorm/Rsqrt", "AttentionNet_1/mobilenetv2_1.00_224_1/block_2_project_BN_1/Cast_2/ReadVariableOp"], "attr": {"T": {"type": "DT_FLOAT"}}}, {"name": "AttentionNet_1/mobilenetv2_1.00_224_1/block_2_project_BN_1/batchnorm/mul_1", "op": "Mul", "input": ["AttentionNet_1/mobilenetv2_1.00_224_1/block_2_project_1/convolution", "AttentionNet_1/mobilenetv2_1.00_224_1/block_2_project_BN_1/batchnorm/mul"], "attr": {"T": {"type": "DT_FLOAT"}}}, {"name": "AttentionNet_1/mobilenetv2_1.00_224_1/block_2_project_BN_1/Cast_3/ReadVariableOp", "op": "Identity", "input": ["AttentionNet_1/mobilenetv2_1.00_224_1/block_2_project_BN_1/Cast_3/ReadVariableOp/resource"], "attr": {"T": {"type": "DT_FLOAT"}}}, {"name": "AttentionNet_1/mobilenetv2_1.00_224_1/block_2_project_BN_1/Cast/ReadVariableOp", "op": "Identity", "input": ["AttentionNet_1/mobilenetv2_1.00_224_1/block_2_project_BN_1/Cast/ReadVariableOp/resource"], "attr": {"T": {"type": "DT_FLOAT"}}}, {"name": "AttentionNet_1/mobilenetv2_1.00_224_1/block_2_project_BN_1/batchnorm/mul_2", "op": "Mul", "input": ["AttentionNet_1/mobilenetv2_1.00_224_1/block_2_project_BN_1/Cast/ReadVariableOp", "AttentionNet_1/mobilenetv2_1.00_224_1/block_2_project_BN_1/batchnorm/mul"], "attr": {"T": {"type": "DT_FLOAT"}}}, {"name": "AttentionNet_1/mobilenetv2_1.00_224_1/block_2_project_BN_1/batchnorm/sub", "op": "Sub", "input": ["AttentionNet_1/mobilenetv2_1.00_224_1/block_2_project_BN_1/Cast_3/ReadVariableOp", "AttentionNet_1/mobilenetv2_1.00_224_1/block_2_project_BN_1/batchnorm/mul_2"], "attr": {"T": {"type": "DT_FLOAT"}}}, {"name": "AttentionNet_1/mobilenetv2_1.00_224_1/block_2_project_BN_1/batchnorm/add_1", "op": "AddV2", "input": ["AttentionNet_1/mobilenetv2_1.00_224_1/block_2_project_BN_1/batchnorm/mul_1", "AttentionNet_1/mobilenetv2_1.00_224_1/block_2_project_BN_1/batchnorm/sub"], "attr": {"T": {"type": "DT_FLOAT"}}}, {"name": "AttentionNet_1/mobilenetv2_1.00_224_1/block_2_add_1/Add", "op": "AddV2", "input": ["AttentionNet_1/mobilenetv2_1.00_224_1/block_1_project_BN_1/batchnorm/add_1", "AttentionNet_1/mobilenetv2_1.00_224_1/block_2_project_BN_1/batchnorm/add_1"], "attr": {"T": {"type": "DT_FLOAT"}}}, {"name": "AttentionNet_1/mobilenetv2_1.00_224_1/block_3_expand_1/convolution/ReadVariableOp", "op": "Identity", "input": ["AttentionNet_1/mobilenetv2_1.00_224_1/block_3_expand_1/convolution/ReadVariableOp/resource"], "attr": {"T": {"type": "DT_FLOAT"}}}, {"name": "AttentionNet_1/mobilenetv2_1.00_224_1/block_3_expand_1/convolution", "op": "Conv2D", "input": ["AttentionNet_1/mobilenetv2_1.00_224_1/block_2_add_1/Add", "AttentionNet_1/mobilenetv2_1.00_224_1/block_3_expand_1/convolution/ReadVariableOp"], "attr": {"data_format": {"s": "NHWC"}, "padding": {"s": "SAME"}, "T": {"type": "DT_FLOAT"}, "dilations": {"list": {"i": ["1", "1", "1", "1"]}}, "strides": {"list": {"i": ["1", "1", "1", "1"]}}}}, {"name": "AttentionNet_1/mobilenetv2_1.00_224_1/block_3_expand_BN_1/Cast_1/ReadVariableOp", "op": "Identity", "input": ["AttentionNet_1/mobilenetv2_1.00_224_1/block_3_expand_BN_1/Cast_1/ReadVariableOp/resource"], "attr": {"T": {"type": "DT_FLOAT"}}}, {"name": "AttentionNet_1/mobilenetv2_1.00_224_1/block_3_expand_BN_1/batchnorm/add", "op": "AddV2", "input": ["AttentionNet_1/mobilenetv2_1.00_224_1/block_3_expand_BN_1/Cast_1/ReadVariableOp", "AttentionNet_1/mobilenetv2_1.00_224_1/block_3_expand_BN_1/batchnorm/add/y"], "attr": {"T": {"type": "DT_FLOAT"}}}, {"name": "AttentionNet_1/mobilenetv2_1.00_224_1/block_3_expand_BN_1/batchnorm/Rsqrt", "op": "Rsqrt", "input": ["AttentionNet_1/mobilenetv2_1.00_224_1/block_3_expand_BN_1/batchnorm/add"], "attr": {"T": {"type": "DT_FLOAT"}}}, {"name": "AttentionNet_1/mobilenetv2_1.00_224_1/block_3_expand_BN_1/Cast_2/ReadVariableOp", "op": "Identity", "input": ["AttentionNet_1/mobilenetv2_1.00_224_1/block_3_expand_BN_1/Cast_2/ReadVariableOp/resource"], "attr": {"T": {"type": "DT_FLOAT"}}}, {"name": "AttentionNet_1/mobilenetv2_1.00_224_1/block_3_expand_BN_1/batchnorm/mul", "op": "Mul", "input": ["AttentionNet_1/mobilenetv2_1.00_224_1/block_3_expand_BN_1/batchnorm/Rsqrt", "AttentionNet_1/mobilenetv2_1.00_224_1/block_3_expand_BN_1/Cast_2/ReadVariableOp"], "attr": {"T": {"type": "DT_FLOAT"}}}, {"name": "AttentionNet_1/mobilenetv2_1.00_224_1/block_3_expand_BN_1/batchnorm/mul_1", "op": "Mul", "input": ["AttentionNet_1/mobilenetv2_1.00_224_1/block_3_expand_1/convolution", "AttentionNet_1/mobilenetv2_1.00_224_1/block_3_expand_BN_1/batchnorm/mul"], "attr": {"T": {"type": "DT_FLOAT"}}}, {"name": "AttentionNet_1/mobilenetv2_1.00_224_1/block_3_expand_BN_1/Cast_3/ReadVariableOp", "op": "Identity", "input": ["AttentionNet_1/mobilenetv2_1.00_224_1/block_3_expand_BN_1/Cast_3/ReadVariableOp/resource"], "attr": {"T": {"type": "DT_FLOAT"}}}, {"name": "AttentionNet_1/mobilenetv2_1.00_224_1/block_3_expand_BN_1/Cast/ReadVariableOp", "op": "Identity", "input": ["AttentionNet_1/mobilenetv2_1.00_224_1/block_3_expand_BN_1/Cast/ReadVariableOp/resource"], "attr": {"T": {"type": "DT_FLOAT"}}}, {"name": "AttentionNet_1/mobilenetv2_1.00_224_1/block_3_expand_BN_1/batchnorm/mul_2", "op": "Mul", "input": ["AttentionNet_1/mobilenetv2_1.00_224_1/block_3_expand_BN_1/Cast/ReadVariableOp", "AttentionNet_1/mobilenetv2_1.00_224_1/block_3_expand_BN_1/batchnorm/mul"], "attr": {"T": {"type": "DT_FLOAT"}}}, {"name": "AttentionNet_1/mobilenetv2_1.00_224_1/block_3_expand_BN_1/batchnorm/sub", "op": "Sub", "input": ["AttentionNet_1/mobilenetv2_1.00_224_1/block_3_expand_BN_1/Cast_3/ReadVariableOp", "AttentionNet_1/mobilenetv2_1.00_224_1/block_3_expand_BN_1/batchnorm/mul_2"], "attr": {"T": {"type": "DT_FLOAT"}}}, {"name": "AttentionNet_1/mobilenetv2_1.00_224_1/block_3_expand_BN_1/batchnorm/add_1", "op": "AddV2", "input": ["AttentionNet_1/mobilenetv2_1.00_224_1/block_3_expand_BN_1/batchnorm/mul_1", "AttentionNet_1/mobilenetv2_1.00_224_1/block_3_expand_BN_1/batchnorm/sub"], "attr": {"T": {"type": "DT_FLOAT"}}}, {"name": "AttentionNet_1/mobilenetv2_1.00_224_1/block_3_expand_relu_1/Relu6", "op": "Relu6", "input": ["AttentionNet_1/mobilenetv2_1.00_224_1/block_3_expand_BN_1/batchnorm/add_1"], "attr": {"T": {"type": "DT_FLOAT"}}}, {"name": "AttentionNet_1/mobilenetv2_1.00_224_1/block_3_pad_1/Pad", "op": "Pad", "input": ["AttentionNet_1/mobilenetv2_1.00_224_1/block_3_expand_relu_1/Relu6", "AttentionNet_1/mobilenetv2_1.00_224_1/block_3_pad_1/Const"], "attr": {"T": {"type": "DT_FLOAT"}}}, {"name": "AttentionNet_1/mobilenetv2_1.00_224_1/block_3_depthwise_1/depthwise/ReadVariableOp", "op": "Identity", "input": ["AttentionNet_1/mobilenetv2_1.00_224_1/block_3_depthwise_1/depthwise/ReadVariableOp/resource"], "attr": {"T": {"type": "DT_FLOAT"}}}, {"name": "AttentionNet_1/mobilenetv2_1.00_224_1/block_3_depthwise_1/depthwise", "op": "DepthwiseConv2dNative", "input": ["AttentionNet_1/mobilenetv2_1.00_224_1/block_3_pad_1/Pad", "AttentionNet_1/mobilenetv2_1.00_224_1/block_3_depthwise_1/depthwise/ReadVariableOp"], "attr": {"T": {"type": "DT_FLOAT"}, "padding": {"s": "VALID"}, "data_format": {"s": "NHWC"}, "dilations": {"list": {"i": ["1", "1", "1", "1"]}}, "strides": {"list": {"i": ["1", "2", "2", "1"]}}}}, {"name": "AttentionNet_1/mobilenetv2_1.00_224_1/block_3_depthwise_BN_1/Cast_1/ReadVariableOp", "op": "Identity", "input": ["AttentionNet_1/mobilenetv2_1.00_224_1/block_3_depthwise_BN_1/Cast_1/ReadVariableOp/resource"], "attr": {"T": {"type": "DT_FLOAT"}}}, {"name": "AttentionNet_1/mobilenetv2_1.00_224_1/block_3_depthwise_BN_1/batchnorm/add", "op": "AddV2", "input": ["AttentionNet_1/mobilenetv2_1.00_224_1/block_3_depthwise_BN_1/Cast_1/ReadVariableOp", "AttentionNet_1/mobilenetv2_1.00_224_1/block_3_depthwise_BN_1/batchnorm/add/y"], "attr": {"T": {"type": "DT_FLOAT"}}}, {"name": "AttentionNet_1/mobilenetv2_1.00_224_1/block_3_depthwise_BN_1/batchnorm/Rsqrt", "op": "Rsqrt", "input": ["AttentionNet_1/mobilenetv2_1.00_224_1/block_3_depthwise_BN_1/batchnorm/add"], "attr": {"T": {"type": "DT_FLOAT"}}}, {"name": "AttentionNet_1/mobilenetv2_1.00_224_1/block_3_depthwise_BN_1/Cast_2/ReadVariableOp", "op": "Identity", "input": ["AttentionNet_1/mobilenetv2_1.00_224_1/block_3_depthwise_BN_1/Cast_2/ReadVariableOp/resource"], "attr": {"T": {"type": "DT_FLOAT"}}}, {"name": "AttentionNet_1/mobilenetv2_1.00_224_1/block_3_depthwise_BN_1/batchnorm/mul", "op": "Mul", "input": ["AttentionNet_1/mobilenetv2_1.00_224_1/block_3_depthwise_BN_1/batchnorm/Rsqrt", "AttentionNet_1/mobilenetv2_1.00_224_1/block_3_depthwise_BN_1/Cast_2/ReadVariableOp"], "attr": {"T": {"type": "DT_FLOAT"}}}, {"name": "AttentionNet_1/mobilenetv2_1.00_224_1/block_3_depthwise_BN_1/batchnorm/mul_1", "op": "Mul", "input": ["AttentionNet_1/mobilenetv2_1.00_224_1/block_3_depthwise_1/depthwise", "AttentionNet_1/mobilenetv2_1.00_224_1/block_3_depthwise_BN_1/batchnorm/mul"], "attr": {"T": {"type": "DT_FLOAT"}}}, {"name": "AttentionNet_1/mobilenetv2_1.00_224_1/block_3_depthwise_BN_1/Cast_3/ReadVariableOp", "op": "Identity", "input": ["AttentionNet_1/mobilenetv2_1.00_224_1/block_3_depthwise_BN_1/Cast_3/ReadVariableOp/resource"], "attr": {"T": {"type": "DT_FLOAT"}}}, {"name": "AttentionNet_1/mobilenetv2_1.00_224_1/block_3_depthwise_BN_1/Cast/ReadVariableOp", "op": "Identity", "input": ["AttentionNet_1/mobilenetv2_1.00_224_1/block_3_depthwise_BN_1/Cast/ReadVariableOp/resource"], "attr": {"T": {"type": "DT_FLOAT"}}}, {"name": "AttentionNet_1/mobilenetv2_1.00_224_1/block_3_depthwise_BN_1/batchnorm/mul_2", "op": "Mul", "input": ["AttentionNet_1/mobilenetv2_1.00_224_1/block_3_depthwise_BN_1/Cast/ReadVariableOp", "AttentionNet_1/mobilenetv2_1.00_224_1/block_3_depthwise_BN_1/batchnorm/mul"], "attr": {"T": {"type": "DT_FLOAT"}}}, {"name": "AttentionNet_1/mobilenetv2_1.00_224_1/block_3_depthwise_BN_1/batchnorm/sub", "op": "Sub", "input": ["AttentionNet_1/mobilenetv2_1.00_224_1/block_3_depthwise_BN_1/Cast_3/ReadVariableOp", "AttentionNet_1/mobilenetv2_1.00_224_1/block_3_depthwise_BN_1/batchnorm/mul_2"], "attr": {"T": {"type": "DT_FLOAT"}}}, {"name": "AttentionNet_1/mobilenetv2_1.00_224_1/block_3_depthwise_BN_1/batchnorm/add_1", "op": "AddV2", "input": ["AttentionNet_1/mobilenetv2_1.00_224_1/block_3_depthwise_BN_1/batchnorm/mul_1", "AttentionNet_1/mobilenetv2_1.00_224_1/block_3_depthwise_BN_1/batchnorm/sub"], "attr": {"T": {"type": "DT_FLOAT"}}}, {"name": "AttentionNet_1/mobilenetv2_1.00_224_1/block_3_depthwise_relu_1/Relu6", "op": "Relu6", "input": ["AttentionNet_1/mobilenetv2_1.00_224_1/block_3_depthwise_BN_1/batchnorm/add_1"], "attr": {"T": {"type": "DT_FLOAT"}}}, {"name": "AttentionNet_1/mobilenetv2_1.00_224_1/block_3_project_1/convolution/ReadVariableOp", "op": "Identity", "input": ["AttentionNet_1/mobilenetv2_1.00_224_1/block_3_project_1/convolution/ReadVariableOp/resource"], "attr": {"T": {"type": "DT_FLOAT"}}}, {"name": "AttentionNet_1/mobilenetv2_1.00_224_1/block_3_project_1/convolution", "op": "Conv2D", "input": ["AttentionNet_1/mobilenetv2_1.00_224_1/block_3_depthwise_relu_1/Relu6", "AttentionNet_1/mobilenetv2_1.00_224_1/block_3_project_1/convolution/ReadVariableOp"], "attr": {"T": {"type": "DT_FLOAT"}, "padding": {"s": "SAME"}, "dilations": {"list": {"i": ["1", "1", "1", "1"]}}, "data_format": {"s": "NHWC"}, "strides": {"list": {"i": ["1", "1", "1", "1"]}}}}, {"name": "AttentionNet_1/mobilenetv2_1.00_224_1/block_3_project_BN_1/Cast_1/ReadVariableOp", "op": "Identity", "input": ["AttentionNet_1/mobilenetv2_1.00_224_1/block_3_project_BN_1/Cast_1/ReadVariableOp/resource"], "attr": {"T": {"type": "DT_FLOAT"}}}, {"name": "AttentionNet_1/mobilenetv2_1.00_224_1/block_3_project_BN_1/batchnorm/add", "op": "AddV2", "input": ["AttentionNet_1/mobilenetv2_1.00_224_1/block_3_project_BN_1/Cast_1/ReadVariableOp", "AttentionNet_1/mobilenetv2_1.00_224_1/block_3_project_BN_1/batchnorm/add/y"], "attr": {"T": {"type": "DT_FLOAT"}}}, {"name": "AttentionNet_1/mobilenetv2_1.00_224_1/block_3_project_BN_1/batchnorm/Rsqrt", "op": "Rsqrt", "input": ["AttentionNet_1/mobilenetv2_1.00_224_1/block_3_project_BN_1/batchnorm/add"], "attr": {"T": {"type": "DT_FLOAT"}}}, {"name": "AttentionNet_1/mobilenetv2_1.00_224_1/block_3_project_BN_1/Cast_2/ReadVariableOp", "op": "Identity", "input": ["AttentionNet_1/mobilenetv2_1.00_224_1/block_3_project_BN_1/Cast_2/ReadVariableOp/resource"], "attr": {"T": {"type": "DT_FLOAT"}}}, {"name": "AttentionNet_1/mobilenetv2_1.00_224_1/block_3_project_BN_1/batchnorm/mul", "op": "Mul", "input": ["AttentionNet_1/mobilenetv2_1.00_224_1/block_3_project_BN_1/batchnorm/Rsqrt", "AttentionNet_1/mobilenetv2_1.00_224_1/block_3_project_BN_1/Cast_2/ReadVariableOp"], "attr": {"T": {"type": "DT_FLOAT"}}}, {"name": "AttentionNet_1/mobilenetv2_1.00_224_1/block_3_project_BN_1/batchnorm/mul_1", "op": "Mul", "input": ["AttentionNet_1/mobilenetv2_1.00_224_1/block_3_project_1/convolution", "AttentionNet_1/mobilenetv2_1.00_224_1/block_3_project_BN_1/batchnorm/mul"], "attr": {"T": {"type": "DT_FLOAT"}}}, {"name": "AttentionNet_1/mobilenetv2_1.00_224_1/block_3_project_BN_1/Cast_3/ReadVariableOp", "op": "Identity", "input": ["AttentionNet_1/mobilenetv2_1.00_224_1/block_3_project_BN_1/Cast_3/ReadVariableOp/resource"], "attr": {"T": {"type": "DT_FLOAT"}}}, {"name": "AttentionNet_1/mobilenetv2_1.00_224_1/block_3_project_BN_1/Cast/ReadVariableOp", "op": "Identity", "input": ["AttentionNet_1/mobilenetv2_1.00_224_1/block_3_project_BN_1/Cast/ReadVariableOp/resource"], "attr": {"T": {"type": "DT_FLOAT"}}}, {"name": "AttentionNet_1/mobilenetv2_1.00_224_1/block_3_project_BN_1/batchnorm/mul_2", "op": "Mul", "input": ["AttentionNet_1/mobilenetv2_1.00_224_1/block_3_project_BN_1/Cast/ReadVariableOp", "AttentionNet_1/mobilenetv2_1.00_224_1/block_3_project_BN_1/batchnorm/mul"], "attr": {"T": {"type": "DT_FLOAT"}}}, {"name": "AttentionNet_1/mobilenetv2_1.00_224_1/block_3_project_BN_1/batchnorm/sub", "op": "Sub", "input": ["AttentionNet_1/mobilenetv2_1.00_224_1/block_3_project_BN_1/Cast_3/ReadVariableOp", "AttentionNet_1/mobilenetv2_1.00_224_1/block_3_project_BN_1/batchnorm/mul_2"], "attr": {"T": {"type": "DT_FLOAT"}}}, {"name": "AttentionNet_1/mobilenetv2_1.00_224_1/block_3_project_BN_1/batchnorm/add_1", "op": "AddV2", "input": ["AttentionNet_1/mobilenetv2_1.00_224_1/block_3_project_BN_1/batchnorm/mul_1", "AttentionNet_1/mobilenetv2_1.00_224_1/block_3_project_BN_1/batchnorm/sub"], "attr": {"T": {"type": "DT_FLOAT"}}}, {"name": "AttentionNet_1/mobilenetv2_1.00_224_1/block_4_expand_1/convolution/ReadVariableOp", "op": "Identity", "input": ["AttentionNet_1/mobilenetv2_1.00_224_1/block_4_expand_1/convolution/ReadVariableOp/resource"], "attr": {"T": {"type": "DT_FLOAT"}}}, {"name": "AttentionNet_1/mobilenetv2_1.00_224_1/block_4_expand_1/convolution", "op": "Conv2D", "input": ["AttentionNet_1/mobilenetv2_1.00_224_1/block_3_project_BN_1/batchnorm/add_1", "AttentionNet_1/mobilenetv2_1.00_224_1/block_4_expand_1/convolution/ReadVariableOp"], "attr": {"data_format": {"s": "NHWC"}, "padding": {"s": "SAME"}, "dilations": {"list": {"i": ["1", "1", "1", "1"]}}, "T": {"type": "DT_FLOAT"}, "strides": {"list": {"i": ["1", "1", "1", "1"]}}}}, {"name": "AttentionNet_1/mobilenetv2_1.00_224_1/block_4_expand_BN_1/Cast_1/ReadVariableOp", "op": "Identity", "input": ["AttentionNet_1/mobilenetv2_1.00_224_1/block_4_expand_BN_1/Cast_1/ReadVariableOp/resource"], "attr": {"T": {"type": "DT_FLOAT"}}}, {"name": "AttentionNet_1/mobilenetv2_1.00_224_1/block_4_expand_BN_1/batchnorm/add", "op": "AddV2", "input": ["AttentionNet_1/mobilenetv2_1.00_224_1/block_4_expand_BN_1/Cast_1/ReadVariableOp", "AttentionNet_1/mobilenetv2_1.00_224_1/block_4_expand_BN_1/batchnorm/add/y"], "attr": {"T": {"type": "DT_FLOAT"}}}, {"name": "AttentionNet_1/mobilenetv2_1.00_224_1/block_4_expand_BN_1/batchnorm/Rsqrt", "op": "Rsqrt", "input": ["AttentionNet_1/mobilenetv2_1.00_224_1/block_4_expand_BN_1/batchnorm/add"], "attr": {"T": {"type": "DT_FLOAT"}}}, {"name": "AttentionNet_1/mobilenetv2_1.00_224_1/block_4_expand_BN_1/Cast_2/ReadVariableOp", "op": "Identity", "input": ["AttentionNet_1/mobilenetv2_1.00_224_1/block_4_expand_BN_1/Cast_2/ReadVariableOp/resource"], "attr": {"T": {"type": "DT_FLOAT"}}}, {"name": "AttentionNet_1/mobilenetv2_1.00_224_1/block_4_expand_BN_1/batchnorm/mul", "op": "Mul", "input": ["AttentionNet_1/mobilenetv2_1.00_224_1/block_4_expand_BN_1/batchnorm/Rsqrt", "AttentionNet_1/mobilenetv2_1.00_224_1/block_4_expand_BN_1/Cast_2/ReadVariableOp"], "attr": {"T": {"type": "DT_FLOAT"}}}, {"name": "AttentionNet_1/mobilenetv2_1.00_224_1/block_4_expand_BN_1/batchnorm/mul_1", "op": "Mul", "input": ["AttentionNet_1/mobilenetv2_1.00_224_1/block_4_expand_1/convolution", "AttentionNet_1/mobilenetv2_1.00_224_1/block_4_expand_BN_1/batchnorm/mul"], "attr": {"T": {"type": "DT_FLOAT"}}}, {"name": "AttentionNet_1/mobilenetv2_1.00_224_1/block_4_expand_BN_1/Cast_3/ReadVariableOp", "op": "Identity", "input": ["AttentionNet_1/mobilenetv2_1.00_224_1/block_4_expand_BN_1/Cast_3/ReadVariableOp/resource"], "attr": {"T": {"type": "DT_FLOAT"}}}, {"name": "AttentionNet_1/mobilenetv2_1.00_224_1/block_4_expand_BN_1/Cast/ReadVariableOp", "op": "Identity", "input": ["AttentionNet_1/mobilenetv2_1.00_224_1/block_4_expand_BN_1/Cast/ReadVariableOp/resource"], "attr": {"T": {"type": "DT_FLOAT"}}}, {"name": "AttentionNet_1/mobilenetv2_1.00_224_1/block_4_expand_BN_1/batchnorm/mul_2", "op": "Mul", "input": ["AttentionNet_1/mobilenetv2_1.00_224_1/block_4_expand_BN_1/Cast/ReadVariableOp", "AttentionNet_1/mobilenetv2_1.00_224_1/block_4_expand_BN_1/batchnorm/mul"], "attr": {"T": {"type": "DT_FLOAT"}}}, {"name": "AttentionNet_1/mobilenetv2_1.00_224_1/block_4_expand_BN_1/batchnorm/sub", "op": "Sub", "input": ["AttentionNet_1/mobilenetv2_1.00_224_1/block_4_expand_BN_1/Cast_3/ReadVariableOp", "AttentionNet_1/mobilenetv2_1.00_224_1/block_4_expand_BN_1/batchnorm/mul_2"], "attr": {"T": {"type": "DT_FLOAT"}}}, {"name": "AttentionNet_1/mobilenetv2_1.00_224_1/block_4_expand_BN_1/batchnorm/add_1", "op": "AddV2", "input": ["AttentionNet_1/mobilenetv2_1.00_224_1/block_4_expand_BN_1/batchnorm/mul_1", "AttentionNet_1/mobilenetv2_1.00_224_1/block_4_expand_BN_1/batchnorm/sub"], "attr": {"T": {"type": "DT_FLOAT"}}}, {"name": "AttentionNet_1/mobilenetv2_1.00_224_1/block_4_expand_relu_1/Relu6", "op": "Relu6", "input": ["AttentionNet_1/mobilenetv2_1.00_224_1/block_4_expand_BN_1/batchnorm/add_1"], "attr": {"T": {"type": "DT_FLOAT"}}}, {"name": "AttentionNet_1/mobilenetv2_1.00_224_1/block_4_depthwise_1/depthwise/ReadVariableOp", "op": "Identity", "input": ["AttentionNet_1/mobilenetv2_1.00_224_1/block_4_depthwise_1/depthwise/ReadVariableOp/resource"], "attr": {"T": {"type": "DT_FLOAT"}}}, {"name": "AttentionNet_1/mobilenetv2_1.00_224_1/block_4_depthwise_1/depthwise", "op": "DepthwiseConv2dNative", "input": ["AttentionNet_1/mobilenetv2_1.00_224_1/block_4_expand_relu_1/Relu6", "AttentionNet_1/mobilenetv2_1.00_224_1/block_4_depthwise_1/depthwise/ReadVariableOp"], "attr": {"T": {"type": "DT_FLOAT"}, "padding": {"s": "SAME"}, "dilations": {"list": {"i": ["1", "1", "1", "1"]}}, "data_format": {"s": "NHWC"}, "strides": {"list": {"i": ["1", "1", "1", "1"]}}}}, {"name": "AttentionNet_1/mobilenetv2_1.00_224_1/block_4_depthwise_BN_1/Cast_1/ReadVariableOp", "op": "Identity", "input": ["AttentionNet_1/mobilenetv2_1.00_224_1/block_4_depthwise_BN_1/Cast_1/ReadVariableOp/resource"], "attr": {"T": {"type": "DT_FLOAT"}}}, {"name": "AttentionNet_1/mobilenetv2_1.00_224_1/block_4_depthwise_BN_1/batchnorm/add", "op": "AddV2", "input": ["AttentionNet_1/mobilenetv2_1.00_224_1/block_4_depthwise_BN_1/Cast_1/ReadVariableOp", "AttentionNet_1/mobilenetv2_1.00_224_1/block_4_depthwise_BN_1/batchnorm/add/y"], "attr": {"T": {"type": "DT_FLOAT"}}}, {"name": "AttentionNet_1/mobilenetv2_1.00_224_1/block_4_depthwise_BN_1/batchnorm/Rsqrt", "op": "Rsqrt", "input": ["AttentionNet_1/mobilenetv2_1.00_224_1/block_4_depthwise_BN_1/batchnorm/add"], "attr": {"T": {"type": "DT_FLOAT"}}}, {"name": "AttentionNet_1/mobilenetv2_1.00_224_1/block_4_depthwise_BN_1/Cast_2/ReadVariableOp", "op": "Identity", "input": ["AttentionNet_1/mobilenetv2_1.00_224_1/block_4_depthwise_BN_1/Cast_2/ReadVariableOp/resource"], "attr": {"T": {"type": "DT_FLOAT"}}}, {"name": "AttentionNet_1/mobilenetv2_1.00_224_1/block_4_depthwise_BN_1/batchnorm/mul", "op": "Mul", "input": ["AttentionNet_1/mobilenetv2_1.00_224_1/block_4_depthwise_BN_1/batchnorm/Rsqrt", "AttentionNet_1/mobilenetv2_1.00_224_1/block_4_depthwise_BN_1/Cast_2/ReadVariableOp"], "attr": {"T": {"type": "DT_FLOAT"}}}, {"name": "AttentionNet_1/mobilenetv2_1.00_224_1/block_4_depthwise_BN_1/batchnorm/mul_1", "op": "Mul", "input": ["AttentionNet_1/mobilenetv2_1.00_224_1/block_4_depthwise_1/depthwise", "AttentionNet_1/mobilenetv2_1.00_224_1/block_4_depthwise_BN_1/batchnorm/mul"], "attr": {"T": {"type": "DT_FLOAT"}}}, {"name": "AttentionNet_1/mobilenetv2_1.00_224_1/block_4_depthwise_BN_1/Cast_3/ReadVariableOp", "op": "Identity", "input": ["AttentionNet_1/mobilenetv2_1.00_224_1/block_4_depthwise_BN_1/Cast_3/ReadVariableOp/resource"], "attr": {"T": {"type": "DT_FLOAT"}}}, {"name": "AttentionNet_1/mobilenetv2_1.00_224_1/block_4_depthwise_BN_1/Cast/ReadVariableOp", "op": "Identity", "input": ["AttentionNet_1/mobilenetv2_1.00_224_1/block_4_depthwise_BN_1/Cast/ReadVariableOp/resource"], "attr": {"T": {"type": "DT_FLOAT"}}}, {"name": "AttentionNet_1/mobilenetv2_1.00_224_1/block_4_depthwise_BN_1/batchnorm/mul_2", "op": "Mul", "input": ["AttentionNet_1/mobilenetv2_1.00_224_1/block_4_depthwise_BN_1/Cast/ReadVariableOp", "AttentionNet_1/mobilenetv2_1.00_224_1/block_4_depthwise_BN_1/batchnorm/mul"], "attr": {"T": {"type": "DT_FLOAT"}}}, {"name": "AttentionNet_1/mobilenetv2_1.00_224_1/block_4_depthwise_BN_1/batchnorm/sub", "op": "Sub", "input": ["AttentionNet_1/mobilenetv2_1.00_224_1/block_4_depthwise_BN_1/Cast_3/ReadVariableOp", "AttentionNet_1/mobilenetv2_1.00_224_1/block_4_depthwise_BN_1/batchnorm/mul_2"], "attr": {"T": {"type": "DT_FLOAT"}}}, {"name": "AttentionNet_1/mobilenetv2_1.00_224_1/block_4_depthwise_BN_1/batchnorm/add_1", "op": "AddV2", "input": ["AttentionNet_1/mobilenetv2_1.00_224_1/block_4_depthwise_BN_1/batchnorm/mul_1", "AttentionNet_1/mobilenetv2_1.00_224_1/block_4_depthwise_BN_1/batchnorm/sub"], "attr": {"T": {"type": "DT_FLOAT"}}}, {"name": "AttentionNet_1/mobilenetv2_1.00_224_1/block_4_depthwise_relu_1/Relu6", "op": "Relu6", "input": ["AttentionNet_1/mobilenetv2_1.00_224_1/block_4_depthwise_BN_1/batchnorm/add_1"], "attr": {"T": {"type": "DT_FLOAT"}}}, {"name": "AttentionNet_1/mobilenetv2_1.00_224_1/block_4_project_1/convolution/ReadVariableOp", "op": "Identity", "input": ["AttentionNet_1/mobilenetv2_1.00_224_1/block_4_project_1/convolution/ReadVariableOp/resource"], "attr": {"T": {"type": "DT_FLOAT"}}}, {"name": "AttentionNet_1/mobilenetv2_1.00_224_1/block_4_project_1/convolution", "op": "Conv2D", "input": ["AttentionNet_1/mobilenetv2_1.00_224_1/block_4_depthwise_relu_1/Relu6", "AttentionNet_1/mobilenetv2_1.00_224_1/block_4_project_1/convolution/ReadVariableOp"], "attr": {"data_format": {"s": "NHWC"}, "padding": {"s": "SAME"}, "T": {"type": "DT_FLOAT"}, "dilations": {"list": {"i": ["1", "1", "1", "1"]}}, "strides": {"list": {"i": ["1", "1", "1", "1"]}}}}, {"name": "AttentionNet_1/mobilenetv2_1.00_224_1/block_4_project_BN_1/Cast_1/ReadVariableOp", "op": "Identity", "input": ["AttentionNet_1/mobilenetv2_1.00_224_1/block_4_project_BN_1/Cast_1/ReadVariableOp/resource"], "attr": {"T": {"type": "DT_FLOAT"}}}, {"name": "AttentionNet_1/mobilenetv2_1.00_224_1/block_4_project_BN_1/batchnorm/add", "op": "AddV2", "input": ["AttentionNet_1/mobilenetv2_1.00_224_1/block_4_project_BN_1/Cast_1/ReadVariableOp", "AttentionNet_1/mobilenetv2_1.00_224_1/block_4_project_BN_1/batchnorm/add/y"], "attr": {"T": {"type": "DT_FLOAT"}}}, {"name": "AttentionNet_1/mobilenetv2_1.00_224_1/block_4_project_BN_1/batchnorm/Rsqrt", "op": "Rsqrt", "input": ["AttentionNet_1/mobilenetv2_1.00_224_1/block_4_project_BN_1/batchnorm/add"], "attr": {"T": {"type": "DT_FLOAT"}}}, {"name": "AttentionNet_1/mobilenetv2_1.00_224_1/block_4_project_BN_1/Cast_2/ReadVariableOp", "op": "Identity", "input": ["AttentionNet_1/mobilenetv2_1.00_224_1/block_4_project_BN_1/Cast_2/ReadVariableOp/resource"], "attr": {"T": {"type": "DT_FLOAT"}}}, {"name": "AttentionNet_1/mobilenetv2_1.00_224_1/block_4_project_BN_1/batchnorm/mul", "op": "Mul", "input": ["AttentionNet_1/mobilenetv2_1.00_224_1/block_4_project_BN_1/batchnorm/Rsqrt", "AttentionNet_1/mobilenetv2_1.00_224_1/block_4_project_BN_1/Cast_2/ReadVariableOp"], "attr": {"T": {"type": "DT_FLOAT"}}}, {"name": "AttentionNet_1/mobilenetv2_1.00_224_1/block_4_project_BN_1/batchnorm/mul_1", "op": "Mul", "input": ["AttentionNet_1/mobilenetv2_1.00_224_1/block_4_project_1/convolution", "AttentionNet_1/mobilenetv2_1.00_224_1/block_4_project_BN_1/batchnorm/mul"], "attr": {"T": {"type": "DT_FLOAT"}}}, {"name": "AttentionNet_1/mobilenetv2_1.00_224_1/block_4_project_BN_1/Cast_3/ReadVariableOp", "op": "Identity", "input": ["AttentionNet_1/mobilenetv2_1.00_224_1/block_4_project_BN_1/Cast_3/ReadVariableOp/resource"], "attr": {"T": {"type": "DT_FLOAT"}}}, {"name": "AttentionNet_1/mobilenetv2_1.00_224_1/block_4_project_BN_1/Cast/ReadVariableOp", "op": "Identity", "input": ["AttentionNet_1/mobilenetv2_1.00_224_1/block_4_project_BN_1/Cast/ReadVariableOp/resource"], "attr": {"T": {"type": "DT_FLOAT"}}}, {"name": "AttentionNet_1/mobilenetv2_1.00_224_1/block_4_project_BN_1/batchnorm/mul_2", "op": "Mul", "input": ["AttentionNet_1/mobilenetv2_1.00_224_1/block_4_project_BN_1/Cast/ReadVariableOp", "AttentionNet_1/mobilenetv2_1.00_224_1/block_4_project_BN_1/batchnorm/mul"], "attr": {"T": {"type": "DT_FLOAT"}}}, {"name": "AttentionNet_1/mobilenetv2_1.00_224_1/block_4_project_BN_1/batchnorm/sub", "op": "Sub", "input": ["AttentionNet_1/mobilenetv2_1.00_224_1/block_4_project_BN_1/Cast_3/ReadVariableOp", "AttentionNet_1/mobilenetv2_1.00_224_1/block_4_project_BN_1/batchnorm/mul_2"], "attr": {"T": {"type": "DT_FLOAT"}}}, {"name": "AttentionNet_1/mobilenetv2_1.00_224_1/block_4_project_BN_1/batchnorm/add_1", "op": "AddV2", "input": ["AttentionNet_1/mobilenetv2_1.00_224_1/block_4_project_BN_1/batchnorm/mul_1", "AttentionNet_1/mobilenetv2_1.00_224_1/block_4_project_BN_1/batchnorm/sub"], "attr": {"T": {"type": "DT_FLOAT"}}}, {"name": "AttentionNet_1/mobilenetv2_1.00_224_1/block_4_add_1/Add", "op": "AddV2", "input": ["AttentionNet_1/mobilenetv2_1.00_224_1/block_3_project_BN_1/batchnorm/add_1", "AttentionNet_1/mobilenetv2_1.00_224_1/block_4_project_BN_1/batchnorm/add_1"], "attr": {"T": {"type": "DT_FLOAT"}}}, {"name": "AttentionNet_1/mobilenetv2_1.00_224_1/block_5_expand_1/convolution/ReadVariableOp", "op": "Identity", "input": ["AttentionNet_1/mobilenetv2_1.00_224_1/block_5_expand_1/convolution/ReadVariableOp/resource"], "attr": {"T": {"type": "DT_FLOAT"}}}, {"name": "AttentionNet_1/mobilenetv2_1.00_224_1/block_5_expand_1/convolution", "op": "Conv2D", "input": ["AttentionNet_1/mobilenetv2_1.00_224_1/block_4_add_1/Add", "AttentionNet_1/mobilenetv2_1.00_224_1/block_5_expand_1/convolution/ReadVariableOp"], "attr": {"T": {"type": "DT_FLOAT"}, "padding": {"s": "SAME"}, "data_format": {"s": "NHWC"}, "dilations": {"list": {"i": ["1", "1", "1", "1"]}}, "strides": {"list": {"i": ["1", "1", "1", "1"]}}}}, {"name": "AttentionNet_1/mobilenetv2_1.00_224_1/block_5_expand_BN_1/Cast_1/ReadVariableOp", "op": "Identity", "input": ["AttentionNet_1/mobilenetv2_1.00_224_1/block_5_expand_BN_1/Cast_1/ReadVariableOp/resource"], "attr": {"T": {"type": "DT_FLOAT"}}}, {"name": "AttentionNet_1/mobilenetv2_1.00_224_1/block_5_expand_BN_1/batchnorm/add", "op": "AddV2", "input": ["AttentionNet_1/mobilenetv2_1.00_224_1/block_5_expand_BN_1/Cast_1/ReadVariableOp", "AttentionNet_1/mobilenetv2_1.00_224_1/block_5_expand_BN_1/batchnorm/add/y"], "attr": {"T": {"type": "DT_FLOAT"}}}, {"name": "AttentionNet_1/mobilenetv2_1.00_224_1/block_5_expand_BN_1/batchnorm/Rsqrt", "op": "Rsqrt", "input": ["AttentionNet_1/mobilenetv2_1.00_224_1/block_5_expand_BN_1/batchnorm/add"], "attr": {"T": {"type": "DT_FLOAT"}}}, {"name": "AttentionNet_1/mobilenetv2_1.00_224_1/block_5_expand_BN_1/Cast_2/ReadVariableOp", "op": "Identity", "input": ["AttentionNet_1/mobilenetv2_1.00_224_1/block_5_expand_BN_1/Cast_2/ReadVariableOp/resource"], "attr": {"T": {"type": "DT_FLOAT"}}}, {"name": "AttentionNet_1/mobilenetv2_1.00_224_1/block_5_expand_BN_1/batchnorm/mul", "op": "Mul", "input": ["AttentionNet_1/mobilenetv2_1.00_224_1/block_5_expand_BN_1/batchnorm/Rsqrt", "AttentionNet_1/mobilenetv2_1.00_224_1/block_5_expand_BN_1/Cast_2/ReadVariableOp"], "attr": {"T": {"type": "DT_FLOAT"}}}, {"name": "AttentionNet_1/mobilenetv2_1.00_224_1/block_5_expand_BN_1/batchnorm/mul_1", "op": "Mul", "input": ["AttentionNet_1/mobilenetv2_1.00_224_1/block_5_expand_1/convolution", "AttentionNet_1/mobilenetv2_1.00_224_1/block_5_expand_BN_1/batchnorm/mul"], "attr": {"T": {"type": "DT_FLOAT"}}}, {"name": "AttentionNet_1/mobilenetv2_1.00_224_1/block_5_expand_BN_1/Cast_3/ReadVariableOp", "op": "Identity", "input": ["AttentionNet_1/mobilenetv2_1.00_224_1/block_5_expand_BN_1/Cast_3/ReadVariableOp/resource"], "attr": {"T": {"type": "DT_FLOAT"}}}, {"name": "AttentionNet_1/mobilenetv2_1.00_224_1/block_5_expand_BN_1/Cast/ReadVariableOp", "op": "Identity", "input": ["AttentionNet_1/mobilenetv2_1.00_224_1/block_5_expand_BN_1/Cast/ReadVariableOp/resource"], "attr": {"T": {"type": "DT_FLOAT"}}}, {"name": "AttentionNet_1/mobilenetv2_1.00_224_1/block_5_expand_BN_1/batchnorm/mul_2", "op": "Mul", "input": ["AttentionNet_1/mobilenetv2_1.00_224_1/block_5_expand_BN_1/Cast/ReadVariableOp", "AttentionNet_1/mobilenetv2_1.00_224_1/block_5_expand_BN_1/batchnorm/mul"], "attr": {"T": {"type": "DT_FLOAT"}}}, {"name": "AttentionNet_1/mobilenetv2_1.00_224_1/block_5_expand_BN_1/batchnorm/sub", "op": "Sub", "input": ["AttentionNet_1/mobilenetv2_1.00_224_1/block_5_expand_BN_1/Cast_3/ReadVariableOp", "AttentionNet_1/mobilenetv2_1.00_224_1/block_5_expand_BN_1/batchnorm/mul_2"], "attr": {"T": {"type": "DT_FLOAT"}}}, {"name": "AttentionNet_1/mobilenetv2_1.00_224_1/block_5_expand_BN_1/batchnorm/add_1", "op": "AddV2", "input": ["AttentionNet_1/mobilenetv2_1.00_224_1/block_5_expand_BN_1/batchnorm/mul_1", "AttentionNet_1/mobilenetv2_1.00_224_1/block_5_expand_BN_1/batchnorm/sub"], "attr": {"T": {"type": "DT_FLOAT"}}}, {"name": "AttentionNet_1/mobilenetv2_1.00_224_1/block_5_expand_relu_1/Relu6", "op": "Relu6", "input": ["AttentionNet_1/mobilenetv2_1.00_224_1/block_5_expand_BN_1/batchnorm/add_1"], "attr": {"T": {"type": "DT_FLOAT"}}}, {"name": "AttentionNet_1/mobilenetv2_1.00_224_1/block_5_depthwise_1/depthwise/ReadVariableOp", "op": "Identity", "input": ["AttentionNet_1/mobilenetv2_1.00_224_1/block_5_depthwise_1/depthwise/ReadVariableOp/resource"], "attr": {"T": {"type": "DT_FLOAT"}}}, {"name": "AttentionNet_1/mobilenetv2_1.00_224_1/block_5_depthwise_1/depthwise", "op": "DepthwiseConv2dNative", "input": ["AttentionNet_1/mobilenetv2_1.00_224_1/block_5_expand_relu_1/Relu6", "AttentionNet_1/mobilenetv2_1.00_224_1/block_5_depthwise_1/depthwise/ReadVariableOp"], "attr": {"T": {"type": "DT_FLOAT"}, "padding": {"s": "SAME"}, "dilations": {"list": {"i": ["1", "1", "1", "1"]}}, "data_format": {"s": "NHWC"}, "strides": {"list": {"i": ["1", "1", "1", "1"]}}}}, {"name": "AttentionNet_1/mobilenetv2_1.00_224_1/block_5_depthwise_BN_1/Cast_1/ReadVariableOp", "op": "Identity", "input": ["AttentionNet_1/mobilenetv2_1.00_224_1/block_5_depthwise_BN_1/Cast_1/ReadVariableOp/resource"], "attr": {"T": {"type": "DT_FLOAT"}}}, {"name": "AttentionNet_1/mobilenetv2_1.00_224_1/block_5_depthwise_BN_1/batchnorm/add", "op": "AddV2", "input": ["AttentionNet_1/mobilenetv2_1.00_224_1/block_5_depthwise_BN_1/Cast_1/ReadVariableOp", "AttentionNet_1/mobilenetv2_1.00_224_1/block_5_depthwise_BN_1/batchnorm/add/y"], "attr": {"T": {"type": "DT_FLOAT"}}}, {"name": "AttentionNet_1/mobilenetv2_1.00_224_1/block_5_depthwise_BN_1/batchnorm/Rsqrt", "op": "Rsqrt", "input": ["AttentionNet_1/mobilenetv2_1.00_224_1/block_5_depthwise_BN_1/batchnorm/add"], "attr": {"T": {"type": "DT_FLOAT"}}}, {"name": "AttentionNet_1/mobilenetv2_1.00_224_1/block_5_depthwise_BN_1/Cast_2/ReadVariableOp", "op": "Identity", "input": ["AttentionNet_1/mobilenetv2_1.00_224_1/block_5_depthwise_BN_1/Cast_2/ReadVariableOp/resource"], "attr": {"T": {"type": "DT_FLOAT"}}}, {"name": "AttentionNet_1/mobilenetv2_1.00_224_1/block_5_depthwise_BN_1/batchnorm/mul", "op": "Mul", "input": ["AttentionNet_1/mobilenetv2_1.00_224_1/block_5_depthwise_BN_1/batchnorm/Rsqrt", "AttentionNet_1/mobilenetv2_1.00_224_1/block_5_depthwise_BN_1/Cast_2/ReadVariableOp"], "attr": {"T": {"type": "DT_FLOAT"}}}, {"name": "AttentionNet_1/mobilenetv2_1.00_224_1/block_5_depthwise_BN_1/batchnorm/mul_1", "op": "Mul", "input": ["AttentionNet_1/mobilenetv2_1.00_224_1/block_5_depthwise_1/depthwise", "AttentionNet_1/mobilenetv2_1.00_224_1/block_5_depthwise_BN_1/batchnorm/mul"], "attr": {"T": {"type": "DT_FLOAT"}}}, {"name": "AttentionNet_1/mobilenetv2_1.00_224_1/block_5_depthwise_BN_1/Cast_3/ReadVariableOp", "op": "Identity", "input": ["AttentionNet_1/mobilenetv2_1.00_224_1/block_5_depthwise_BN_1/Cast_3/ReadVariableOp/resource"], "attr": {"T": {"type": "DT_FLOAT"}}}, {"name": "AttentionNet_1/mobilenetv2_1.00_224_1/block_5_depthwise_BN_1/Cast/ReadVariableOp", "op": "Identity", "input": ["AttentionNet_1/mobilenetv2_1.00_224_1/block_5_depthwise_BN_1/Cast/ReadVariableOp/resource"], "attr": {"T": {"type": "DT_FLOAT"}}}, {"name": "AttentionNet_1/mobilenetv2_1.00_224_1/block_5_depthwise_BN_1/batchnorm/mul_2", "op": "Mul", "input": ["AttentionNet_1/mobilenetv2_1.00_224_1/block_5_depthwise_BN_1/Cast/ReadVariableOp", "AttentionNet_1/mobilenetv2_1.00_224_1/block_5_depthwise_BN_1/batchnorm/mul"], "attr": {"T": {"type": "DT_FLOAT"}}}, {"name": "AttentionNet_1/mobilenetv2_1.00_224_1/block_5_depthwise_BN_1/batchnorm/sub", "op": "Sub", "input": ["AttentionNet_1/mobilenetv2_1.00_224_1/block_5_depthwise_BN_1/Cast_3/ReadVariableOp", "AttentionNet_1/mobilenetv2_1.00_224_1/block_5_depthwise_BN_1/batchnorm/mul_2"], "attr": {"T": {"type": "DT_FLOAT"}}}, {"name": "AttentionNet_1/mobilenetv2_1.00_224_1/block_5_depthwise_BN_1/batchnorm/add_1", "op": "AddV2", "input": ["AttentionNet_1/mobilenetv2_1.00_224_1/block_5_depthwise_BN_1/batchnorm/mul_1", "AttentionNet_1/mobilenetv2_1.00_224_1/block_5_depthwise_BN_1/batchnorm/sub"], "attr": {"T": {"type": "DT_FLOAT"}}}, {"name": "AttentionNet_1/mobilenetv2_1.00_224_1/block_5_depthwise_relu_1/Relu6", "op": "Relu6", "input": ["AttentionNet_1/mobilenetv2_1.00_224_1/block_5_depthwise_BN_1/batchnorm/add_1"], "attr": {"T": {"type": "DT_FLOAT"}}}, {"name": "AttentionNet_1/mobilenetv2_1.00_224_1/block_5_project_1/convolution/ReadVariableOp", "op": "Identity", "input": ["AttentionNet_1/mobilenetv2_1.00_224_1/block_5_project_1/convolution/ReadVariableOp/resource"], "attr": {"T": {"type": "DT_FLOAT"}}}, {"name": "AttentionNet_1/mobilenetv2_1.00_224_1/block_5_project_1/convolution", "op": "Conv2D", "input": ["AttentionNet_1/mobilenetv2_1.00_224_1/block_5_depthwise_relu_1/Relu6", "AttentionNet_1/mobilenetv2_1.00_224_1/block_5_project_1/convolution/ReadVariableOp"], "attr": {"data_format": {"s": "NHWC"}, "padding": {"s": "SAME"}, "T": {"type": "DT_FLOAT"}, "dilations": {"list": {"i": ["1", "1", "1", "1"]}}, "strides": {"list": {"i": ["1", "1", "1", "1"]}}}}, {"name": "AttentionNet_1/mobilenetv2_1.00_224_1/block_5_project_BN_1/Cast_1/ReadVariableOp", "op": "Identity", "input": ["AttentionNet_1/mobilenetv2_1.00_224_1/block_5_project_BN_1/Cast_1/ReadVariableOp/resource"], "attr": {"T": {"type": "DT_FLOAT"}}}, {"name": "AttentionNet_1/mobilenetv2_1.00_224_1/block_5_project_BN_1/batchnorm/add", "op": "AddV2", "input": ["AttentionNet_1/mobilenetv2_1.00_224_1/block_5_project_BN_1/Cast_1/ReadVariableOp", "AttentionNet_1/mobilenetv2_1.00_224_1/block_5_project_BN_1/batchnorm/add/y"], "attr": {"T": {"type": "DT_FLOAT"}}}, {"name": "AttentionNet_1/mobilenetv2_1.00_224_1/block_5_project_BN_1/batchnorm/Rsqrt", "op": "Rsqrt", "input": ["AttentionNet_1/mobilenetv2_1.00_224_1/block_5_project_BN_1/batchnorm/add"], "attr": {"T": {"type": "DT_FLOAT"}}}, {"name": "AttentionNet_1/mobilenetv2_1.00_224_1/block_5_project_BN_1/Cast_2/ReadVariableOp", "op": "Identity", "input": ["AttentionNet_1/mobilenetv2_1.00_224_1/block_5_project_BN_1/Cast_2/ReadVariableOp/resource"], "attr": {"T": {"type": "DT_FLOAT"}}}, {"name": "AttentionNet_1/mobilenetv2_1.00_224_1/block_5_project_BN_1/batchnorm/mul", "op": "Mul", "input": ["AttentionNet_1/mobilenetv2_1.00_224_1/block_5_project_BN_1/batchnorm/Rsqrt", "AttentionNet_1/mobilenetv2_1.00_224_1/block_5_project_BN_1/Cast_2/ReadVariableOp"], "attr": {"T": {"type": "DT_FLOAT"}}}, {"name": "AttentionNet_1/mobilenetv2_1.00_224_1/block_5_project_BN_1/batchnorm/mul_1", "op": "Mul", "input": ["AttentionNet_1/mobilenetv2_1.00_224_1/block_5_project_1/convolution", "AttentionNet_1/mobilenetv2_1.00_224_1/block_5_project_BN_1/batchnorm/mul"], "attr": {"T": {"type": "DT_FLOAT"}}}, {"name": "AttentionNet_1/mobilenetv2_1.00_224_1/block_5_project_BN_1/Cast_3/ReadVariableOp", "op": "Identity", "input": ["AttentionNet_1/mobilenetv2_1.00_224_1/block_5_project_BN_1/Cast_3/ReadVariableOp/resource"], "attr": {"T": {"type": "DT_FLOAT"}}}, {"name": "AttentionNet_1/mobilenetv2_1.00_224_1/block_5_project_BN_1/Cast/ReadVariableOp", "op": "Identity", "input": ["AttentionNet_1/mobilenetv2_1.00_224_1/block_5_project_BN_1/Cast/ReadVariableOp/resource"], "attr": {"T": {"type": "DT_FLOAT"}}}, {"name": "AttentionNet_1/mobilenetv2_1.00_224_1/block_5_project_BN_1/batchnorm/mul_2", "op": "Mul", "input": ["AttentionNet_1/mobilenetv2_1.00_224_1/block_5_project_BN_1/Cast/ReadVariableOp", "AttentionNet_1/mobilenetv2_1.00_224_1/block_5_project_BN_1/batchnorm/mul"], "attr": {"T": {"type": "DT_FLOAT"}}}, {"name": "AttentionNet_1/mobilenetv2_1.00_224_1/block_5_project_BN_1/batchnorm/sub", "op": "Sub", "input": ["AttentionNet_1/mobilenetv2_1.00_224_1/block_5_project_BN_1/Cast_3/ReadVariableOp", "AttentionNet_1/mobilenetv2_1.00_224_1/block_5_project_BN_1/batchnorm/mul_2"], "attr": {"T": {"type": "DT_FLOAT"}}}, {"name": "AttentionNet_1/mobilenetv2_1.00_224_1/block_5_project_BN_1/batchnorm/add_1", "op": "AddV2", "input": ["AttentionNet_1/mobilenetv2_1.00_224_1/block_5_project_BN_1/batchnorm/mul_1", "AttentionNet_1/mobilenetv2_1.00_224_1/block_5_project_BN_1/batchnorm/sub"], "attr": {"T": {"type": "DT_FLOAT"}}}, {"name": "AttentionNet_1/mobilenetv2_1.00_224_1/block_5_add_1/Add", "op": "AddV2", "input": ["AttentionNet_1/mobilenetv2_1.00_224_1/block_4_add_1/Add", "AttentionNet_1/mobilenetv2_1.00_224_1/block_5_project_BN_1/batchnorm/add_1"], "attr": {"T": {"type": "DT_FLOAT"}}}, {"name": "AttentionNet_1/mobilenetv2_1.00_224_1/block_6_expand_1/convolution/ReadVariableOp", "op": "Identity", "input": ["AttentionNet_1/mobilenetv2_1.00_224_1/block_6_expand_1/convolution/ReadVariableOp/resource"], "attr": {"T": {"type": "DT_FLOAT"}}}, {"name": "AttentionNet_1/mobilenetv2_1.00_224_1/block_6_expand_1/convolution", "op": "Conv2D", "input": ["AttentionNet_1/mobilenetv2_1.00_224_1/block_5_add_1/Add", "AttentionNet_1/mobilenetv2_1.00_224_1/block_6_expand_1/convolution/ReadVariableOp"], "attr": {"dilations": {"list": {"i": ["1", "1", "1", "1"]}}, "padding": {"s": "SAME"}, "T": {"type": "DT_FLOAT"}, "data_format": {"s": "NHWC"}, "strides": {"list": {"i": ["1", "1", "1", "1"]}}}}, {"name": "AttentionNet_1/mobilenetv2_1.00_224_1/block_6_expand_BN_1/Cast_1/ReadVariableOp", "op": "Identity", "input": ["AttentionNet_1/mobilenetv2_1.00_224_1/block_6_expand_BN_1/Cast_1/ReadVariableOp/resource"], "attr": {"T": {"type": "DT_FLOAT"}}}, {"name": "AttentionNet_1/mobilenetv2_1.00_224_1/block_6_expand_BN_1/batchnorm/add", "op": "AddV2", "input": ["AttentionNet_1/mobilenetv2_1.00_224_1/block_6_expand_BN_1/Cast_1/ReadVariableOp", "AttentionNet_1/mobilenetv2_1.00_224_1/block_6_expand_BN_1/batchnorm/add/y"], "attr": {"T": {"type": "DT_FLOAT"}}}, {"name": "AttentionNet_1/mobilenetv2_1.00_224_1/block_6_expand_BN_1/batchnorm/Rsqrt", "op": "Rsqrt", "input": ["AttentionNet_1/mobilenetv2_1.00_224_1/block_6_expand_BN_1/batchnorm/add"], "attr": {"T": {"type": "DT_FLOAT"}}}, {"name": "AttentionNet_1/mobilenetv2_1.00_224_1/block_6_expand_BN_1/Cast_2/ReadVariableOp", "op": "Identity", "input": ["AttentionNet_1/mobilenetv2_1.00_224_1/block_6_expand_BN_1/Cast_2/ReadVariableOp/resource"], "attr": {"T": {"type": "DT_FLOAT"}}}, {"name": "AttentionNet_1/mobilenetv2_1.00_224_1/block_6_expand_BN_1/batchnorm/mul", "op": "Mul", "input": ["AttentionNet_1/mobilenetv2_1.00_224_1/block_6_expand_BN_1/batchnorm/Rsqrt", "AttentionNet_1/mobilenetv2_1.00_224_1/block_6_expand_BN_1/Cast_2/ReadVariableOp"], "attr": {"T": {"type": "DT_FLOAT"}}}, {"name": "AttentionNet_1/mobilenetv2_1.00_224_1/block_6_expand_BN_1/batchnorm/mul_1", "op": "Mul", "input": ["AttentionNet_1/mobilenetv2_1.00_224_1/block_6_expand_1/convolution", "AttentionNet_1/mobilenetv2_1.00_224_1/block_6_expand_BN_1/batchnorm/mul"], "attr": {"T": {"type": "DT_FLOAT"}}}, {"name": "AttentionNet_1/mobilenetv2_1.00_224_1/block_6_expand_BN_1/Cast_3/ReadVariableOp", "op": "Identity", "input": ["AttentionNet_1/mobilenetv2_1.00_224_1/block_6_expand_BN_1/Cast_3/ReadVariableOp/resource"], "attr": {"T": {"type": "DT_FLOAT"}}}, {"name": "AttentionNet_1/mobilenetv2_1.00_224_1/block_6_expand_BN_1/Cast/ReadVariableOp", "op": "Identity", "input": ["AttentionNet_1/mobilenetv2_1.00_224_1/block_6_expand_BN_1/Cast/ReadVariableOp/resource"], "attr": {"T": {"type": "DT_FLOAT"}}}, {"name": "AttentionNet_1/mobilenetv2_1.00_224_1/block_6_expand_BN_1/batchnorm/mul_2", "op": "Mul", "input": ["AttentionNet_1/mobilenetv2_1.00_224_1/block_6_expand_BN_1/Cast/ReadVariableOp", "AttentionNet_1/mobilenetv2_1.00_224_1/block_6_expand_BN_1/batchnorm/mul"], "attr": {"T": {"type": "DT_FLOAT"}}}, {"name": "AttentionNet_1/mobilenetv2_1.00_224_1/block_6_expand_BN_1/batchnorm/sub", "op": "Sub", "input": ["AttentionNet_1/mobilenetv2_1.00_224_1/block_6_expand_BN_1/Cast_3/ReadVariableOp", "AttentionNet_1/mobilenetv2_1.00_224_1/block_6_expand_BN_1/batchnorm/mul_2"], "attr": {"T": {"type": "DT_FLOAT"}}}, {"name": "AttentionNet_1/mobilenetv2_1.00_224_1/block_6_expand_BN_1/batchnorm/add_1", "op": "AddV2", "input": ["AttentionNet_1/mobilenetv2_1.00_224_1/block_6_expand_BN_1/batchnorm/mul_1", "AttentionNet_1/mobilenetv2_1.00_224_1/block_6_expand_BN_1/batchnorm/sub"], "attr": {"T": {"type": "DT_FLOAT"}}}, {"name": "AttentionNet_1/mobilenetv2_1.00_224_1/block_6_expand_relu_1/Relu6", "op": "Relu6", "input": ["AttentionNet_1/mobilenetv2_1.00_224_1/block_6_expand_BN_1/batchnorm/add_1"], "attr": {"T": {"type": "DT_FLOAT"}}}, {"name": "AttentionNet_1/mobilenetv2_1.00_224_1/block_6_pad_1/Pad", "op": "Pad", "input": ["AttentionNet_1/mobilenetv2_1.00_224_1/block_6_expand_relu_1/Relu6", "AttentionNet_1/mobilenetv2_1.00_224_1/block_6_pad_1/Const"], "attr": {"T": {"type": "DT_FLOAT"}}}, {"name": "AttentionNet_1/mobilenetv2_1.00_224_1/block_6_depthwise_1/depthwise/ReadVariableOp", "op": "Identity", "input": ["AttentionNet_1/mobilenetv2_1.00_224_1/block_6_depthwise_1/depthwise/ReadVariableOp/resource"], "attr": {"T": {"type": "DT_FLOAT"}}}, {"name": "AttentionNet_1/mobilenetv2_1.00_224_1/block_6_depthwise_1/depthwise", "op": "DepthwiseConv2dNative", "input": ["AttentionNet_1/mobilenetv2_1.00_224_1/block_6_pad_1/Pad", "AttentionNet_1/mobilenetv2_1.00_224_1/block_6_depthwise_1/depthwise/ReadVariableOp"], "attr": {"data_format": {"s": "NHWC"}, "padding": {"s": "VALID"}, "T": {"type": "DT_FLOAT"}, "dilations": {"list": {"i": ["1", "1", "1", "1"]}}, "strides": {"list": {"i": ["1", "2", "2", "1"]}}}}, {"name": "AttentionNet_1/mobilenetv2_1.00_224_1/block_6_depthwise_BN_1/Cast_1/ReadVariableOp", "op": "Identity", "input": ["AttentionNet_1/mobilenetv2_1.00_224_1/block_6_depthwise_BN_1/Cast_1/ReadVariableOp/resource"], "attr": {"T": {"type": "DT_FLOAT"}}}, {"name": "AttentionNet_1/mobilenetv2_1.00_224_1/block_6_depthwise_BN_1/batchnorm/add", "op": "AddV2", "input": ["AttentionNet_1/mobilenetv2_1.00_224_1/block_6_depthwise_BN_1/Cast_1/ReadVariableOp", "AttentionNet_1/mobilenetv2_1.00_224_1/block_6_depthwise_BN_1/batchnorm/add/y"], "attr": {"T": {"type": "DT_FLOAT"}}}, {"name": "AttentionNet_1/mobilenetv2_1.00_224_1/block_6_depthwise_BN_1/batchnorm/Rsqrt", "op": "Rsqrt", "input": ["AttentionNet_1/mobilenetv2_1.00_224_1/block_6_depthwise_BN_1/batchnorm/add"], "attr": {"T": {"type": "DT_FLOAT"}}}, {"name": "AttentionNet_1/mobilenetv2_1.00_224_1/block_6_depthwise_BN_1/Cast_2/ReadVariableOp", "op": "Identity", "input": ["AttentionNet_1/mobilenetv2_1.00_224_1/block_6_depthwise_BN_1/Cast_2/ReadVariableOp/resource"], "attr": {"T": {"type": "DT_FLOAT"}}}, {"name": "AttentionNet_1/mobilenetv2_1.00_224_1/block_6_depthwise_BN_1/batchnorm/mul", "op": "Mul", "input": ["AttentionNet_1/mobilenetv2_1.00_224_1/block_6_depthwise_BN_1/batchnorm/Rsqrt", "AttentionNet_1/mobilenetv2_1.00_224_1/block_6_depthwise_BN_1/Cast_2/ReadVariableOp"], "attr": {"T": {"type": "DT_FLOAT"}}}, {"name": "AttentionNet_1/mobilenetv2_1.00_224_1/block_6_depthwise_BN_1/batchnorm/mul_1", "op": "Mul", "input": ["AttentionNet_1/mobilenetv2_1.00_224_1/block_6_depthwise_1/depthwise", "AttentionNet_1/mobilenetv2_1.00_224_1/block_6_depthwise_BN_1/batchnorm/mul"], "attr": {"T": {"type": "DT_FLOAT"}}}, {"name": "AttentionNet_1/mobilenetv2_1.00_224_1/block_6_depthwise_BN_1/Cast_3/ReadVariableOp", "op": "Identity", "input": ["AttentionNet_1/mobilenetv2_1.00_224_1/block_6_depthwise_BN_1/Cast_3/ReadVariableOp/resource"], "attr": {"T": {"type": "DT_FLOAT"}}}, {"name": "AttentionNet_1/mobilenetv2_1.00_224_1/block_6_depthwise_BN_1/Cast/ReadVariableOp", "op": "Identity", "input": ["AttentionNet_1/mobilenetv2_1.00_224_1/block_6_depthwise_BN_1/Cast/ReadVariableOp/resource"], "attr": {"T": {"type": "DT_FLOAT"}}}, {"name": "AttentionNet_1/mobilenetv2_1.00_224_1/block_6_depthwise_BN_1/batchnorm/mul_2", "op": "Mul", "input": ["AttentionNet_1/mobilenetv2_1.00_224_1/block_6_depthwise_BN_1/Cast/ReadVariableOp", "AttentionNet_1/mobilenetv2_1.00_224_1/block_6_depthwise_BN_1/batchnorm/mul"], "attr": {"T": {"type": "DT_FLOAT"}}}, {"name": "AttentionNet_1/mobilenetv2_1.00_224_1/block_6_depthwise_BN_1/batchnorm/sub", "op": "Sub", "input": ["AttentionNet_1/mobilenetv2_1.00_224_1/block_6_depthwise_BN_1/Cast_3/ReadVariableOp", "AttentionNet_1/mobilenetv2_1.00_224_1/block_6_depthwise_BN_1/batchnorm/mul_2"], "attr": {"T": {"type": "DT_FLOAT"}}}, {"name": "AttentionNet_1/mobilenetv2_1.00_224_1/block_6_depthwise_BN_1/batchnorm/add_1", "op": "AddV2", "input": ["AttentionNet_1/mobilenetv2_1.00_224_1/block_6_depthwise_BN_1/batchnorm/mul_1", "AttentionNet_1/mobilenetv2_1.00_224_1/block_6_depthwise_BN_1/batchnorm/sub"], "attr": {"T": {"type": "DT_FLOAT"}}}, {"name": "AttentionNet_1/mobilenetv2_1.00_224_1/block_6_depthwise_relu_1/Relu6", "op": "Relu6", "input": ["AttentionNet_1/mobilenetv2_1.00_224_1/block_6_depthwise_BN_1/batchnorm/add_1"], "attr": {"T": {"type": "DT_FLOAT"}}}, {"name": "AttentionNet_1/mobilenetv2_1.00_224_1/block_6_project_1/convolution/ReadVariableOp", "op": "Identity", "input": ["AttentionNet_1/mobilenetv2_1.00_224_1/block_6_project_1/convolution/ReadVariableOp/resource"], "attr": {"T": {"type": "DT_FLOAT"}}}, {"name": "AttentionNet_1/mobilenetv2_1.00_224_1/block_6_project_1/convolution", "op": "Conv2D", "input": ["AttentionNet_1/mobilenetv2_1.00_224_1/block_6_depthwise_relu_1/Relu6", "AttentionNet_1/mobilenetv2_1.00_224_1/block_6_project_1/convolution/ReadVariableOp"], "attr": {"data_format": {"s": "NHWC"}, "padding": {"s": "SAME"}, "dilations": {"list": {"i": ["1", "1", "1", "1"]}}, "T": {"type": "DT_FLOAT"}, "strides": {"list": {"i": ["1", "1", "1", "1"]}}}}, {"name": "AttentionNet_1/mobilenetv2_1.00_224_1/block_6_project_BN_1/Cast_1/ReadVariableOp", "op": "Identity", "input": ["AttentionNet_1/mobilenetv2_1.00_224_1/block_6_project_BN_1/Cast_1/ReadVariableOp/resource"], "attr": {"T": {"type": "DT_FLOAT"}}}, {"name": "AttentionNet_1/mobilenetv2_1.00_224_1/block_6_project_BN_1/batchnorm/add", "op": "AddV2", "input": ["AttentionNet_1/mobilenetv2_1.00_224_1/block_6_project_BN_1/Cast_1/ReadVariableOp", "AttentionNet_1/mobilenetv2_1.00_224_1/block_6_project_BN_1/batchnorm/add/y"], "attr": {"T": {"type": "DT_FLOAT"}}}, {"name": "AttentionNet_1/mobilenetv2_1.00_224_1/block_6_project_BN_1/batchnorm/Rsqrt", "op": "Rsqrt", "input": ["AttentionNet_1/mobilenetv2_1.00_224_1/block_6_project_BN_1/batchnorm/add"], "attr": {"T": {"type": "DT_FLOAT"}}}, {"name": "AttentionNet_1/mobilenetv2_1.00_224_1/block_6_project_BN_1/Cast_2/ReadVariableOp", "op": "Identity", "input": ["AttentionNet_1/mobilenetv2_1.00_224_1/block_6_project_BN_1/Cast_2/ReadVariableOp/resource"], "attr": {"T": {"type": "DT_FLOAT"}}}, {"name": "AttentionNet_1/mobilenetv2_1.00_224_1/block_6_project_BN_1/batchnorm/mul", "op": "Mul", "input": ["AttentionNet_1/mobilenetv2_1.00_224_1/block_6_project_BN_1/batchnorm/Rsqrt", "AttentionNet_1/mobilenetv2_1.00_224_1/block_6_project_BN_1/Cast_2/ReadVariableOp"], "attr": {"T": {"type": "DT_FLOAT"}}}, {"name": "AttentionNet_1/mobilenetv2_1.00_224_1/block_6_project_BN_1/batchnorm/mul_1", "op": "Mul", "input": ["AttentionNet_1/mobilenetv2_1.00_224_1/block_6_project_1/convolution", "AttentionNet_1/mobilenetv2_1.00_224_1/block_6_project_BN_1/batchnorm/mul"], "attr": {"T": {"type": "DT_FLOAT"}}}, {"name": "AttentionNet_1/mobilenetv2_1.00_224_1/block_6_project_BN_1/Cast_3/ReadVariableOp", "op": "Identity", "input": ["AttentionNet_1/mobilenetv2_1.00_224_1/block_6_project_BN_1/Cast_3/ReadVariableOp/resource"], "attr": {"T": {"type": "DT_FLOAT"}}}, {"name": "AttentionNet_1/mobilenetv2_1.00_224_1/block_6_project_BN_1/Cast/ReadVariableOp", "op": "Identity", "input": ["AttentionNet_1/mobilenetv2_1.00_224_1/block_6_project_BN_1/Cast/ReadVariableOp/resource"], "attr": {"T": {"type": "DT_FLOAT"}}}, {"name": "AttentionNet_1/mobilenetv2_1.00_224_1/block_6_project_BN_1/batchnorm/mul_2", "op": "Mul", "input": ["AttentionNet_1/mobilenetv2_1.00_224_1/block_6_project_BN_1/Cast/ReadVariableOp", "AttentionNet_1/mobilenetv2_1.00_224_1/block_6_project_BN_1/batchnorm/mul"], "attr": {"T": {"type": "DT_FLOAT"}}}, {"name": "AttentionNet_1/mobilenetv2_1.00_224_1/block_6_project_BN_1/batchnorm/sub", "op": "Sub", "input": ["AttentionNet_1/mobilenetv2_1.00_224_1/block_6_project_BN_1/Cast_3/ReadVariableOp", "AttentionNet_1/mobilenetv2_1.00_224_1/block_6_project_BN_1/batchnorm/mul_2"], "attr": {"T": {"type": "DT_FLOAT"}}}, {"name": "AttentionNet_1/mobilenetv2_1.00_224_1/block_6_project_BN_1/batchnorm/add_1", "op": "AddV2", "input": ["AttentionNet_1/mobilenetv2_1.00_224_1/block_6_project_BN_1/batchnorm/mul_1", "AttentionNet_1/mobilenetv2_1.00_224_1/block_6_project_BN_1/batchnorm/sub"], "attr": {"T": {"type": "DT_FLOAT"}}}, {"name": "AttentionNet_1/mobilenetv2_1.00_224_1/block_7_expand_1/convolution/ReadVariableOp", "op": "Identity", "input": ["AttentionNet_1/mobilenetv2_1.00_224_1/block_7_expand_1/convolution/ReadVariableOp/resource"], "attr": {"T": {"type": "DT_FLOAT"}}}, {"name": "AttentionNet_1/mobilenetv2_1.00_224_1/block_7_expand_1/convolution", "op": "Conv2D", "input": ["AttentionNet_1/mobilenetv2_1.00_224_1/block_6_project_BN_1/batchnorm/add_1", "AttentionNet_1/mobilenetv2_1.00_224_1/block_7_expand_1/convolution/ReadVariableOp"], "attr": {"dilations": {"list": {"i": ["1", "1", "1", "1"]}}, "padding": {"s": "SAME"}, "data_format": {"s": "NHWC"}, "T": {"type": "DT_FLOAT"}, "strides": {"list": {"i": ["1", "1", "1", "1"]}}}}, {"name": "AttentionNet_1/mobilenetv2_1.00_224_1/block_7_expand_BN_1/Cast_1/ReadVariableOp", "op": "Identity", "input": ["AttentionNet_1/mobilenetv2_1.00_224_1/block_7_expand_BN_1/Cast_1/ReadVariableOp/resource"], "attr": {"T": {"type": "DT_FLOAT"}}}, {"name": "AttentionNet_1/mobilenetv2_1.00_224_1/block_7_expand_BN_1/batchnorm/add", "op": "AddV2", "input": ["AttentionNet_1/mobilenetv2_1.00_224_1/block_7_expand_BN_1/Cast_1/ReadVariableOp", "AttentionNet_1/mobilenetv2_1.00_224_1/block_7_expand_BN_1/batchnorm/add/y"], "attr": {"T": {"type": "DT_FLOAT"}}}, {"name": "AttentionNet_1/mobilenetv2_1.00_224_1/block_7_expand_BN_1/batchnorm/Rsqrt", "op": "Rsqrt", "input": ["AttentionNet_1/mobilenetv2_1.00_224_1/block_7_expand_BN_1/batchnorm/add"], "attr": {"T": {"type": "DT_FLOAT"}}}, {"name": "AttentionNet_1/mobilenetv2_1.00_224_1/block_7_expand_BN_1/Cast_2/ReadVariableOp", "op": "Identity", "input": ["AttentionNet_1/mobilenetv2_1.00_224_1/block_7_expand_BN_1/Cast_2/ReadVariableOp/resource"], "attr": {"T": {"type": "DT_FLOAT"}}}, {"name": "AttentionNet_1/mobilenetv2_1.00_224_1/block_7_expand_BN_1/batchnorm/mul", "op": "Mul", "input": ["AttentionNet_1/mobilenetv2_1.00_224_1/block_7_expand_BN_1/batchnorm/Rsqrt", "AttentionNet_1/mobilenetv2_1.00_224_1/block_7_expand_BN_1/Cast_2/ReadVariableOp"], "attr": {"T": {"type": "DT_FLOAT"}}}, {"name": "AttentionNet_1/mobilenetv2_1.00_224_1/block_7_expand_BN_1/batchnorm/mul_1", "op": "Mul", "input": ["AttentionNet_1/mobilenetv2_1.00_224_1/block_7_expand_1/convolution", "AttentionNet_1/mobilenetv2_1.00_224_1/block_7_expand_BN_1/batchnorm/mul"], "attr": {"T": {"type": "DT_FLOAT"}}}, {"name": "AttentionNet_1/mobilenetv2_1.00_224_1/block_7_expand_BN_1/Cast_3/ReadVariableOp", "op": "Identity", "input": ["AttentionNet_1/mobilenetv2_1.00_224_1/block_7_expand_BN_1/Cast_3/ReadVariableOp/resource"], "attr": {"T": {"type": "DT_FLOAT"}}}, {"name": "AttentionNet_1/mobilenetv2_1.00_224_1/block_7_expand_BN_1/Cast/ReadVariableOp", "op": "Identity", "input": ["AttentionNet_1/mobilenetv2_1.00_224_1/block_7_expand_BN_1/Cast/ReadVariableOp/resource"], "attr": {"T": {"type": "DT_FLOAT"}}}, {"name": "AttentionNet_1/mobilenetv2_1.00_224_1/block_7_expand_BN_1/batchnorm/mul_2", "op": "Mul", "input": ["AttentionNet_1/mobilenetv2_1.00_224_1/block_7_expand_BN_1/Cast/ReadVariableOp", "AttentionNet_1/mobilenetv2_1.00_224_1/block_7_expand_BN_1/batchnorm/mul"], "attr": {"T": {"type": "DT_FLOAT"}}}, {"name": "AttentionNet_1/mobilenetv2_1.00_224_1/block_7_expand_BN_1/batchnorm/sub", "op": "Sub", "input": ["AttentionNet_1/mobilenetv2_1.00_224_1/block_7_expand_BN_1/Cast_3/ReadVariableOp", "AttentionNet_1/mobilenetv2_1.00_224_1/block_7_expand_BN_1/batchnorm/mul_2"], "attr": {"T": {"type": "DT_FLOAT"}}}, {"name": "AttentionNet_1/mobilenetv2_1.00_224_1/block_7_expand_BN_1/batchnorm/add_1", "op": "AddV2", "input": ["AttentionNet_1/mobilenetv2_1.00_224_1/block_7_expand_BN_1/batchnorm/mul_1", "AttentionNet_1/mobilenetv2_1.00_224_1/block_7_expand_BN_1/batchnorm/sub"], "attr": {"T": {"type": "DT_FLOAT"}}}, {"name": "AttentionNet_1/mobilenetv2_1.00_224_1/block_7_expand_relu_1/Relu6", "op": "Relu6", "input": ["AttentionNet_1/mobilenetv2_1.00_224_1/block_7_expand_BN_1/batchnorm/add_1"], "attr": {"T": {"type": "DT_FLOAT"}}}, {"name": "AttentionNet_1/mobilenetv2_1.00_224_1/block_7_depthwise_1/depthwise/ReadVariableOp", "op": "Identity", "input": ["AttentionNet_1/mobilenetv2_1.00_224_1/block_7_depthwise_1/depthwise/ReadVariableOp/resource"], "attr": {"T": {"type": "DT_FLOAT"}}}, {"name": "AttentionNet_1/mobilenetv2_1.00_224_1/block_7_depthwise_1/depthwise", "op": "DepthwiseConv2dNative", "input": ["AttentionNet_1/mobilenetv2_1.00_224_1/block_7_expand_relu_1/Relu6", "AttentionNet_1/mobilenetv2_1.00_224_1/block_7_depthwise_1/depthwise/ReadVariableOp"], "attr": {"data_format": {"s": "NHWC"}, "padding": {"s": "SAME"}, "dilations": {"list": {"i": ["1", "1", "1", "1"]}}, "T": {"type": "DT_FLOAT"}, "strides": {"list": {"i": ["1", "1", "1", "1"]}}}}, {"name": "AttentionNet_1/mobilenetv2_1.00_224_1/block_7_depthwise_BN_1/Cast_1/ReadVariableOp", "op": "Identity", "input": ["AttentionNet_1/mobilenetv2_1.00_224_1/block_7_depthwise_BN_1/Cast_1/ReadVariableOp/resource"], "attr": {"T": {"type": "DT_FLOAT"}}}, {"name": "AttentionNet_1/mobilenetv2_1.00_224_1/block_7_depthwise_BN_1/batchnorm/add", "op": "AddV2", "input": ["AttentionNet_1/mobilenetv2_1.00_224_1/block_7_depthwise_BN_1/Cast_1/ReadVariableOp", "AttentionNet_1/mobilenetv2_1.00_224_1/block_7_depthwise_BN_1/batchnorm/add/y"], "attr": {"T": {"type": "DT_FLOAT"}}}, {"name": "AttentionNet_1/mobilenetv2_1.00_224_1/block_7_depthwise_BN_1/batchnorm/Rsqrt", "op": "Rsqrt", "input": ["AttentionNet_1/mobilenetv2_1.00_224_1/block_7_depthwise_BN_1/batchnorm/add"], "attr": {"T": {"type": "DT_FLOAT"}}}, {"name": "AttentionNet_1/mobilenetv2_1.00_224_1/block_7_depthwise_BN_1/Cast_2/ReadVariableOp", "op": "Identity", "input": ["AttentionNet_1/mobilenetv2_1.00_224_1/block_7_depthwise_BN_1/Cast_2/ReadVariableOp/resource"], "attr": {"T": {"type": "DT_FLOAT"}}}, {"name": "AttentionNet_1/mobilenetv2_1.00_224_1/block_7_depthwise_BN_1/batchnorm/mul", "op": "Mul", "input": ["AttentionNet_1/mobilenetv2_1.00_224_1/block_7_depthwise_BN_1/batchnorm/Rsqrt", "AttentionNet_1/mobilenetv2_1.00_224_1/block_7_depthwise_BN_1/Cast_2/ReadVariableOp"], "attr": {"T": {"type": "DT_FLOAT"}}}, {"name": "AttentionNet_1/mobilenetv2_1.00_224_1/block_7_depthwise_BN_1/batchnorm/mul_1", "op": "Mul", "input": ["AttentionNet_1/mobilenetv2_1.00_224_1/block_7_depthwise_1/depthwise", "AttentionNet_1/mobilenetv2_1.00_224_1/block_7_depthwise_BN_1/batchnorm/mul"], "attr": {"T": {"type": "DT_FLOAT"}}}, {"name": "AttentionNet_1/mobilenetv2_1.00_224_1/block_7_depthwise_BN_1/Cast_3/ReadVariableOp", "op": "Identity", "input": ["AttentionNet_1/mobilenetv2_1.00_224_1/block_7_depthwise_BN_1/Cast_3/ReadVariableOp/resource"], "attr": {"T": {"type": "DT_FLOAT"}}}, {"name": "AttentionNet_1/mobilenetv2_1.00_224_1/block_7_depthwise_BN_1/Cast/ReadVariableOp", "op": "Identity", "input": ["AttentionNet_1/mobilenetv2_1.00_224_1/block_7_depthwise_BN_1/Cast/ReadVariableOp/resource"], "attr": {"T": {"type": "DT_FLOAT"}}}, {"name": "AttentionNet_1/mobilenetv2_1.00_224_1/block_7_depthwise_BN_1/batchnorm/mul_2", "op": "Mul", "input": ["AttentionNet_1/mobilenetv2_1.00_224_1/block_7_depthwise_BN_1/Cast/ReadVariableOp", "AttentionNet_1/mobilenetv2_1.00_224_1/block_7_depthwise_BN_1/batchnorm/mul"], "attr": {"T": {"type": "DT_FLOAT"}}}, {"name": "AttentionNet_1/mobilenetv2_1.00_224_1/block_7_depthwise_BN_1/batchnorm/sub", "op": "Sub", "input": ["AttentionNet_1/mobilenetv2_1.00_224_1/block_7_depthwise_BN_1/Cast_3/ReadVariableOp", "AttentionNet_1/mobilenetv2_1.00_224_1/block_7_depthwise_BN_1/batchnorm/mul_2"], "attr": {"T": {"type": "DT_FLOAT"}}}, {"name": "AttentionNet_1/mobilenetv2_1.00_224_1/block_7_depthwise_BN_1/batchnorm/add_1", "op": "AddV2", "input": ["AttentionNet_1/mobilenetv2_1.00_224_1/block_7_depthwise_BN_1/batchnorm/mul_1", "AttentionNet_1/mobilenetv2_1.00_224_1/block_7_depthwise_BN_1/batchnorm/sub"], "attr": {"T": {"type": "DT_FLOAT"}}}, {"name": "AttentionNet_1/mobilenetv2_1.00_224_1/block_7_depthwise_relu_1/Relu6", "op": "Relu6", "input": ["AttentionNet_1/mobilenetv2_1.00_224_1/block_7_depthwise_BN_1/batchnorm/add_1"], "attr": {"T": {"type": "DT_FLOAT"}}}, {"name": "AttentionNet_1/mobilenetv2_1.00_224_1/block_7_project_1/convolution/ReadVariableOp", "op": "Identity", "input": ["AttentionNet_1/mobilenetv2_1.00_224_1/block_7_project_1/convolution/ReadVariableOp/resource"], "attr": {"T": {"type": "DT_FLOAT"}}}, {"name": "AttentionNet_1/mobilenetv2_1.00_224_1/block_7_project_1/convolution", "op": "Conv2D", "input": ["AttentionNet_1/mobilenetv2_1.00_224_1/block_7_depthwise_relu_1/Relu6", "AttentionNet_1/mobilenetv2_1.00_224_1/block_7_project_1/convolution/ReadVariableOp"], "attr": {"data_format": {"s": "NHWC"}, "padding": {"s": "SAME"}, "dilations": {"list": {"i": ["1", "1", "1", "1"]}}, "T": {"type": "DT_FLOAT"}, "strides": {"list": {"i": ["1", "1", "1", "1"]}}}}, {"name": "AttentionNet_1/mobilenetv2_1.00_224_1/block_7_project_BN_1/Cast_1/ReadVariableOp", "op": "Identity", "input": ["AttentionNet_1/mobilenetv2_1.00_224_1/block_7_project_BN_1/Cast_1/ReadVariableOp/resource"], "attr": {"T": {"type": "DT_FLOAT"}}}, {"name": "AttentionNet_1/mobilenetv2_1.00_224_1/block_7_project_BN_1/batchnorm/add", "op": "AddV2", "input": ["AttentionNet_1/mobilenetv2_1.00_224_1/block_7_project_BN_1/Cast_1/ReadVariableOp", "AttentionNet_1/mobilenetv2_1.00_224_1/block_7_project_BN_1/batchnorm/add/y"], "attr": {"T": {"type": "DT_FLOAT"}}}, {"name": "AttentionNet_1/mobilenetv2_1.00_224_1/block_7_project_BN_1/batchnorm/Rsqrt", "op": "Rsqrt", "input": ["AttentionNet_1/mobilenetv2_1.00_224_1/block_7_project_BN_1/batchnorm/add"], "attr": {"T": {"type": "DT_FLOAT"}}}, {"name": "AttentionNet_1/mobilenetv2_1.00_224_1/block_7_project_BN_1/Cast_2/ReadVariableOp", "op": "Identity", "input": ["AttentionNet_1/mobilenetv2_1.00_224_1/block_7_project_BN_1/Cast_2/ReadVariableOp/resource"], "attr": {"T": {"type": "DT_FLOAT"}}}, {"name": "AttentionNet_1/mobilenetv2_1.0…
", "^AttentionNet_1/mobilenetv2_1.00_224_1/block_3_depthwise_BN_1/Cast_3/ReadVariableOp", "^AttentionNet_1/mobilenetv2_1.00_224_1/block_3_expand_1/convolution/ReadVariableOp", "^AttentionNet_1/mobilenetv2_1.00_224_1/block_3_expand_BN_1/Cast/ReadVariableOp", "^AttentionNet_1/mobilenetv2_1.00_224_1/block_3_expand_BN_1/Cast_1/ReadVariableOp", "^AttentionNet_1/mobilenetv2_1.00_224_1/block_3_expand_BN_1/Cast_2/ReadVariableOp", "^AttentionNet_1/mobilenetv2_1.00_224_1/block_3_expand_BN_1/Cast_3/ReadVariableOp", "^AttentionNet_1/mobilenetv2_1.00_224_1/block_3_project_1/convolution/ReadVariableOp", "^AttentionNet_1/mobilenetv2_1.00_224_1/block_3_project_BN_1/Cast/ReadVariableOp", "^AttentionNet_1/mobilenetv2_1.00_224_1/block_3_project_BN_1/Cast_1/ReadVariableOp", "^AttentionNet_1/mobilenetv2_1.00_224_1/block_3_project_BN_1/Cast_2/ReadVariableOp", "^AttentionNet_1/mobilenetv2_1.00_224_1/block_3_project_BN_1/Cast_3/ReadVariableOp", "^AttentionNet_1/mobilenetv2_1.00_224_1/block_4_depthwise_1/depthwise/ReadVariableOp", "^AttentionNet_1/mobilenetv2_1.00_224_1/block_4_depthwise_BN_1/Cast/ReadVariableOp", "^AttentionNet_1/mobilenetv2_1.00_224_1/block_4_depthwise_BN_1/Cast_1/ReadVariableOp", "^AttentionNet_1/mobilenetv2_1.00_224_1/block_4_depthwise_BN_1/Cast_2/ReadVariableOp", "^AttentionNet_1/mobilenetv2_1.00_224_1/block_4_depthwise_BN_1/Cast_3/ReadVariableOp", "^AttentionNet_1/mobilenetv2_1.00_224_1/block_4_expand_1/convolution/ReadVariableOp", "^AttentionNet_1/mobilenetv2_1.00_224_1/block_4_expand_BN_1/Cast/ReadVariableOp", "^AttentionNet_1/mobilenetv2_1.00_224_1/block_4_expand_BN_1/Cast_1/ReadVariableOp", "^AttentionNet_1/mobilenetv2_1.00_224_1/block_4_expand_BN_1/Cast_2/ReadVariableOp", "^AttentionNet_1/mobilenetv2_1.00_224_1/block_4_expand_BN_1/Cast_3/ReadVariableOp", "^AttentionNet_1/mobilenetv2_1.00_224_1/block_4_project_1/convolution/ReadVariableOp", "^AttentionNet_1/mobilenetv2_1.00_224_1/block_4_project_BN_1/Cast/ReadVariableOp", "^AttentionNet_1/mobilenetv2_1.00_224_1/block_4_project_BN_1/Cast_1/ReadVariableOp", "^AttentionNet_1/mobilenetv2_1.00_224_1/block_4_project_BN_1/Cast_2/ReadVariableOp", "^AttentionNet_1/mobilenetv2_1.00_224_1/block_4_project_BN_1/Cast_3/ReadVariableOp", "^AttentionNet_1/mobilenetv2_1.00_224_1/block_5_depthwise_1/depthwise/ReadVariableOp", "^AttentionNet_1/mobilenetv2_1.00_224_1/block_5_depthwise_BN_1/Cast/ReadVariableOp", "^AttentionNet_1/mobilenetv2_1.00_224_1/block_5_depthwise_BN_1/Cast_1/ReadVariableOp", "^AttentionNet_1/mobilenetv2_1.00_224_1/block_5_depthwise_BN_1/Cast_2/ReadVariableOp", "^AttentionNet_1/mobilenetv2_1.00_224_1/block_5_depthwise_BN_1/Cast_3/ReadVariableOp", "^AttentionNet_1/mobilenetv2_1.00_224_1/block_5_expand_1/convolution/ReadVariableOp", "^AttentionNet_1/mobilenetv2_1.00_224_1/block_5_expand_BN_1/Cast/ReadVariableOp", "^AttentionNet_1/mobilenetv2_1.00_224_1/block_5_expand_BN_1/Cast_1/ReadVariableOp", "^AttentionNet_1/mobilenetv2_1.00_224_1/block_5_expand_BN_1/Cast_2/ReadVariableOp", "^AttentionNet_1/mobilenetv2_1.00_224_1/block_5_expand_BN_1/Cast_3/ReadVariableOp", "^AttentionNet_1/mobilenetv2_1.00_224_1/block_5_project_1/convolution/ReadVariableOp", "^AttentionNet_1/mobilenetv2_1.00_224_1/block_5_project_BN_1/Cast/ReadVariableOp", "^AttentionNet_1/mobilenetv2_1.00_224_1/block_5_project_BN_1/Cast_1/ReadVariableOp", "^AttentionNet_1/mobilenetv2_1.00_224_1/block_5_project_BN_1/Cast_2/ReadVariableOp", "^AttentionNet_1/mobilenetv2_1.00_224_1/block_5_project_BN_1/Cast_3/ReadVariableOp", "^AttentionNet_1/mobilenetv2_1.00_224_1/block_6_depthwise_1/depthwise/ReadVariableOp", "^AttentionNet_1/mobilenetv2_1.00_224_1/block_6_depthwise_BN_1/Cast/ReadVariableOp", "^AttentionNet_1/mobilenetv2_1.00_224_1/block_6_depthwise_BN_1/Cast_1/ReadVariableOp", "^AttentionNet_1/mobilenetv2_1.00_224_1/block_6_depthwise_BN_1/Cast_2/ReadVariableOp", "^AttentionNet_1/mobilenetv2_1.00_224_1/block_6_depthwise_BN_1/Cast_3/ReadVariableOp", "^AttentionNet_1/mobilenetv2_1.00_224_1/block_6_expand_1/convolution/ReadVariableOp", "^AttentionNet_1/mobilenetv2_1.00_224_1/block_6_expand_BN_1/Cast/ReadVariableOp", "^AttentionNet_1/mobilenetv2_1.00_224_1/block_6_expand_BN_1/Cast_1/ReadVariableOp", "^AttentionNet_1/mobilenetv2_1.00_224_1/block_6_expand_BN_1/Cast_2/ReadVariableOp", "^AttentionNet_1/mobilenetv2_1.00_224_1/block_6_expand_BN_1/Cast_3/ReadVariableOp", "^AttentionNet_1/mobilenetv2_1.00_224_1/block_6_project_1/convolution/ReadVariableOp", "^AttentionNet_1/mobilenetv2_1.00_224_1/block_6_project_BN_1/Cast/ReadVariableOp", "^AttentionNet_1/mobilenetv2_1.00_224_1/block_6_project_BN_1/Cast_1/ReadVariableOp", "^AttentionNet_1/mobilenetv2_1.00_224_1/block_6_project_BN_1/Cast_2/ReadVariableOp", "^AttentionNet_1/mobilenetv2_1.00_224_1/block_6_project_BN_1/Cast_3/ReadVariableOp", "^AttentionNet_1/mobilenetv2_1.00_224_1/block_7_depthwise_1/depthwise/ReadVariableOp", "^AttentionNet_1/mobilenetv2_1.00_224_1/block_7_depthwise_BN_1/Cast/ReadVariableOp", "^AttentionNet_1/mobilenetv2_1.00_224_1/block_7_depthwise_BN_1/Cast_1/ReadVariableOp", "^AttentionNet_1/mobilenetv2_1.00_224_1/block_7_depthwise_BN_1/Cast_2/ReadVariableOp", "^AttentionNet_1/mobilenetv2_1.00_224_1/block_7_depthwise_BN_1/Cast_3/ReadVariableOp", "^AttentionNet_1/mobilenetv2_1.00_224_1/block_7_expand_1/convolution/ReadVariableOp", "^AttentionNet_1/mobilenetv2_1.00_224_1/block_7_expand_BN_1/Cast/ReadVariableOp", "^AttentionNet_1/mobilenetv2_1.00_224_1/block_7_expand_BN_1/Cast_1/ReadVariableOp", "^AttentionNet_1/mobilenetv2_1.00_224_1/block_7_expand_BN_1/Cast_2/ReadVariableOp", "^AttentionNet_1/mobilenetv2_1.00_224_1/block_7_expand_BN_1/Cast_3/ReadVariableOp", "^AttentionNet_1/mobilenetv2_1.00_224_1/block_7_project_1/convolution/ReadVariableOp", "^AttentionNet_1/mobilenetv2_1.00_224_1/block_7_project_BN_1/Cast/ReadVariableOp", "^AttentionNet_1/mobilenetv2_1.00_224_1/block_7_project_BN_1/Cast_1/ReadVariableOp", "^AttentionNet_1/mobilenetv2_1.00_224_1/block_7_project_BN_1/Cast_2/ReadVariableOp", "^AttentionNet_1/mobilenetv2_1.00_224_1/block_7_project_BN_1/Cast_3/ReadVariableOp", "^AttentionNet_1/mobilenetv2_1.00_224_1/block_8_depthwise_1/depthwise/ReadVariableOp", "^AttentionNet_1/mobilenetv2_1.00_224_1/block_8_depthwise_BN_1/Cast/ReadVariableOp", "^AttentionNet_1/mobilenetv2_1.00_224_1/block_8_depthwise_BN_1/Cast_1/ReadVariableOp", "^AttentionNet_1/mobilenetv2_1.00_224_1/block_8_depthwise_BN_1/Cast_2/ReadVariableOp", "^AttentionNet_1/mobilenetv2_1.00_224_1/block_8_depthwise_BN_1/Cast_3/ReadVariableOp", "^AttentionNet_1/mobilenetv2_1.00_224_1/block_8_expand_1/convolution/ReadVariableOp", "^AttentionNet_1/mobilenetv2_1.00_224_1/block_8_expand_BN_1/Cast/ReadVariableOp", "^AttentionNet_1/mobilenetv2_1.00_224_1/block_8_expand_BN_1/Cast_1/ReadVariableOp", "^AttentionNet_1/mobilenetv2_1.00_224_1/block_8_expand_BN_1/Cast_2/ReadVariableOp", "^AttentionNet_1/mobilenetv2_1.00_224_1/block_8_expand_BN_1/Cast_3/ReadVariableOp", "^AttentionNet_1/mobilenetv2_1.00_224_1/block_8_project_1/convolution/ReadVariableOp", "^AttentionNet_1/mobilenetv2_1.00_224_1/block_8_project_BN_1/Cast/ReadVariableOp", "^AttentionNet_1/mobilenetv2_1.00_224_1/block_8_project_BN_1/Cast_1/ReadVariableOp", "^AttentionNet_1/mobilenetv2_1.00_224_1/block_8_project_BN_1/Cast_2/ReadVariableOp", "^AttentionNet_1/mobilenetv2_1.00_224_1/block_8_project_BN_1/Cast_3/ReadVariableOp", "^AttentionNet_1/mobilenetv2_1.00_224_1/block_9_depthwise_1/depthwise/ReadVariableOp", "^AttentionNet_1/mobilenetv2_1.00_224_1/block_9_depthwise_BN_1/Cast/ReadVariableOp", "^AttentionNet_1/mobilenetv2_1.00_224_1/block_9_depthwise_BN_1/Cast_1/ReadVariableOp", "^AttentionNet_1/mobilenetv2_1.00_224_1/block_9_depthwise_BN_1/Cast_2/ReadVariableOp", "^AttentionNet_1/mobilenetv2_1.00_224_1/block_9_depthwise_BN_1/Cast_3/ReadVariableOp", "^AttentionNet_1/mobilenetv2_1.00_224_1/block_9_expand_1/convolution/ReadVariableOp", "^AttentionNet_1/mobilenetv2_1.00_224_1/block_9_expand_BN_1/Cast/ReadVariableOp", "^AttentionNet_1/mobilenetv2_1.00_224_1/block_9_expand_BN_1/Cast_1/ReadVariableOp", "^AttentionNet_1/mobilenetv2_1.00_224_1/block_9_expand_BN_1/Cast_2/ReadVariableOp", "^AttentionNet_1/mobilenetv2_1.00_224_1/block_9_expand_BN_1/Cast_3/ReadVariableOp", "^AttentionNet_1/mobilenetv2_1.00_224_1/block_9_project_1/convolution/ReadVariableOp", "^AttentionNet_1/mobilenetv2_1.00_224_1/block_9_project_BN_1/Cast/ReadVariableOp", "^AttentionNet_1/mobilenetv2_1.00_224_1/block_9_project_BN_1/Cast_1/ReadVariableOp", "^AttentionNet_1/mobilenetv2_1.00_224_1/block_9_project_BN_1/Cast_2/ReadVariableOp", "^AttentionNet_1/mobilenetv2_1.00_224_1/block_9_project_BN_1/Cast_3/ReadVariableOp", "^AttentionNet_1/mobilenetv2_1.00_224_1/bn_Conv1_1/Cast/ReadVariableOp", "^AttentionNet_1/mobilenetv2_1.00_224_1/bn_Conv1_1/Cast_1/ReadVariableOp", "^AttentionNet_1/mobilenetv2_1.00_224_1/bn_Conv1_1/Cast_2/ReadVariableOp", "^AttentionNet_1/mobilenetv2_1.00_224_1/bn_Conv1_1/Cast_3/ReadVariableOp", "^AttentionNet_1/mobilenetv2_1.00_224_1/expanded_conv_depthwise_1/depthwise/ReadVariableOp", "^AttentionNet_1/mobilenetv2_1.00_224_1/expanded_conv_depthwise_BN_1/Cast/ReadVariableOp", "^AttentionNet_1/mobilenetv2_1.00_224_1/expanded_conv_depthwise_BN_1/Cast_1/ReadVariableOp", "^AttentionNet_1/mobilenetv2_1.00_224_1/expanded_conv_depthwise_BN_1/Cast_2/ReadVariableOp", "^AttentionNet_1/mobilenetv2_1.00_224_1/expanded_conv_depthwise_BN_1/Cast_3/ReadVariableOp", "^AttentionNet_1/mobilenetv2_1.00_224_1/expanded_conv_project_1/convolution/ReadVariableOp", "^AttentionNet_1/mobilenetv2_1.00_224_1/expanded_conv_project_BN_1/Cast/ReadVariableOp", "^AttentionNet_1/mobilenetv2_1.00_224_1/expanded_conv_project_BN_1/Cast_1/ReadVariableOp", "^AttentionNet_1/mobilenetv2_1.00_224_1/expanded_conv_project_BN_1/Cast_2/ReadVariableOp", "^AttentionNet_1/mobilenetv2_1.00_224_1/expanded_conv_project_BN_1/Cast_3/ReadVariableOp", "^AttentionNet_1/region_output_1/BiasAdd/ReadVariableOp", "^AttentionNet_1/region_output_1/Cast/ReadVariableOp"]}, {"name": "Identity", "op": "Identity", "input": ["AttentionNet_1/region_output_1/Softmax", "^NoOp"], "attr": {"T": {"type": "DT_FLOAT"}}}, {"name": "AttentionNet_1/attention_conv_1/convolution", "op": "Conv2D", "input": ["AttentionNet_1/mobilenetv2_1.00_224_1/out_relu_1/Relu6", "AttentionNet_1/attention_conv_1/convolution/ReadVariableOp"], "attr": {"T": {"type": "DT_FLOAT"}, "padding": {"s": "VALID"}, "data_format": {"s": "NHWC"}, "dilations": {"list": {"i": ["1", "1", "1", "1"]}}, "strides": {"list": {"i": ["1", "1", "1", "1"]}}}}, {"name": "AttentionNet_1/attention_conv_1/Reshape", "op": "Reshape", "input": ["AttentionNet_1/attention_conv_1/Reshape/ReadVariableOp", "AttentionNet_1/attention_conv_1/Reshape/shape"], "attr": {"T": {"type": "DT_FLOAT"}}}, {"name": "AttentionNet_1/attention_conv_1/Add", "op": "AddV2", "input": ["AttentionNet_1/attention_conv_1/convolution", "AttentionNet_1/attention_conv_1/Reshape"], "attr": {"T": {"type": "DT_FLOAT"}}}, {"name": "AttentionNet_1/attention_conv_1/Sigmoid", "op": "Sigmoid", "input": ["AttentionNet_1/attention_conv_1/Add"], "attr": {"T": {"type": "DT_FLOAT"}}}, {"name": "AttentionNet_1/attention_flat_1/Shape", "op": "Shape", "input": ["AttentionNet_1/attention_conv_1/Sigmoid"], "attr": {"T": {"type": "DT_FLOAT"}}}, {"name": "AttentionNet_1/attention_flat_1/strided_slice", "op": "StridedSlice", "input": ["AttentionNet_1/attention_flat_1/Shape", "AttentionNet_1/attention_flat_1/strided_slice/stack", "AttentionNet_1/attention_flat_1/strided_slice/stack_1", "AttentionNet_1/attention_flat_1/strided_slice/stack_2"], "attr": {"T": {"type": "DT_INT32"}}}, {"name": "AttentionNet_1/attention_flat_1/Reshape/shape", "op": "Pack", "input": ["AttentionNet_1/attention_flat_1/strided_slice", "AttentionNet_1/attention_flat_1/Reshape/shape/1"], "attr": {"T": {"type": "DT_INT32"}, "N": {"i": "2"}, "axis": {"i": "0"}}}, {"name": "AttentionNet_1/attention_flat_1/Reshape", "op": "Reshape", "input": ["AttentionNet_1/attention_conv_1/Sigmoid", "AttentionNet_1/attention_flat_1/Reshape/shape"], "attr": {"T": {"type": "DT_FLOAT"}}}, {"name": "Identity_1", "op": "Identity", "input": ["AttentionNet_1/attention_flat_1/Reshape", "^NoOp"], "attr": {"T": {"type": "DT_FLOAT"}}}], "versions": {"producer": 1}}, "signature": {"inputs": {"x": {"name": "x:0", "dtype": "DT_FLOAT", "tensorShape": {"dim": [{"size": "-1"}, {"size": "224"}, {"size": "224"}, {"size": "3"}]}}}, "outputs": {"Identity": {"name": "Identity:0", "dtype": "DT_FLOAT"}, "Identity_1": {"name": "Identity_1:0", "dtype": "DT_FLOAT"}}}, "weightsManifest": [{"paths": ["group1-shard1of3.bin", "group1-shard2of3.bin", "group1-shard3of3.bin"], "weights": [{"name": "AttentionNet_1/mobilenetv2_1.00_224_1/Conv1_1/convolution/ReadVariableOp/resource", "shape": [3, 3, 3, 32], "dtype": "float32"}, {"name": "AttentionNet_1/mobilenetv2_1.00_224_1/bn_Conv1_1/Cast_1/ReadVariableOp/resource", "shape": [32], "dtype": "float32"}, {"name": "AttentionNet_1/mobilenetv2_1.00_224_1/bn_Conv1_1/Cast_2/ReadVariableOp/resource", "shape": [32], "dtype": "float32"}, {"name": "AttentionNet_1/mobilenetv2_1.00_224_1/bn_Conv1_1/Cast_3/ReadVariableOp/resource", "shape": [32], "dtype": "float32"}, {"name": "AttentionNet_1/mobilenetv2_1.00_224_1/bn_Conv1_1/Cast/ReadVariableOp/resource", "shape": [32], "dtype": "float32"}, {"name": "AttentionNet_1/mobilenetv2_1.00_224_1/expanded_conv_depthwise_1/depthwise/ReadVariableOp/resource", "shape": [3, 3, 32, 1], "dtype": "float32"}, {"name": "AttentionNet_1/mobilenetv2_1.00_224_1/expanded_conv_depthwise_BN_1/Cast_1/ReadVariableOp/resource", "shape": [32], "dtype": "float32"}, {"name": "AttentionNet_1/mobilenetv2_1.00_224_1/expanded_conv_depthwise_BN_1/Cast_2/ReadVariableOp/resource", "shape": [32], "dtype": "float32"}, {"name": "AttentionNet_1/mobilenetv2_1.00_224_1/expanded_conv_depthwise_BN_1/Cast_3/ReadVariableOp/resource", "shape": [32], "dtype": "float32"}, {"name": "AttentionNet_1/mobilenetv2_1.00_224_1/expanded_conv_depthwise_BN_1/Cast/ReadVariableOp/resource", "shape": [32], "dtype": "float32"}, {"name": "AttentionNet_1/mobilenetv2_1.00_224_1/expanded_conv_project_1/convolution/ReadVariableOp/resource", "shape": [1, 1, 32, 16], "dtype": "float32"}, {"name": "AttentionNet_1/mobilenetv2_1.00_224_1/expanded_conv_project_BN_1/Cast_1/ReadVariableOp/resource", "shape": [16], "dtype": "float32"}, {"name": "AttentionNet_1/mobilenetv2_1.00_224_1/expanded_conv_project_BN_1/Cast_2/ReadVariableOp/resource", "shape": [16], "dtype": "float32"}, {"name": "AttentionNet_1/mobilenetv2_1.00_224_1/expanded_conv_project_BN_1/Cast_3/ReadVariableOp/resource", "shape": [16], "dtype": "float32"}, {"name": "AttentionNet_1/mobilenetv2_1.00_224_1/expanded_conv_project_BN_1/Cast/ReadVariableOp/resource", "shape": [16], "dtype": "float32"}, {"name": "AttentionNet_1/mobilenetv2_1.00_224_1/block_1_expand_1/convolution/ReadVariableOp/resource", "shape": [1, 1, 16, 96], "dtype": "float32"}, {"name": "AttentionNet_1/mobilenetv2_1.00_224_1/block_1_expand_BN_1/Cast_1/ReadVariableOp/resource", "shape": [96], "dtype": "float32"}, {"name": "AttentionNet_1/mobilenetv2_1.00_224_1/block_1_expand_BN_1/Cast_2/ReadVariableOp/resource", "shape": [96], "dtype": "float32"}, {"name": "AttentionNet_1/mobilenetv2_1.00_224_1/block_1_expand_BN_1/Cast_3/ReadVariableOp/resource", "shape": [96], "dtype": "float32"}, {"name": "AttentionNet_1/mobilenetv2_1.00_224_1/block_1_expand_BN_1/Cast/ReadVariableOp/resource", "shape": [96], "dtype": "float32"}, {"name": "AttentionNet_1/mobilenetv2_1.00_224_1/block_1_depthwise_1/depthwise/ReadVariableOp/resource", "shape": [3, 3, 96, 1], "dtype": "float32"}, {"name": "AttentionNet_1/mobilenetv2_1.00_224_1/block_1_depthwise_BN_1/Cast_1/ReadVariableOp/resource", "shape": [96], "dtype": "float32"}, {"name": "AttentionNet_1/mobilenetv2_1.00_224_1/block_1_depthwise_BN_1/Cast_2/ReadVariableOp/resource", "shape": [96], "dtype": "float32"}, {"name": "AttentionNet_1/mobilenetv2_1.00_224_1/block_1_depthwise_BN_1/Cast_3/ReadVariableOp/resource", "shape": [96], "dtype": "float32"}, {"name": "AttentionNet_1/mobilenetv2_1.00_224_1/block_1_depthwise_BN_1/Cast/ReadVariableOp/resource", "shape": [96], "dtype": "float32"}, {"name": "AttentionNet_1/mobilenetv2_1.00_224_1/block_1_project_1/convolution/ReadVariableOp/resource", "shape": [1, 1, 96, 24], "dtype": "float32"}, {"name": "AttentionNet_1/mobilenetv2_1.00_224_1/block_1_project_BN_1/Cast_1/ReadVariableOp/resource", "shape": [24], "dtype": "float32"}, {"name": "AttentionNet_1/mobilenetv2_1.00_224_1/block_1_project_BN_1/Cast_2/ReadVariableOp/resource", "shape": [24], "dtype": "float32"}, {"name": "AttentionNet_1/mobilenetv2_1.00_224_1/block_1_project_BN_1/Cast_3/ReadVariableOp/resource", "shape": [24], "dtype": "float32"}, {"name": "AttentionNet_1/mobilenetv2_1.00_224_1/block_1_project_BN_1/Cast/ReadVariableOp/resource", "shape": [24], "dtype": "float32"}, {"name": "AttentionNet_1/mobilenetv2_1.00_224_1/block_2_expand_1/convolution/ReadVariableOp/resource", "shape": [1, 1, 24, 144], "dtype": "float32"}, {"name": "AttentionNet_1/mobilenetv2_1.00_224_1/block_2_expand_BN_1/Cast_1/ReadVariableOp/resource", "shape": [144], "dtype": "float32"}, {"name": "AttentionNet_1/mobilenetv2_1.00_224_1/block_2_expand_BN_1/Cast_2/ReadVariableOp/resource", "shape": [144], "dtype": "float32"}, {"name": "AttentionNet_1/mobilenetv2_1.00_224_1/block_2_expand_BN_1/Cast_3/ReadVariableOp/resource", "shape": [144], "dtype": "float32"}, {"name": "AttentionNet_1/mobilenetv2_1.00_224_1/block_2_expand_BN_1/Cast/ReadVariableOp/resource", "shape": [144], "dtype": "float32"}, {"name": "AttentionNet_1/mobilenetv2_1.00_224_1/block_2_depthwise_1/depthwise/ReadVariableOp/resource", "shape": [3, 3, 144, 1], "dtype": "float32"}, {"name": "AttentionNet_1/mobilenetv2_1.00_224_1/block_2_depthwise_BN_1/Cast_1/ReadVariableOp/resource", "shape": [144], "dtype": "float32"}, {"name": "AttentionNet_1/mobilenetv2_1.00_224_1/block_2_depthwise_BN_1/Cast_2/ReadVariableOp/resource", "shape": [144], "dtype": "float32"}, {"name": "AttentionNet_1/mobilenetv2_1.00_224_1/block_2_depthwise_BN_1/Cast_3/ReadVariableOp/resource", "shape": [144], "dtype": "float32"}, {"name": "AttentionNet_1/mobilenetv2_1.00_224_1/block_2_depthwise_BN_1/Cast/ReadVariableOp/resource", "shape": [144], "dtype": "float32"}, {"name": "AttentionNet_1/mobilenetv2_1.00_224_1/block_2_project_1/convolution/ReadVariableOp/resource", "shape": [1, 1, 144, 24], "dtype": "float32"}, {"name": "AttentionNet_1/mobilenetv2_1.00_224_1/block_2_project_BN_1/Cast_1/ReadVariableOp/resource", "shape": [24], "dtype": "float32"}, {"name": "AttentionNet_1/mobilenetv2_1.00_224_1/block_2_project_BN_1/Cast_2/ReadVariableOp/resource", "shape": [24], "dtype": "float32"}, {"name": "AttentionNet_1/mobilenetv2_1.00_224_1/block_2_project_BN_1/Cast_3/ReadVariableOp/resource", "shape": [24], "dtype": "float32"}, {"name": "AttentionNet_1/mobilenetv2_1.00_224_1/block_2_project_BN_1/Cast/ReadVariableOp/resource", "shape": [24], "dtype": "float32"}, {"name": "AttentionNet_1/mobilenetv2_1.00_224_1/block_3_expand_1/convolution/ReadVariableOp/resource", "shape": [1, 1, 24, 144], "dtype": "float32"}, {"name": "AttentionNet_1/mobilenetv2_1.00_224_1/block_3_expand_BN_1/Cast_1/ReadVariableOp/resource", "shape": [144], "dtype": "float32"}, {"name": "AttentionNet_1/mobilenetv2_1.00_224_1/block_3_expand_BN_1/Cast_2/ReadVariableOp/resource", "shape": [144], "dtype": "float32"}, {"name": "AttentionNet_1/mobilenetv2_1.00_224_1/block_3_expand_BN_1/Cast_3/ReadVariableOp/resource", "shape": [144], "dtype": "float32"}, {"name": "AttentionNet_1/mobilenetv2_1.00_224_1/block_3_expand_BN_1/Cast/ReadVariableOp/resource", "shape": [144], "dtype": "float32"}, {"name": "AttentionNet_1/mobilenetv2_1.00_224_1/block_3_depthwise_1/depthwise/ReadVariableOp/resource", "shape": [3, 3, 144, 1], "dtype": "float32"}, {"name": "AttentionNet_1/mobilenetv2_1.00_224_1/block_3_depthwise_BN_1/Cast_1/ReadVariableOp/resource", "shape": [144], "dtype": "float32"}, {"name": "AttentionNet_1/mobilenetv2_1.00_224_1/block_3_depthwise_BN_1/Cast_2/ReadVariableOp/resource", "shape": [144], "dtype": "float32"}, {"name": "AttentionNet_1/mobilenetv2_1.00_224_1/block_3_depthwise_BN_1/Cast_3/ReadVariableOp/resource", "shape": [144], "dtype": "float32"}, {"name": "AttentionNet_1/mobilenetv2_1.00_224_1/block_3_depthwise_BN_1/Cast/ReadVariableOp/resource", "shape": [144], "dtype": "float32"}, {"name": "AttentionNet_1/mobilenetv2_1.00_224_1/block_3_project_1/convolution/ReadVariableOp/resource", "shape": [1, 1, 144, 32], "dtype": "float32"}, {"name": "AttentionNet_1/mobilenetv2_1.00_224_1/block_3_project_BN_1/Cast_1/ReadVariableOp/resource", "shape": [32], "dtype": "float32"}, {"name": "AttentionNet_1/mobilenetv2_1.00_224_1/block_3_project_BN_1/Cast_2/ReadVariableOp/resource", "shape": [32], "dtype": "float32"}, {"name": "AttentionNet_1/mobilenetv2_1.00_224_1/block_3_project_BN_1/Cast_3/ReadVariableOp/resource", "shape": [32], "dtype": "float32"}, {"name": "AttentionNet_1/mobilenetv2_1.00_224_1/block_3_project_BN_1/Cast/ReadVariableOp/resource", "shape": [32], "dtype": "float32"}, {"name": "AttentionNet_1/mobilenetv2_1.00_224_1/block_4_expand_1/convolution/ReadVariableOp/resource", "shape": [1, 1, 32, 192], "dtype": "float32"}, {"name": "AttentionNet_1/mobilenetv2_1.00_224_1/block_4_expand_BN_1/Cast_1/ReadVariableOp/resource", "shape": [192], "dtype": "float32"}, {"name": "AttentionNet_1/mobilenetv2_1.00_224_1/block_4_expand_BN_1/Cast_2/ReadVariableOp/resource", "shape": [192], "dtype": "float32"}, {"name": "AttentionNet_1/mobilenetv2_1.00_224_1/block_4_expand_BN_1/Cast_3/ReadVariableOp/resource", "shape": [192], "dtype": "float32"}, {"name": "AttentionNet_1/mobilenetv2_1.00_224_1/block_4_expand_BN_1/Cast/ReadVariableOp/resource", "shape": [192], "dtype": "float32"}, {"name": "AttentionNet_1/mobilenetv2_1.00_224_1/block_4_depthwise_1/depthwise/ReadVariableOp/resource", "shape": [3, 3, 192, 1], "dtype": "float32"}, {"name": "AttentionNet_1/mobilenetv2_1.00_224_1/block_4_depthwise_BN_1/Cast_1/ReadVariableOp/resource", "shape": [192], "dtype": "float32"}, {"name": "AttentionNet_1/mobilenetv2_1.00_224_1/block_4_depthwise_BN_1/Cast_2/ReadVariableOp/resource", "shape": [192], "dtype": "float32"}, {"name": "AttentionNet_1/mobilenetv2_1.00_224_1/block_4_depthwise_BN_1/Cast_3/ReadVariableOp/resource", "shape": [192], "dtype": "float32"}, {"name": "AttentionNet_1/mobilenetv2_1.00_224_1/block_4_depthwise_BN_1/Cast/ReadVariableOp/resource", "shape": [192], "dtype": "float32"}, {"name": "AttentionNet_1/mobilenetv2_1.00_224_1/block_4_project_1/convolution/ReadVariableOp/resource", "shape": [1, 1, 192, 32], "dtype": "float32"}, {"name": "AttentionNet_1/mobilenetv2_1.00_224_1/block_4_project_BN_1/Cast_1/ReadVariableOp/resource", "shape": [32], "dtype": "float32"}, {"name": "AttentionNet_1/mobilenetv2_1.00_224_1/block_4_project_BN_1/Cast_2/ReadVariableOp/resource", "shape": [32], "dtype": "float32"}, {"name": "AttentionNet_1/mobilenetv2_1.00_224_1/block_4_project_BN_1/Cast_3/ReadVariableOp/resource", "shape": [32], "dtype": "float32"}, {"name": "AttentionNet_1/mobilenetv2_1.00_224_1/block_4_project_BN_1/Cast/ReadVariableOp/resource", "shape": [32], "dtype": "float32"}, {"name": "AttentionNet_1/mobilenetv2_1.00_224_1/block_5_expand_1/convolution/ReadVariableOp/resource", "shape": [1, 1, 32, 192], "dtype": "float32"}, {"name": "AttentionNet_1/mobilenetv2_1.00_224_1/block_5_expand_BN_1/Cast_1/ReadVariableOp/resource", "shape": [192], "dtype": "float32"}, {"name": "AttentionNet_1/mobilenetv2_1.00_224_1/block_5_expand_BN_1/Cast_2/ReadVariableOp/resource", "shape": [192], "dtype": "float32"}, {"name": "AttentionNet_1/mobilenetv2_1.00_224_1/block_5_expand_BN_1/Cast_3/ReadVariableOp/resource", "shape": [192], "dtype": "float32"}, {"name": "AttentionNet_1/mobilenetv2_1.00_224_1/block_5_expand_BN_1/Cast/ReadVariableOp/resource", "shape": [192], "dtype": "float32"}, {"name": "AttentionNet_1/mobilenetv2_1.00_224_1/block_5_depthwise_1/depthwise/ReadVariableOp/resource", "shape": [3, 3, 192, 1], "dtype": "float32"}, {"name": "AttentionNet_1/mobilenetv2_1.00_224_1/block_5_depthwise_BN_1/Cast_1/ReadVariableOp/resource", "shape": [192], "dtype": "float32"}, {"name": "AttentionNet_1/mobilenetv2_1.00_224_1/block_5_depthwise_BN_1/Cast_2/ReadVariableOp/resource", "shape": [192], "dtype": "float32"}, {"name": "AttentionNet_1/mobilenetv2_1.00_224_1/block_5_depthwise_BN_1/Cast_3/ReadVariableOp/resource", "shape": [192], "dtype": "float32"}, {"name": "AttentionNet_1/mobilenetv2_1.00_224_1/block_5_depthwise_BN_1/Cast/ReadVariableOp/resource", "shape": [192], "dtype": "float32"}, {"name": "AttentionNet_1/mobilenetv2_1.00_224_1/block_5_project_1/convolution/ReadVariableOp/resource", "shape": [1, 1, 192, 32], "dtype": "float32"}, {"name": "AttentionNet_1/mobilenetv2_1.00_224_1/block_5_project_BN_1/Cast_1/ReadVariableOp/resource", "shape": [32], "dtype": "float32"}, {"name": "AttentionNet_1/mobilenetv2_1.00_224_1/block_5_project_BN_1/Cast_2/ReadVariableOp/resource", "shape": [32], "dtype": "float32"}, {"name": "AttentionNet_1/mobilenetv2_1.00_224_1/block_5_project_BN_1/Cast_3/ReadVariableOp/resource", "shape": [32], "dtype": "float32"}, {"name": "AttentionNet_1/mobilenetv2_1.00_224_1/block_5_project_BN_1/Cast/ReadVariableOp/resource", "shape": [32], "dtype": "float32"}, {"name": "AttentionNet_1/mobilenetv2_1.00_224_1/block_6_expand_1/convolution/ReadVariableOp/resource", "shape": [1, 1, 32, 192], "dtype": "float32"}, {"name": "AttentionNet_1/mobilenetv2_1.00_224_1/block_6_expand_BN_1/Cast_1/ReadVariableOp/resource", "shape": [192], "dtype": "float32"}, {"name": "AttentionNet_1/mobilenetv2_1.00_224_1/block_6_expand_BN_1/Cast_2/ReadVariableOp/resource", "shape": [192], "dtype": "float32"}, {"name": "AttentionNet_1/mobilenetv2_1.00_224_1/block_6_expand_BN_1/Cast_3/ReadVariableOp/resource", "shape": [192], "dtype": "float32"}, {"name": "AttentionNet_1/mobilenetv2_1.00_224_1/block_6_expand_BN_1/Cast/ReadVariableOp/resource", "shape": [192], "dtype": "float32"}, {"name": "AttentionNet_1/mobilenetv2_1.00_224_1/block_6_depthwise_1/depthwise/ReadVariableOp/resource", "shape": [3, 3, 192, 1], "dtype": "float32"}, {"name": "AttentionNet_1/mobilenetv2_1.00_224_1/block_6_depthwise_BN_1/Cast_1/ReadVariableOp/resource", "shape": [192], "dtype": "float32"}, {"name": "AttentionNet_1/mobilenetv2_1.00_224_1/block_6_depthwise_BN_1/Cast_2/ReadVariableOp/resource", "shape": [192], "dtype": "float32"}, {"name": "AttentionNet_1/mobilenetv2_1.00_224_1/block_6_depthwise_BN_1/Cast_3/ReadVariableOp/resource", "shape": [192], "dtype": "float32"}, {"name": "AttentionNet_1/mobilenetv2_1.00_224_1/block_6_depthwise_BN_1/Cast/ReadVariableOp/resource", "shape": [192], "dtype": "float32"}, {"name": "AttentionNet_1/mobilenetv2_1.00_224_1/block_6_project_1/convolution/ReadVariableOp/resource", "shape": [1, 1, 192, 64], "dtype": "float32"}, {"name": "AttentionNet_1/mobilenetv2_1.00_224_1/block_6_project_BN_1/Cast_1/ReadVariableOp/resource", "shape": [64], "dtype": "float32"}, {"name": "AttentionNet_1/mobilenetv2_1.00_224_1/block_6_project_BN_1/Cast_2/ReadVariableOp/resource", "shape": [64], "dtype": "float32"}, {"name": "AttentionNet_1/mobilenetv2_1.00_224_1/block_6_project_BN_1/Cast_3/ReadVariableOp/resource", "shape": [64], "dtype": "float32"}, {"name": "AttentionNet_1/mobilenetv2_1.00_224_1/block_6_project_BN_1/Cast/ReadVariableOp/resource", "shape": [64], "dtype": "float32"}, {"name": "AttentionNet_1/mobilenetv2_1.00_224_1/block_7_expand_1/convolution/ReadVariableOp/resource", "shape": [1, 1, 64, 384], "dtype": "float32"}, {"name": "AttentionNet_1/mobilenetv2_1.00_224_1/block_7_expand_BN_1/Cast_1/ReadVariableOp/resource", "shape": [384], "dtype": "float32"}, {"name": "AttentionNet_1/mobilenetv2_1.00_224_1/block_7_expand_BN_1/Cast_2/ReadVariableOp/resource", "shape": [384], "dtype": "float32"}, {"name": "AttentionNet_1/mobilenetv2_1.00_224_1/block_7_expand_BN_1/Cast_3/ReadVariableOp/resource", "shape": [384], "dtype": "float32"}, {"name": "AttentionNet_1/mobilenetv2_1.00_224_1/block_7_expand_BN_1/Cast/ReadVariableOp/resource", "shape": [384], "dtype": "float32"}, {"name": "AttentionNet_1/mobilenetv2_1.00_224_1/block_7_depthwise_1/depthwise/ReadVariableOp/resource", "shape": [3, 3, 384, 1], "dtype": "float32"}, {"name": "AttentionNet_1/mobilenetv2_1.00_224_1/block_7_depthwise_BN_1/Cast_1/ReadVariableOp/resource", "shape": [384], "dtype": "float32"}, {"name": "AttentionNet_1/mobilenetv2_1.00_224_1/block_7_depthwise_BN_1/Cast_2/ReadVariableOp/resource", "shape": [384], "dtype": "float32"}, {"name": "AttentionNet_1/mobilenetv2_1.00_224_1/block_7_depthwise_BN_1/Cast_3/ReadVariableOp/resource", "shape": [384], "dtype": "float32"}, {"name": "AttentionNet_1/mobilenetv2_1.00_224_1/block_7_depthwise_BN_1/Cast/ReadVariableOp/resource", "shape": [384], "dtype": "float32"}, {"name": "AttentionNet_1/mobilenetv2_1.00_224_1/block_7_project_1/convolution/ReadVariableOp/resource", "shape": [1, 1, 384, 64], "dtype": "float32"}, {"name": "AttentionNet_1/mobilenetv2_1.00_224_1/block_7_project_BN_1/Cast_1/ReadVariableOp/resource", "shape": [64], "dtype": "float32"}, {"name": "AttentionNet_1/mobilenetv2_1.00_224_1/block_7_project_BN_1/Cast_2/ReadVariableOp/resource", "shape": [64], "dtype": "float32"}, {"name": "AttentionNet_1/mobilenetv2_1.00_224_1/block_7_project_BN_1/Cast_3/ReadVariableOp/resource", "shape": [64], "dtype": "float32"}, {"name": "AttentionNet_1/mobilenetv2_1.00_224_1/block_7_project_BN_1/Cast/ReadVariableOp/resource", "shape": [64], "dtype": "float32"}, {"name": "AttentionNet_1/mobilenetv2_1.00_224_1/block_8_expand_1/convolution/ReadVariableOp/resource", "shape": [1, 1, 64, 384], "dtype": "float32"}, {"name": "AttentionNet_1/mobilenetv2_1.00_224_1/block_8_expand_BN_1/Cast_1/ReadVariableOp/resource", "shape": [384], "dtype": "float32"}, {"name": "AttentionNet_1/mobilenetv2_1.00_224_1/block_8_expand_BN_1/Cast_2/ReadVariableOp/resource", "shape": [384], "dtype": "float32"}, {"name": "AttentionNet_1/mobilenetv2_1.00_224_1/block_8_expand_BN_1/Cast_3/ReadVariableOp/resource", "shape": [384], "dtype": "float32"}, {"name": "AttentionNet_1/mobilenetv2_1.00_224_1/block_8_expand_BN_1/Cast/ReadVariableOp/resource", "shape": [384], "dtype": "float32"}, {"name": "AttentionNet_1/mobilenetv2_1.00_224_1/block_8_depthwise_1/depthwise/ReadVariableOp/resource", "shape": [3, 3, 384, 1], "dtype": "float32"}, {"name": "AttentionNet_1/mobilenetv2_1.00_224_1/block_8_depthwise_BN_1/Cast_1/ReadVariableOp/resource", "shape": [384], "dtype": "float32"}, {"name": "AttentionNet_1/mobilenetv2_1.00_224_1/block_8_depthwise_BN_1/Cast_2/ReadVariableOp/resource", "shape": [384], "dtype": "float32"}, {"name": "AttentionNet_1/mobilenetv2_1.00_224_1/block_8_depthwise_BN_1/Cast_3/ReadVariableOp/resource", "shape": [384], "dtype": "float32"}, {"name": "AttentionNet_1/mobilenetv2_1.00_224_1/block_8_depthwise_BN_1/Cast/ReadVariableOp/resource", "shape": [384], "dtype": "float32"}, {"name": "AttentionNet_1/mobilenetv2_1.00_224_1/block_8_project_1/convolution/ReadVariableOp/resource", "shape": [1, 1, 384, 64], "dtype": "float32"}, {"name": "AttentionNet_1/mobilenetv2_1.00_224_1/block_8_project_BN_1/Cast_1/ReadVariableOp/resource", "shape": [64], "dtype": "float32"}, {"name": "AttentionNet_1/mobilenetv2_1.00_224_1/block_8_project_BN_1/Cast_2/ReadVariableOp/resource", "shape": [64], "dtype": "float32"}, {"name": "AttentionNet_1/mobilenetv2_1.00_224_1/block_8_project_BN_1/Cast_3/ReadVariableOp/resource", "shape": [64], "dtype": "float32"}, {"name": "AttentionNet_1/mobilenetv2_1.00_224_1/block_8_project_BN_1/Cast/ReadVariableOp/resource", "shape": [64], "dtype": "float32"}, {"name": "AttentionNet_1/mobilenetv2_1.00_224_1/block_9_expand_1/convolution/ReadVariableOp/resource", "shape": [1, 1, 64, 384], "dtype": "float32"}, {"name": "AttentionNet_1/mobilenetv2_1.00_224_1/block_9_expand_BN_1/Cast_1/ReadVariableOp/resource", "shape": [384], "dtype": "float32"}, {"name": "AttentionNet_1/mobilenetv2_1.00_224_1/block_9_expand_BN_1/Cast_2/ReadVariableOp/resource", "shape": [384], "dtype": "float32"}, {"name": "AttentionNet_1/mobilenetv2_1.00_224_1/block_9_expand_BN_1/Cast_3/ReadVariableOp/resource", "shape": [384], "dtype": "float32"}, {"name": "AttentionNet_1/mobilenetv2_1.00_224_1/block_9_expand_BN_1/Cast/ReadVariableOp/resource", "shape": [384], "dtype": "float32"}, {"name": "AttentionNet_1/mobilenetv2_1.00_224_1/block_9_depthwise_1/depthwise/ReadVariableOp/resource", "shape": [3, 3, 384, 1], "dtype": "float32"}, {"name": "AttentionNet_1/mobilenetv2_1.00_224_1/block_9_depthwise_BN_1/Cast_1/ReadVariableOp/resource", "shape": [384], "dtype": "float32"}, {"name": "AttentionNet_1/mobilenetv2_1.00_224_1/block_9_depthwise_BN_1/Cast_2/ReadVariableOp/resource", "shape": [384], "dtype": "float32"}, {"name": "AttentionNet_1/mobilenetv2_1.00_224_1/block_9_depthwise_BN_1/Cast_3/ReadVariableOp/resource", "shape": [384], "dtype": "float32"}, {"name": "AttentionNet_1/mobilenetv2_1.00_224_1/block_9_depthwise_BN_1/Cast/ReadVariableOp/resource", "shape": [384], "dtype": "float32"}, {"name": "AttentionNet_1/mobilenetv2_1.00_224_1/block_9_project_1/convolution/ReadVariableOp/resource", "shape": [1, 1, 384, 64], "dtype": "float32"}, {"name": "AttentionNet_1/mobilenetv2_1.00_224_1/block_9_project_BN_1/Cast_1/ReadVariableOp/resource", "shape": [64], "dtype": "float32"}, {"name": "AttentionNet_1/mobilenetv2_1.00_224_1/block_9_project_BN_1/Cast_2/ReadVariableOp/resource", "shape": [64], "dtype": "float32"}, {"name": "AttentionNet_1/mobilenetv2_1.00_224_1/block_9_project_BN_1/Cast_3/ReadVariableOp/resource", "shape": [64], "dtype": "float32"}, {"name": "AttentionNet_1/mobilenetv2_1.00_224_1/block_9_project_BN_1/Cast/ReadVariableOp/resource", "shape": [64], "dtype": "float32"}, {"name": "AttentionNet_1/mobilenetv2_1.00_224_1/block_10_expand_1/convolution/ReadVariableOp/resource", "shape": [1, 1, 64, 384], "dtype": "float32"}, {"name": "AttentionNet_1/mobilenetv2_1.00_224_1/block_10_expand_BN_1/Cast_1/ReadVariableOp/resource", "shape": [384], "dtype": "float32"}, {"name": "AttentionNet_1/mobilenetv2_1.00_224_1/block_10_expand_BN_1/Cast_2/ReadVariableOp/resource", "shape": [384], "dtype": "float32"}, {"name": "AttentionNet_1/mobilenetv2_1.00_224_1/block_10_expand_BN_1/Cast_3/ReadVariableOp/resource", "shape": [384], "dtype": "float32"}, {"name": "AttentionNet_1/mobilenetv2_1.00_224_1/block_10_expand_BN_1/Cast/ReadVariableOp/resource", "shape": [384], "dtype": "float32"}, {"name": "AttentionNet_1/mobilenetv2_1.00_224_1/block_10_depthwise_1/depthwise/ReadVariableOp/resource", "shape": [3, 3, 384, 1], "dtype": "float32"}, {"name": "AttentionNet_1/mobilenetv2_1.00_224_1/block_10_depthwise_BN_1/Cast_1/ReadVariableOp/resource", "shape": [384], "dtype": "float32"}, {"name": "AttentionNet_1/mobilenetv2_1.00_224_1/block_10_depthwise_BN_1/Cast_2/ReadVariableOp/resource", "shape": [384], "dtype": "float32"}, {"name": "AttentionNet_1/mobilenetv2_1.00_224_1/block_10_depthwise_BN_1/Cast_3/ReadVariableOp/resource", "shape": [384], "dtype": "float32"}, {"name": "AttentionNet_1/mobilenetv2_1.00_224_1/block_10_depthwise_BN_1/Cast/ReadVariableOp/resource", "shape": [384], "dtype": "float32"}, {"name": "AttentionNet_1/mobilenetv2_1.00_224_1/block_10_project_1/convolution/ReadVariableOp/resource", "shape": [1, 1, 384, 96], "dtype": "float32"}, {"name": "AttentionNet_1/mobilenetv2_1.00_224_1/block_10_project_BN_1/Cast_1/ReadVariableOp/resource", "shape": [96], "dtype": "float32"}, {"name": "AttentionNet_1/mobilenetv2_1.00_224_1/block_10_project_BN_1/Cast_2/ReadVariableOp/resource", "shape": [96], "dtype": "float32"}, {"name": "AttentionNet_1/mobilenetv2_1.00_224_1/block_10_project_BN_1/Cast_3/ReadVariableOp/resource", "shape": [96], "dtype": "float32"}, {"name": "AttentionNet_1/mobilenetv2_1.00_224_1/block_10_project_BN_1/Cast/ReadVariableOp/resource", "shape": [96], "dtype": "float32"}, {"name": "AttentionNet_1/mobilenetv2_1.00_224_1/block_11_expand_1/convolution/ReadVariableOp/resource", "shape": [1, 1, 96, 576], "dtype": "float32"}, {"name": "AttentionNet_1/mobilenetv2_1.00_224_1/block_11_expand_BN_1/Cast_1/ReadVariableOp/resource", "shape": [576], "dtype": "float32"}, {"name": "AttentionNet_1/mobilenetv2_1.00_224_1/block_11_expand_BN_1/Cast_2/ReadVariableOp/resource", "shape": [576], "dtype": "float32"}, {"name": "AttentionNet_1/mobilenetv2_1.00_224_1/block_11_expand_BN_1/Cast_3/ReadVariableOp/resource", "shape": [576], "dtype": "float32"}, {"name": "AttentionNet_1/mobilenetv2_1.00_224_1/block_11_expand_BN_1/Cast/ReadVariableOp/resource", "shape": [576], "dtype": "float32"}, {"name": "AttentionNet_1/mobilenetv2_1.00_224_1/block_11_depthwise_1/depthwise/ReadVariableOp/resource", "shape": [3, 3, 576, 1], "dtype": "float32"}, {"name": "AttentionNet_1/mobilenetv2_1.00_224_1/block_11_depthwise_BN_1/Cast_1/ReadVariableOp/resource", "shape": [576], "dtype": "float32"}, {"name": "AttentionNet_1/mobilenetv2_1.00_224_1/block_11_depthwise_BN_1/Cast_2/ReadVariableOp/resource", "shape": [576], "dtype": "float32"}, {"name": "AttentionNet_1/mobilenetv2_1.00_224_1/block_11_depthwise_BN_1/Cast_3/ReadVariableOp/resource", "shape": [576], "dtype": "float32"}, {"name": "AttentionNet_1/mobilenetv2_1.00_224_1/block_11_depthwise_BN_1/Cast/ReadVariableOp/resource", "shape": [576], "dtype": "float32"}, {"name": "AttentionNet_1/mobilenetv2_1.00_224_1/block_11_project_1/convolution/ReadVariableOp/resource", "shape": [1, 1, 576, 96], "dtype": "float32"}, {"name": "AttentionNet_1/mobilenetv2_1.00_224_1/block_11_project_BN_1/Cast_1/ReadVariableOp/resource", "shape": [96], "dtype": "float32"}, {"name": "AttentionNet_1/mobilenetv2_1.00_224_1/block_11_project_BN_1/Cast_2/ReadVariableOp/resource", "shape": [96], "dtype": "float32"}, {"name": "AttentionNet_1/mobilenetv2_1.00_224_1/block_11_project_BN_1/Cast_3/ReadVariableOp/resource", "shape": [96], "dtype": "float32"}, {"name": "AttentionNet_1/mobilenetv2_1.00_224_1/block_11_project_BN_1/Cast/ReadVariableOp/resource", "shape": [96], "dtype": "float32"}, {"name": "AttentionNet_1/mobilenetv2_1.00_224_1/block_12_expand_1/convolution/ReadVariableOp/resource", "shape": [1, 1, 96, 576], "dtype": "float32"}, {"name": "AttentionNet_1/mobilenetv2_1.00_224_1/block_12_expand_BN_1/Cast_1/ReadVariableOp/resource", "shape": [576], "dtype": "float32"}, {"name": "AttentionNet_1/mobilenetv2_1.00_224_1/block_12_expand_BN_1/Cast_2/ReadVariableOp/resource", "shape": [576], "dtype": "float32"}, {"name": "AttentionNet_1/mobilenetv2_1.00_224_1/block_12_expand_BN_1/Cast_3/ReadVariableOp/resource", "shape": [576], "dtype": "float32"}, {"name": "AttentionNet_1/mobilenetv2_1.00_224_1/block_12_expand_BN_1/Cast/ReadVariableOp/resource", "shape": [576], "dtype": "float32"}, {"name": "AttentionNet_1/mobilenetv2_1.00_224_1/block_12_depthwise_1/depthwise/ReadVariableOp/resource", "shape": [3, 3, 576, 1], "dtype": "float32"}, {"name": "AttentionNet_1/mobilenetv2_1.00_224_1/block_12_depthwise_BN_1/Cast_1/ReadVariableOp/resource", "shape": [576], "dtype": "float32"}, {"name": "AttentionNet_1/mobilenetv2_1.00_224_1/block_12_depthwise_BN_1/Cast_2/ReadVariableOp/resource", "shape": [576], "dtype": "float32"}, {"name": "AttentionNet_1/mobilenetv2_1.00_224_1/block_12_depthwise_BN_1/Cast_3/ReadVariableOp/resource", "shape": [576], "dtype": "float32"}, {"name": "AttentionNet_1/mobilenetv2_1.00_224_1/block_12_depthwise_BN_1/Cast/ReadVariableOp/resource", "shape": [576], "dtype": "float32"}, {"name": "AttentionNet_1/mobilenetv2_1.00_224_1/block_12_project_1/convolution/ReadVariableOp/resource", "shape": [1, 1, 576, 96], "dtype": "float32"}, {"name": "AttentionNet_1/mobilenetv2_1.00_224_1/block_12_project_BN_1/Cast_1/ReadVariableOp/resource", "shape": [96], "dtype": "float32"}, {"name": "AttentionNet_1/mobilenetv2_1.00_224_1/block_12_project_BN_1/Cast_2/ReadVariableOp/resource", "shape": [96], "dtype": "float32"}, {"name": "AttentionNet_1/mobilenetv2_1.00_224_1/block_12_project_BN_1/Cast_3/ReadVariableOp/resource", "shape": [96], "dtype": "float32"}, {"name": "AttentionNet_1/mobilenetv2_1.00_224_1/block_12_project_BN_1/Cast/ReadVariableOp/resource", "shape": [96], "dtype": "float32"}, {"name": "AttentionNet_1/mobilenetv2_1.00_224_1/block_13_expand_1/convolution/ReadVariableOp/resource", "shape": [1, 1, 96, 576], "dtype": "float32"}, {"name": "AttentionNet_1/mobilenetv2_1.00_224_1/block_13_expand_BN_1/Cast_1/ReadVariableOp/resource", "shape": [576], "dtype": "float32"}, {"name": "AttentionNet_1/mobilenetv2_1.00_224_1/block_13_expand_BN_1/Cast_2/ReadVariableOp/resource", "shape": [576], "dtype": "float32"}, {"name": "AttentionNet_1/mobilenetv2_1.00_224_1/block_13_expand_BN_1/Cast_3/ReadVariableOp/resource", "shape": [576], "dtype": "float32"}, {"name": "AttentionNet_1/mobilenetv2_1.00_224_1/block_13_expand_BN_1/Cast/ReadVariableOp/resource", "shape": [576], "dtype": "float32"}, {"name": "AttentionNet_1/mobilenetv2_1.00_224_1/block_13_depthwise_1/depthwise/ReadVariableOp/resource", "shape": [3, 3, 576, 1], "dtype": "float32"}, {"name": "AttentionNet_1/mobilenetv2_1.00_224_1/block_13_depthwise_BN_1/Cast_1/ReadVariableOp/resource", "shape": [576], "dtype": "float32"}, {"name": "AttentionNet_1/mobilenetv2_1.00_224_1/block_13_depthwise_BN_1/Cast_2/ReadVariableOp/resource", "shape": [576], "dtype": "float32"}, {"name": "AttentionNet_1/mobilenetv2_1.00_224_1/block_13_depthwise_BN_1/Cast_3/ReadVariableOp/resource", "shape": [576], "dtype": "float32"}, {"name": "AttentionNet_1/mobilenetv2_1.00_224_1/block_13_depthwise_BN_1/Cast/ReadVariableOp/resource", "shape": [576], "dtype": "float32"}, {"name": "AttentionNet_1/mobilenetv2_1.00_224_1/block_13_project_1/convolution/ReadVariableOp/resource", "shape": [1, 1, 576, 160], "dtype": "float32"}, {"name": "AttentionNet_1/mobilenetv2_1.00_224_1/block_13_project_BN_1/Cast_1/ReadVariableOp/resource", "shape": [160], "dtype": "float32"}, {"name": "AttentionNet_1/mobilenetv2_1.00_224_1/block_13_project_BN_1/Cast_2/ReadVariableOp/resource", "shape": [160], "dtype": "float32"}, {"name": "AttentionNet_1/mobilenetv2_1.00_224_1/block_13_project_BN_1/Cast_3/ReadVariableOp/resource", "shape": [160], "dtype": "float32"}, {"name": "AttentionNet_1/mobilenetv2_1.00_224_1/block_13_project_BN_1/Cast/ReadVariableOp/resource", "shape": [160], "dtype": "float32"}, {"name": "AttentionNet_1/mobilenetv2_1.00_224_1/block_14_expand_1/convolution/ReadVariableOp/resource", "shape": [1, 1, 160, 960], "dtype": "float32"}, {"name": "AttentionNet_1/mobilenetv2_1.00_224_1/block_14_expand_BN_1/Cast_1/ReadVariableOp/resource", "shape": [960], "dtype": "float32"}, {"name": "AttentionNet_1/mobilenetv2_1.00_224_1/block_14_expand_BN_1/Cast_2/ReadVariableOp/resource", "shape": [960], "dtype": "float32"}, {"name": "AttentionNet_1/mobilenetv2_1.00_224_1/block_14_expand_BN_1/Cast_3/ReadVariableOp/resource", "shape": [960], "dtype": "float32"}, {"name": "AttentionNet_1/mobilenetv2_1.00_224_1/block_14_expand_BN_1/Cast/ReadVariableOp/resource", "shape": [960], "dtype": "float32"}, {"name": "AttentionNet_1/mobilenetv2_1.00_224_1/block_14_depthwise_1/depthwise/ReadVariableOp/resource", "shape": [3, 3, 960, 1], "dtype": "float32"}, {"name": "AttentionNet_1/mobilenetv2_1.00_224_1/block_14_depthwise_BN_1/Cast_1/ReadVariableOp/resource", "shape": [960], "dtype": "float32"}, {"name": "AttentionNet_1/mobilenetv2_1.00_224_1/block_14_depthwise_BN_1/Cast_2/ReadVariableOp/resource", "shape": [960], "dtype": "float32"}, {"name": "AttentionNet_1/mobilenetv2_1.00_224_1/block_14_depthwise_BN_1/Cast_3/ReadVariableOp/resource", "shape": [960], "dtype": "float32"}, {"name": "AttentionNet_1/mobilenetv2_1.00_224_1/block_14_depthwise_BN_1/Cast/ReadVariableOp/resource", "shape": [960], "dtype": "float32"}, {"name": "AttentionNet_1/mobilenetv2_1.00_224_1/block_14_project_1/convolution/ReadVariableOp/resource", "shape": [1, 1, 960, 160], "dtype": "float32"}, {"name": "AttentionNet_1/mobilenetv2_1.00_224_1/block_14_project_BN_1/Cast_1/ReadVariableOp/resource", "shape": [160], "dtype": "float32"}, {"name": "AttentionNet_1/mobilenetv2_1.00_224_1/block_14_project_BN_1/Cast_2/ReadVariableOp/resource", "shape": [160], "dtype": "float32"}, {"name": "AttentionNet_1/mobilenetv2_1.00_224_1/block_14_project_BN_1/Cast_3/ReadVariableOp/resource", "shape": [160], "dtype": "float32"}, {"name": "AttentionNet_1/mobilenetv2_1.00_224_1/block_14_project_BN_1/Cast/ReadVariableOp/resource", "shape": [160], "dtype": "float32"}, {"name": "AttentionNet_1/mobilenetv2_1.00_224_1/block_15_expand_1/convolution/ReadVariableOp/resource", "shape": [1, 1, 160, 960], "dtype": "float32"}, {"name": "AttentionNet_1/mobilenetv2_1.00_224_1/block_15_expand_BN_1/Cast_1/ReadVariableOp/resource", "shape": [960], "dtype": "float32"}, {"name": "AttentionNet_1/mobilenetv2_1.00_224_1/block_15_expand_BN_1/Cast_2/ReadVariableOp/resource", "shape": [960], "dtype": "float32"}, {"name": "AttentionNet_1/mobilenetv2_1.00_224_1/block_15_expand_BN_1/Cast_3/ReadVariableOp/resource", "shape": [960], "dtype": "float32"}, {"name": "AttentionNet_1/mobilenetv2_1.00_224_1/block_15_expand_BN_1/Cast/ReadVariableOp/resource", "shape": [960], "dtype": "float32"}, {"name": "AttentionNet_1/mobilenetv2_1.00_224_1/block_15_depthwise_1/depthwise/ReadVariableOp/resource", "shape": [3, 3, 960, 1], "dtype": "float32"}, {"name": "AttentionNet_1/mobilenetv2_1.00_224_1/block_15_depthwise_BN_1/Cast_1/ReadVariableOp/resource", "shape": [960], "dtype": "float32"}, {"name": "AttentionNet_1/mobilenetv2_1.00_224_1/block_15_depthwise_BN_1/Cast_2/ReadVariableOp/resource", "shape": [960], "dtype": "float32"}, {"name": "AttentionNet_1/mobilenetv2_1.00_224_1/block_15_depthwise_BN_1/Cast_3/ReadVariableOp/resource", "shape": [960], "dtype": "float32"}, {"name": "AttentionNet_1/mobilenetv2_1.00_224_1/block_15_depthwise_BN_1/Cast/ReadVariableOp/resource", "shape": [960], "dtype": "float32"}, {"name": "AttentionNet_1/mobilenetv2_1.00_224_1/block_15_project_1/convolution/ReadVariableOp/resource", "shape": [1, 1, 960, 160], "dtype": "float32"}, {"name": "AttentionNet_1/mobilenetv2_1.00_224_1/block_15_project_BN_1/Cast_1/ReadVariableOp/resource", "shape": [160], "dtype": "float32"}, {"name": "AttentionNet_1/mobilenetv2_1.00_224_1/block_15_project_BN_1/Cast_2/ReadVariableOp/resource", "shape": [160], "dtype": "float32"}, {"name": "AttentionNet_1/mobilenetv2_1.00_224_1/block_15_project_BN_1/Cast_3/ReadVariableOp/resource", "shape": [160], "dtype": "float32"}, {"name": "AttentionNet_1/mobilenetv2_1.00_224_1/block_15_project_BN_1/Cast/ReadVariableOp/resource", "shape": [160], "dtype": "float32"}, {"name": "AttentionNet_1/mobilenetv2_1.00_224_1/block_16_expand_1/convolution/ReadVariableOp/resource", "shape": [1, 1, 160, 960], "dtype": "float32"}, {"name": "AttentionNet_1/mobilenetv2_1.00_224_1/block_16_expand_BN_1/Cast_1/ReadVariableOp/resource", "shape": [960], "dtype": "float32"}, {"name": "AttentionNet_1/mobilenetv2_1.00_224_1/block_16_expand_BN_1/Cast_2/ReadVariableOp/resource", "shape": [960], "dtype": "float32"}, {"name": "AttentionNet_1/mobilenetv2_1.00_224_1/block_16_expand_BN_1/Cast_3/ReadVariableOp/resource", "shape": [960], "dtype": "float32"}, {"name": "AttentionNet_1/mobilenetv2_1.00_224_1/block_16_expand_BN_1/Cast/ReadVariableOp/resource", "shape": [960], "dtype": "float32"}, {"name": "AttentionNet_1/mobilenetv2_1.00_224_1/block_16_depthwise_1/depthwise/ReadVariableOp/resource", "shape": [3, 3, 960, 1], "dtype": "float32"}, {"name": "AttentionNet_1/mobilenetv2_1.00_224_1/block_16_depthwise_BN_1/Cast_1/ReadVariableOp/resource", "shape": [960], "dtype": "float32"}, {"name": "AttentionNet_1/mobilenetv2_1.00_224_1/block_16_depthwise_BN_1/Cast_2/ReadVariableOp/resource", "shape": [960], "dtype": "float32"}, {"name": "AttentionNet_1/mobilenetv2_1.00_224_1/block_16_depthwise_BN_1/Cast_3/ReadVariableOp/resource", "shape": [960], "dtype": "float32"}, {"name": "AttentionNet_1/mobilenetv2_1.00_224_1/block_16_depthwise_BN_1/Cast/ReadVariableOp/resource", "shape": [960], "dtype": "float32"}, {"name": "AttentionNet_1/mobilenetv2_1.00_224_1/block_16_project_1/convolution/ReadVariableOp/resource", "shape": [1, 1, 960, 320], "dtype": "float32"}, {"name": "AttentionNet_1/mobilenetv2_1.00_224_1/block_16_project_BN_1/Cast_1/ReadVariableOp/resource", "shape": [320], "dtype": "float32"}, {"name": "AttentionNet_1/mobilenetv2_1.00_224_1/block_16_project_BN_1/Cast_2/ReadVariableOp/resource", "shape": [320], "dtype": "float32"}, {"name": "AttentionNet_1/mobilenetv2_1.00_224_1/block_16_project_BN_1/Cast_3/ReadVariableOp/resource", "shape": [320], "dtype": "float32"}, {"name": "AttentionNet_1/mobilenetv2_1.00_224_1/block_16_project_BN_1/Cast/ReadVariableOp/resource", "shape": [320], "dtype": "float32"}, {"name": "AttentionNet_1/mobilenetv2_1.00_224_1/Conv_1_1/convolution/ReadVariableOp/resource", "shape": [1, 1, 320, 1280], "dtype": "float32"}, {"name": "AttentionNet_1/mobilenetv2_1.00_224_1/Conv_1_bn_1/Cast_1/ReadVariableOp/resource", "shape": [1280], "dtype": "float32"}, {"name": "AttentionNet_1/mobilenetv2_1.00_224_1/Conv_1_bn_1/Cast_2/ReadVariableOp/resource", "shape": [1280], "dtype": "float32"}, {"name": "AttentionNet_1/mobilenetv2_1.00_224_1/Conv_1_bn_1/Cast_3/ReadVariableOp/resource", "shape": [1280], "dtype": "float32"}, {"name": "AttentionNet_1/mobilenetv2_1.00_224_1/Conv_1_bn_1/Cast/ReadVariableOp/resource", "shape": [1280], "dtype": "float32"}, {"name": "AttentionNet_1/attention_fc1_1/Cast/ReadVariableOp/resource", "shape": [1280, 128], "dtype": "float32"}, {"name": "AttentionNet_1/attention_fc1_1/BiasAdd/ReadVariableOp/resource", "shape": [128], "dtype": "float32"}, {"name": "AttentionNet_1/region_output_1/Cast/ReadVariableOp/resource", "shape": [128, 10], "dtype": "float32"}, {"name": "AttentionNet_1/region_output_1/BiasAdd/ReadVariableOp/resource", "shape": [10], "dtype": "float32"}, {"name": "AttentionNet_1/attention_conv_1/Reshape/ReadVariableOp/resource", "shape": [1], "dtype": "float32"}, {"name": "AttentionNet_1/attention_conv_1/convolution/ReadVariableOp/resource", "shape": [1, 1, 1280, 1], "dtype": "float32"}]}]}